mlruns/0/7c2ceedbc6db4c3db7bfb5ef87b8f8d7/artifacts/model/data/model.pth (torch, 340328 bytes, 8 tensors)

weight f4 [200, 284]
000000 65 5f 17 bf b0 e7 20 bf cb 5a 11 3f 2c 99 13 bf
       -0.59129936 -0.6285353 0.56779164 -0.57655597
000010 ec 90 13 3f 13 a0 2d 3f 83 78 1e 3f 03 cb 0e 3f
       0.5764301 0.6782238 0.61902636 0.5577852
000020 22 7a 10 3f 36 a8 0b bf d1 75 29 bf 9e ee 22 bf
       0.5643636 -0.54553545 -0.661954 -0.6364535
000030 ee da 26 bf 5a d7 1d bf c5 2d 17 3f 5d 90 25 bf
       -0.6517781 -0.61656725 0.59054214 -0.64673406
000040 4c 5a 19 bf 02 ae 1a 3f aa 4c 11 3f 94 63 23 3f
       -0.5990341 0.60421765 0.56757605 0.6382382
000050 70 50 12 bf e8 7f 24 bf 90 99 14 3f 13 30 24 3f
       -0.5715399 -0.6425767 0.5804682 0.64135855
000060 36 7e 17 3f 0f ef 21 bf 42 4c 18 3f 1a 58 f8 3e
       0.5917696 -0.632554 0.5949136 0.48504716
000070 06 1b 0f bf df 8f 18 bf c8 89 11 3f 09 7d 18 3f
       -0.5590061 -0.5959453 0.5685086 0.5956579
000080 cc 0c 2d bf 2c 33 1f bf 1c 24 29 3f f1 af 1d 3f
       -0.6759765 -0.6218746 0.66070724 0.6159659
000090 74 f8 20 3f 61 86 22 bf d5 9d 1d 3f 93 55 4e bf
       0.6287911 -0.63486296 0.6156896 -0.80599326
0000a0 b2 e6 1f bf 39 9b 28 3f f1 c8 26 3f 47 78 18 bf
       -0.6246139 0.6586185 0.6515036 -0.5955853
0000b0 ed 4c 1c 3f 6d 7e 1d bf 59 39 1f 3f e1 d0 16 bf
       0.6105488 -0.61521035 0.6219688 -0.58912474
0000c0 26 d8 15 bf 8f 2f 25 3f 6c ea 13 bf c8 7f 1c bf
       -0.5853294 0.64525694 -0.57779574 -0.6113248
0000d0 b1 bc 23 bf 4d f9 0b bf 99 e4 27 bf 4a 62 31 3f
       -0.63959795 -0.5467728 -0.6558319 0.692906
0000e0 52 4d 27 3f 59 25 2d 3f a5 fa 15 bf b3 13 0d bf
       0.65352356 0.67635113 -0.5858558 -0.55108184
0000f0 b9 96 17 bf df 6c 19 bf 77 47 b6 3e 81 4b 14 3f
       -0.5921436 -0.5993175 0.35601398 0.5792771
000100 e0 3b 5d 3f f7 01 23 bf a2 59 34 3f f5 82 28 bf
       0.86419487 -0.63674873 0.7044927 -0.65824825
000110 0f d7 14 bf 09 f6 26 3f cc d3 28 bf 8e 6d 22 bf
       -0.58140653 0.6521917 -0.65948176 -0.6344842
000120 1d 88 17 3f de cf 10 bf 2c c8 3d bf 52 13 06 3f
       0.5919207 -0.5656718 -0.74133563 0.5237323
000130 f4 aa 24 bf e8 d8 15 3f 3e 9d 0e 3f bd e6 11 3f
       -0.64323354 0.585341 0.5570868 0.56992704
000140 6b dd 14 bf 01 f7 27 3f fe 29 2f 3f 1f 60 26 bf
       -0.58150357 0.65611273 0.6842345 -0.6499042
000150 2d cf 24 3f 4b 62 29 3f 55 d8 07 bf 5a 1b 1a 3f
       0.64378625 0.6616561 -0.5306447 0.60197985
000160 e2 c6 1f bf c4 bc 09 bf da 1c 12 bf ab 70 fd be
       -0.62412846 -0.5380366 -0.57075274 -0.4950002
000170 e8 02 2a bf 46 05 1a bf 77 be 26 3f a5 d4 11 3f
       -0.66410685 -0.60164297 0.65134376 0.56965095
000180 f6 a4 14 bf 35 3c 36 bf 1b 1c 23 bf 69 5d 4f be
       -0.5806421 -0.7118562 -0.6371476 -0.20250477
000190 2a 32 17 bf 8e 46 1b bf b0 0c 21 3f 14 3e d7 3e
       -0.5906092 -0.6065453 0.62909985 0.4203955
0001a0 63 90 07 bf 02 d7 b7 be 11 ad 16 3f 54 b7 1b bf
       -0.5295469 -0.35906225 0.5885783 -0.6082661
0001b0 b2 b2 16 3f 2c 3d 27 3f 15 6b 24 3f 81 d3 14 3f
       0.5886642 0.65327716 0.64225894 0.5813523
0001c0 c9 cd 2b 3f 1b cb 1b bf ba 8d 12 bf 1d e1 1d bf
       0.6711088 -0.6085679 -0.5724751 -0.6167162
0001d0 78 e1 1b bf 01 de 10 3f 3e 00 3e bf 4f 0e 10 3f
       -0.60890913 0.5658875 -0.7421912 0.56271833
0001e0 23 c1 14 3f 77 d1 1c bf 1b 33 22 3f f6 1e 1b bf
       0.58107203 -0.6125712 0.6335923 -0.6059412
0001f0 4a f7 25 bf b4 df 1c 3f 8e a2 35 3f 03 40 c2 3e
       -0.6483046 0.61278844 0.70951164 0.37939462
000200 70 1c 19 3f 01 5c 1b 3f e1 a1 f3 3e ca ea 10 bf
       0.5980902 0.6068726 0.4758444 -0.5660826
000210 42 20 1d 3f 2f 72 29 3f 6c 6e 0b bf 0c 99 15 3f
       0.61377347 0.66189855 -0.54465365 0.58436656
000220 5b 34 06 bf 1b 1e 16 3f fb 02 19 3f 78 b9 14 bf
       -0.5242364 0.5863969 0.5977017 -0.580955
000230 9d 36 1e bf 3d f8 16 3f 95 9a 1e bf 6e df 1f bf
       -0.61802083 0.5897253 -0.61954623 -0.624503
000240 b6 e2 1a bf 13 e5 13 3f 38 f3 09 bf 6c 54 04 bf
       -0.60502183 0.57771415 -0.5388675 -0.5169132
000250 10 61 12 3f c4 d7 0e 3f ba 33 0e bf 6b a2 2a 3f
       0.57179356 0.5579798 -0.5554768 0.6665408
000260 4f 0f 21 3f f8 d0 1c 3f c6 40 24 3f 63 4e 12 bf
       0.62913984 0.6125636 0.64161336 -0.5715086
000270 cc 3b ee 3e 54 03 2d bf 40 eb 1d 3f a6 35 17 bf
       0.46529996 -0.67583203 0.6168709 -0.59066236
000280 52 77 2a bf 86 8c 10 3f 6c 12 0b bf e1 43 24 bf
       -0.6658832 0.5646442 -0.54324985 -0.64166075
000290 e4 c0 1a 3f b1 df 17 bf fa 52 07 3f c9 81 1e bf
       0.6045058 -0.593257 0.5286099 -0.61916786
0002a0 02 b8 14 bf 4c 7a 1a bf 71 12 0b 3f 6d 7e 0d 3f
       -0.58093274 -0.6034286 0.54325014 0.55271035
0002b0 ca 06 0c 3f 26 75 0c 3f 80 fb 24 3f 2b 3d 29 bf
       0.5469786 0.54866254 0.6444626 -0.6610896
0002c0 4f 24 1b 3f 24 09 10 3f e8 af 17 bf 13 56 10 3f
       0.6060228 0.5626395 -0.59252787 0.5638134
0002d0 59 2b e5 be d6 7c 0c bf f2 0d 17 3f 5c 24 6d be
       -0.44759634 -0.54877985 0.59005654 -0.23158401
0002e0 fd 34 28 3f 24 df 08 3f a0 55 12 bf bb fc 11 3f
       0.65705854 0.53465486 -0.57161903 0.5702626
0002f0 79 fe 29 3f ce c6 7c 3e 85 00 10 bf 5d ec 34 bf
       0.6640392 0.24685213 -0.5625079 -0.7067316
000300 35 0a 24 3f 21 fd 14 3f 85 e9 0f 3f f7 51 1f bf
       0.64078075 0.58198744 0.562157 -0.62234443
000310 c2 65 20 bf b6 96 23 3f 37 d5 10 3f b4 f0 0a bf
       -0.6265527 0.6390184 0.5657534 -0.54273534
000320 a5 50 17 bf 7c 72 20 bf 63 14 25 3f b0 51 15 bf
       -0.5910743 -0.6267469 0.6448423 -0.5832777
000330 bf e6 18 3f 2d 40 13 3f 1f cc 19 bf 28 b3 0c bf
       0.5972709 0.575198 -0.6007709 -0.5496087
000340 ab c9 17 3f 3b bc 23 3f df 6c 13 3f 3c 98 16 bf
       0.59292096 0.6395909 0.57588 -0.5882604
000350 3d 21 1d bf f2 72 26 bf 38 09 0b 3f 75 93 20 bf
       -0.6137884 -0.6501914 0.5431094 -0.62725
000360 24 de 1d 3f f8 e6 fb 3e b7 1c 14 3f b0 98 0e 3f
       0.61667085 0.49199653 0.57856315 0.5570173
000370 5f 32 2a bf 20 c8 f4 3e fb cf 0c 3f 32 f8 2e bf
       -0.6648311 0.47808933 0.55004853 -0.68347466
000380 37 37 4d 3f d2 c3 29 3f 80 d7 10 bf 20 4c 13 bf
       0.80162376 0.66314423 -0.56578827 -0.5753803
000390 7c 13 1a 3f ad 3e 01 bf 60 1a 0c bf 6c 3c 11 bf
       0.6018598 -0.5048626 -0.54727745 -0.5673282
0003a0 69 67 14 bf 73 9d 14 bf 5a 23 12 bf 79 10 23 3f
       -0.5797029 -0.5805275 -0.5708519 0.6369701
0003b0 62 37 21 bf f1 ed 15 3f 38 0f 25 bf c6 16 1d 3f
       -0.6297513 0.58566195 -0.64476347 0.61362875
0003c0 db 81 17 bf 3b 27 23 3f e6 f7 0b bf e4 d1 27 3f
       -0.5918252 0.63731736 -0.5467514 0.6555464
0003d0 dd bd 26 3f be 3d 0b 3f d6 ed 10 3f be 6c 1d 3f
       0.6513346 0.54391086 0.5661291 0.6149405
0003e0 29 69 20 bf e9 8f 1b 3f 12 87 0b bf 72 12 2b bf
       -0.6266046 0.60766464 -0.54502976 -0.6682502
0003f0 2d d4 1f bf 8c 28 18 3f 70 df 11 3f f8 c7 10 bf
       -0.6243313 0.5943687 0.56981564 -0.5655513

bias f4 [200]
000000 ec 76 17 3f 6f 96 18 bf 19 54 1d bf 7e 95 16 bf
       0.59165835 -0.59604543 -0.6145645 -0.58821857
000010 92 50 1f 3f 86 8f 11 3f c6 2b 07 bf 52 c7 0f 3f
       0.62232316 0.56859624 -0.5280117 0.56163514
000020 db 44 04 bf c5 42 17 3f 83 84 2a bf d3 74 1e 3f
       -0.51667565 0.5908626 -0.66608447 0.6189701
000030 08 66 1b bf d4 70 b6 be d1 e9 38 bf 0d a0 f7 3e
       -0.6070256 -0.35632956 -0.72231776 0.48364297
000040 75 e0 db 3e 42 c0 12 bf 4f 6d 25 bf f5 f0 19 3f
       0.42944685 -0.5732461 -0.64619917 0.60133296
000050 6f ae 17 3f 3b da 14 bf d0 53 db 3d ce 40 46 3f
       0.5925054 -0.58145493 0.10709345 0.77442634
000060 f3 84 16 bf 08 de 1a bf 7c a8 0a 3f c1 d3 28 bf
       -0.58796614 -0.6049504 0.54163337 -0.6594811
000070 d3 9a 2b bf cb e4 27 bf 8f ed 42 bf 71 e2 2f bf
       -0.6703312 -0.65583485 -0.76143736 -0.687049
000080 17 60 26 bf a6 d7 17 3f d4 58 36 bf 2a f7 1c bf
       -0.6499037 0.5931343 -0.7122929 -0.6131464
000090 0b 2b 0d bf a9 ff 0c 3f 9c cc 1d 3f a4 eb 3b bf
       -0.55143803 0.55077606 0.61640334 -0.73406434
0000a0 59 94 0e bf 8c 84 54 3e 09 6e 0d 3f 30 4f 15 bf
       -0.5569511 0.20753688 0.55246025 -0.58323956
0000b0 bd b2 2f bf 60 47 1a bf 9f 61 01 3f 61 3e 20 bf
       -0.6863211 -0.6026516 0.5053958 -0.6259518
0000c0 f6 a2 1d bf 16 50 18 3f df 13 07 3f f1 64 1b bf
       -0.61576784 0.594972 0.52764696 -0.607009
0000d0 3f af ec 3e 3d 2e 13 3f b3 c0 15 3f f8 f4 12 3f
       0.46227452 0.5749243 0.5849716 0.5740504
0000e0 4b a7 21 bf 82 49 13 3f c3 56 19 3f c0 a9 21 bf
       -0.63145894 0.5753404 0.5989801 -0.6314964
0000f0 66 4e 07 3f fd de 11 bf 76 27 2a 3f 3d 2e ab 3e
       0.52854 -0.5698088 0.6646646 0.33433715
000100 65 4e 06 3f 51 d4 01 3f d7 54 20 3f 40 be 15 bf
       0.5246337 0.50714594 0.62629455 -0.58493423
000110 3c 51 0b bf 8a 92 0b bf 37 a3 00 3f f7 d1 0d bf
       -0.5442083 -0.54520476 0.50249046 -0.55398506
000120 e5 51 27 bf b8 c4 1c bf 8c ba 16 bf 99 12 1f 3f
       -0.65359336 -0.6123767 -0.588784 0.6213775
000130 2e 50 1f bf 75 82 39 bf 43 63 44 bf b3 4d 2c bf
       -0.6223172 -0.72464687 -0.7671396 -0.6730606
000140 77 85 23 bf b5 22 27 3f 9a 23 15 bf 2f a6 3d bf
       -0.63875526 0.65287334 -0.5825745 -0.740817
000150 97 50 17 3f c0 89 35 3f 93 e7 22 bf 04 79 20 bf
       0.59107345 0.70913315 -0.63634604 -0.62684655
000160 e4 04 4d bf 38 29 19 bf 77 a2 17 3f 52 30 28 bf
       -0.8008559 -0.5982852 0.59232277 -0.6569873
000170 0b 13 14 3f ca 1f 2b 3f e0 a8 16 3f e2 5a 14 3f
       0.5784156 0.6684538 0.5885143 0.57951176
000180 d0 87 18 bf 1b a4 17 3f 36 7b 2c bf 3d a2 1d bf
       -0.59582233 0.5923478 -0.67375505 -0.6157568
000190 05 78 20 bf 81 ee 0d 3f 51 18 13 bf 8a 8a 27 3f
       -0.62683135 0.55442053 -0.5745898 0.6544577
0001a0 df a5 3b 3f af b7 0e bf 51 0d 1c 3f a7 3e 0c 3f
       0.73299974 -0.5574903 0.6095782 0.547831
0001b0 00 8e 23 bf d7 01 66 be 47 ed 0b bf ab 5f 1e bf
       -0.6388855 -0.2246164 -0.5465893 -0.6186473
0001c0 a2 1f 12 bf 27 ad 1f bf 71 f2 1f bf 7b fe 16 bf
       -0.5707952 -0.62373585 -0.6247931 -0.58982056
0001d0 d7 7a 40 bf bd 29 0d 3f 9f 7d 26 3f 34 16 11 bf
       -0.7518744 0.5514181 0.6503543 -0.56674504
0001e0 ee 86 0f 3f 1f 53 90 3c cc 51 12 3f 20 61 06 3f
       0.5606526 0.01761776 0.5715606 0.5249195
0001f0 10 4e 05 3f 90 0d 1b 3f ea e3 0d bf 40 15 ce 3e
       0.5207224 0.6056757 -0.55425894 0.40250587
000200 14 91 0e 3f 5f a4 14 3f 40 2c 27 3f 87 05 0e 3f
       0.5569012 0.5806331 0.65301895 0.55477184
000210 ad b4 19 3f ab 28 12 bf 75 2e 25 3f db 7d 2b bf
       0.60041314 -0.57093304 0.6452401 -0.66988915
000220 15 df 23 3f ed d7 19 bf 1a af 10 bf 20 5d 18 3f
       0.6401227 -0.600951 -0.56517184 0.595171
000230 98 d2 0d bf 50 33 27 bf 3a d9 21 bf d8 49 17 bf
       -0.55399466 -0.6531267 -0.63222086 -0.5909705
000240 57 c3 5b bf 6c 69 31 bf d7 b5 11 bf ff e5 21 3f
       -0.8584494 -0.69301486 -0.5691809 0.6324157
000250 ad b6 02 3f 11 ba 09 3f 44 53 08 3f 4c da 21 bf
       0.5105999 0.5379954 0.53252053 -0.6322372
000260 2e 80 12 3f 4c 22 32 bf 62 e5 1c 3f 94 71 1f bf
       0.57226837 -0.6958358 0.6128751 -0.6228268
000270 46 7b 1a 3f 92 0e 13 3f 8d 9d 31 bf 78 2e 16 3f
       0.6034435 0.5744411 -0.6938103 0.58664656
000280 8a 45 0b 3f 25 bc 36 bf 87 79 1e 3f 90 9b 15 3f
       0.54402983 -0.71380836 0.61904186 0.58440495
000290 9d c7 22 bf 28 dc 22 bf 96 be 14 3f d9 59 1f 3f
       -0.63585836 -0.6361718 0.5810331 0.6224647
0002a0 fc 52 2d 3f 85 77 26 bf 35 77 22 bf d4 3d 29 bf
       0.6770475 -0.6502612 -0.63463145 -0.6610997
0002b0 5d 5f 21 bf 46 56 0b 3f b9 40 20 bf ef b4 28 3f
       -0.6303614 0.5442852 -0.6259876 0.6590108
0002c0 a1 52 1d 3f 9b c5 08 3f da 88 18 bf 0f c0 10 3f
       0.61454207 0.5342652 -0.5958382 0.5654306
0002d0 6f be 2e bf a6 4f 1d 3f 4a 57 59 bf 09 9d 1f bf
       -0.6825933 0.6144966 -0.8489882 -0.6234899
0002e0 05 97 18 bf 09 0e 23 3f a5 b8 0d bf b1 da 09 3f
       -0.5960544 0.6369329 -0.5535987 0.5384932
0002f0 90 61 1a 3f 8e 35 0a bf 4f 9a 1c bf 05 e4 17 bf
       0.6030512 -0.5398797 -0.61172956 -0.59332305
000300 2d d3 10 3f 96 12 22 3f 22 dd 07 bf f4 06 2a bf
       0.5657223 0.6330961 -0.53071797 -0.6641686
000310 3b 50 2a bf 75 a4 27 bf 37 91 15 3f c0 a4 0e 3f
       -0.6652867 -0.65485317 0.58424705 0.5572014

weight f4 [100, 200]
000000 07 48 1b bf 74 ee 0b bf 1c ea 0c bf e6 34 1f bf
       -0.6065678 -0.54660726 -0.5504472 -0.6219009
000010 10 96 1d bf 11 92 25 bf 49 1b 18 bf c0 7e 0e bf
       -0.615571 -0.64676005 -0.59416634 -0.55662155
000020 8a 51 0a bf db 4b 11 bf 17 d6 15 bf 0f d5 17 bf
       -0.5403067 -0.5675637 -0.585298 -0.59309477
000030 4b cc 17 bf b7 34 0e bf b5 ed 0f bf d3 5a 28 bf
       -0.592961 -0.55549186 -0.5622209 -0.65763587
000040 23 ba 09 bf 57 85 0b bf 96 72 15 bf 13 78 07 bf
       -0.5379965 -0.54500335 -0.5837797 -0.52917594
000050 e7 ea 1d bf 58 9d 27 bf 48 26 14 bf 69 ab f5 3e
       -0.6168656 -0.6547446 -0.5787091 0.47982338
000060 44 00 22 bf 32 f2 16 bf e1 b0 26 bf 07 94 0e bf
       -0.63281655 -0.5896331 -0.65113646 -0.5569462
000070 75 a7 66 bd d6 75 14 bf 6f 24 0d bf 2e a7 10 bf
       -0.056312043 -0.57992303 -0.5513372 -0.56505096
000080 ef 33 24 bf 11 4a 29 bf e6 46 16 3f 73 54 1e bf
       -0.64141744 -0.6612864 0.5870193 -0.6184761
000090 0a 96 1a bf 58 93 1b bf f5 3b 10 bf c5 41 0f bf
       -0.6038519 -0.60771704 -0.5634149 -0.5595973
0000a0 bf dc 0a bf fe 50 22 bf ac 4c 13 bf 68 c3 0e bf
       -0.5424308 -0.63404834 -0.57538867 -0.55766916
0000b0 16 5f 17 bf 9b 59 29 bf ee 9f 18 bf 75 28 27 3f
       -0.59129465 -0.6615235 -0.59619033 0.6529611
0000c0 b5 56 0a bf f4 14 1e bf dd 96 18 bf 01 3c 09 bf
       -0.54038554 -0.6175072 -0.596052 -0.53607184
0000d0 39 86 29 bf 35 86 1e bf e0 27 2a bf 2e c8 10 bf
       -0.6622043 -0.61923534 -0.66467094 -0.5655545
0000e0 0f b1 18 bf fa bb 12 3f 51 8e 27 bf c1 26 08 bf
       -0.5964517 0.5731808 -0.6545153 -0.53184134
0000f0 2a 55 1c bf 36 ad 16 3f ee b9 16 bf 29 74 18 bf
       -0.6106745 0.5885805 -0.58877456 -0.59552246
000100 0c d3 26 bf c6 30 14 bf bd 76 0c bf a3 b7 0d bf
       -0.6516578 -0.5788692 -0.5486868 -0.5535833
000110 a9 77 1e bf 25 6c 0e bf 5e bf 24 bf d4 56 0f bf
       -0.61901337 -0.55633765 -0.64354503 -0.55991864
000120 fe b3 2a bf b5 fd 0a bf ed ba 0c bf 18 ae 0b 3f
       -0.66680896 -0.54293376 -0.54972726 0.5456252
000130 81 da 26 bf 28 db 1e bf f3 ce 0a bf 3a 9d 2b bf
       -0.6517716 -0.62053156 -0.5422203 -0.67036784
000140 75 01 2a bf 16 da 1c bf ca df 07 bf ca f3 1e bf
       -0.66408473 -0.6127027 -0.5307585 -0.6209074
000150 2e e7 10 bf 4a 81 1b bf dc f9 20 bf 76 fe 0b bf
       -0.5660275 -0.60744154 -0.62881255 -0.5468515
000160 02 b4 21 bf f8 6d 0b bf 60 6a 0a bf a8 fd 10 bf
       -0.63165295 -0.54464674 -0.54068565 -0.5663705
000170 2e 72 13 bf bb 0c 15 bf 66 b2 1d bf de 81 29 bf
       -0.575961 -0.5822255 -0.6160034 -0.66213787
000180 3c cc 10 bf e2 22 1d bf 3c 8e 28 bf 1a d8 07 bf
       -0.56561637 -0.6138135 -0.6584203 -0.5306412
000190 41 9b 13 bf d2 79 0e bf 36 81 22 bf 79 3c 21 bf
       -0.57658774 -0.55654633 -0.6347841 -0.629829
0001a0 fd 6b 1d bf 49 f7 1e bf a8 b9 1e bf 7e a1 14 bf
       -0.614929 -0.6209608 -0.6200204 -0.5805892
0001b0 35 17 12 bf f6 b8 28 bf a6 16 1d bf 0e 28 1d bf
       -0.5706666 -0.6590723 -0.61362684 -0.61389244
0001c0 e1 72 15 bf 0f 1d 15 bf ad a9 0d bf 7e 01 0c bf
       -0.58378416 -0.58247465 -0.5533703 -0.54689777
0001d0 e6 2d 0a bf a4 9b 16 bf db af 1b bf 66 bc 10 bf
       -0.53976285 -0.5883124 -0.6081521 -0.56537473
0001e0 c9 2a 21 bf 1e 95 1d bf da 77 1f bf 35 de 14 bf
       -0.6295591 -0.6155566 -0.62292254 -0.5815156
0001f0 8d 2b 18 bf 7d 1f 16 3f 14 83 1e 3f e6 80 13 bf
       -0.59441453 0.586418 0.6191876 -0.5761856
000200 c6 41 26 bf 0b 82 16 bf 9f d7 1c bf ef d1 1f bf
       -0.6494411 -0.5879218 -0.6126651 -0.6242971
000210 db ac 24 bf dc 9d 09 bf d2 c4 1f bf 1f 3c 25 bf
       -0.64326257 -0.537565 -0.624097 -0.6454486
000220 db 09 0f bf 98 28 26 bf 52 fe 14 bf 9b 82 24 bf
       -0.55874413 -0.6490569 -0.5820056 -0.6426179
000230 da a0 0e bf 41 90 0c bf 3d 8d 17 bf b8 51 1b bf
       -0.5571419 -0.54907614 -0.5919989 -0.6067157
000240 d0 5b 22 3f 76 a8 1b bf 4f 00 19 bf 64 65 15 bf
       0.63421345 -0.60803926 -0.59766096 -0.58357835
000250 bc 63 2b bf 75 97 2b bf 7b 93 19 bf 99 ab 15 bf
       -0.6694906 -0.6702798 -0.5999066 -0.5846496
000260 5e 35 1d bf 80 18 13 bf 1a c6 17 bf 1c b8 0c bf
       -0.61409557 -0.5745926 -0.59286654 -0.5496843
000270 27 74 15 bf 70 db 28 3f 2d 23 19 bf ff 60 14 3f
       -0.5838036 0.65959835 -0.598193 0.57960504
000280 c8 80 1b bf ff f8 0c 3f 1a c7 15 bf 71 3f 10 bf
       -0.6074338 0.5506744 -0.5850693 -0.56346804
000290 16 4a 1d bf fc e1 0d bf 45 16 1f bf 54 d7 0b bf
       -0.6144117 -0.5542295 -0.62143356 -0.5462544
0002a0 a7 10 29 bf 7c dd 25 bf 93 4e 11 bf 0f 38 29 bf
       -0.66041034 -0.64791083 -0.5676052 -0.66101164
0002b0 5c c7 0e bf 22 88 25 bf 99 ff 11 bf 7f 48 0c bf
       -0.5577295 -0.6466085 -0.57030636 -0.5479812
0002c0 59 84 10 3f 3d ee 22 bf 0d 72 08 bf ff 32 0a bf
       0.56451946 -0.6364477 -0.5329903 -0.53984064
0002d0 8a a8 1b bf d4 e9 20 bf 83 05 29 bf 47 df 22 bf
       -0.60804045 -0.62856793 -0.66024035 -0.63621944
0002e0 51 8c 0f bf 2c c1 16 bf f6 a6 0b bf 01 8e 0d bf
       -0.5607348 -0.58888507 -0.5455164 -0.55294806
0002f0 8f a8 1c bf 5d 4d 16 bf cd 1b 10 bf 6d 19 1f bf
       -0.611947 -0.58711797 -0.5629242 -0.6214817
000300 d2 b5 24 bf e6 06 20 bf 8a d1 14 bf d3 6b 1e bf
       -0.64339936 -0.62510526 -0.5813223 -0.61883277
000310 c9 3d 21 bf 93 6f 10 bf 99 71 21 bf 5f 4c 27 bf
       -0.629849 -0.5642025 -0.6306396 -0.6535091
000320 06 9d 1a 3f 0e e7 20 bf e3 6b 20 3f ae 93 0e bf
       0.6039585 -0.6285256 0.6266462 -0.5569409
000330 9d 4e 12 3f e4 f5 1b bf 55 93 29 3f 2f bd 0b bf
       0.57151204 -0.60922074 0.66240436 -0.54585546
000340 4b 00 27 bf 9d 16 36 3f d8 da 1e bf b2 04 0d 3f
       -0.6523482 0.71128255 -0.6205268 0.5508529
000350 98 38 17 3f e1 47 1d bf db e2 0c bf ad 73 1d 3f
       0.5907073 -0.61437804 -0.55033654 0.6150463
000360 cf 34 30 3f dd 34 1c 3f 0b 05 25 3f f6 6c 26 3f
       0.6883058 0.6101816 0.6446082 0.6501001
000370 7b d0 19 3f 28 21 08 bf da bd 8d 3e 60 d0 1c bf
       0.6008374 -0.5317559 0.27683908 -0.61255455
000380 32 bb 17 3f 93 0a 1c bf 6a c6 1a 3f 01 52 27 bf
       0.5927001 -0.60953635 0.60459006 -0.65359503
000390 ec 55 0e 3f 78 8a 16 bf 00 4e 1e bf eb 0b 1d bf
       0.55599856 -0.58805037 -0.6183777 -0.6134631
0003a0 78 93 10 3f 12 fb 14 3f f7 58 1f 3f 42 68 2a 3f
       0.5647502 0.581956 0.62245125 0.66565335
0003b0 59 39 07 bf 78 5d 0a bf 79 d5 15 3f db 2d 10 3f
       -0.5282188 -0.5404887 0.5852886 0.5631997
0003c0 ee 23 16 bf 23 f0 13 3f 30 88 14 3f 21 f3 09 bf
       -0.58648574 0.57788295 0.58020306 -0.5388661
0003d0 f7 d7 0c 3f 64 24 ef be c9 2d 1a 3f d8 9e 0e bf
       0.55017036 -0.4670745 0.6022611 -0.55711126
0003e0 85 18 11 bf 18 6c 1e 3f 20 1c 2c 3f f8 3f 09 bf
       -0.5667804 0.6188369 0.67230415 -0.53613234
0003f0 8e 34 20 3f 7d f2 12 bf 7a 8c 27 3f 17 04 16 3f
       0.6258019 -0.5740126 0.65448725 0.5859999

bias f4 [100]
000000 e4 ea 1b bf 13 dd 4a 3f 19 41 88 be 44 05 21 3f
       -0.6090529 0.7924358 -0.26612166 0.6289866
000010 1d b6 24 3f b7 db 04 be ff e1 1d bf 06 7b 13 bf
       0.6434038 -0.1297444 -0.6167297 -0.57609594
000020 8f 40 1f 3f e8 37 09 3f d2 53 1d 3f 5d 41 0e 3f
       0.62207884 0.5360093 0.61456025 0.55568486
000030 64 58 0e bf 8a b9 25 bf ce ec 1b 3f f6 3a 0f bf
       -0.55603623 -0.64736235 0.6090821 -0.5594934
000040 f2 eb 27 bf 28 74 20 bf 06 cf 0b bf b8 40 2c 3f
       -0.655944 -0.6267724 -0.5461277 0.6728625
000050 62 43 26 bf 58 41 1c 3f c5 0a 1c 3f 6b 58 20 bf
       -0.6494657 0.61037207 0.60953933 -0.62634915
000060 f2 44 0e 3f dd 77 09 3f 3c ee 29 bf 66 8b 16 bf
       0.5557395 0.5369852 -0.6637914 -0.58806455
000070 5c 45 16 bf 4a 66 15 3f d0 6d 12 bf 46 25 08 bf
       -0.58699584 0.58359206 -0.5719881 -0.53181875
000080 fc f0 95 bb 09 4e f7 3e 57 11 23 bf 2f e9 08 bf
       -0.0045758467 0.48301724 -0.63698334 -0.5348081
000090 a6 51 05 3f a9 70 0c 3f d4 f0 26 bf c6 c2 21 bf
       0.5207771 0.54859406 -0.65211225 -0.63187826
0000a0 4c 9d 09 bf 1e 56 33 bf bd e7 1d bf ff 93 0d 3f
       -0.5375564 -0.7005328 -0.6168173 0.5530395
0000b0 ba a8 1c bf 32 de 07 3f 9a a0 11 bf 13 de 08 3f
       -0.61194956 0.5307342 -0.56885684 0.5346386
0000c0 f2 fe 13 3f 0b c5 22 bf 5e bd 10 bf ff b2 1b 3f
       0.5781089 -0.63581914 -0.5653895 0.6082
0000d0 ad d4 11 3f fc bf 1a bf 7b 35 0d 3f ae fd 2f 3f
       0.5696514 -0.60449195 0.5515973 0.6874646
0000e0 3c 63 10 bf 95 8d 18 bf 93 b9 2a bf 10 7c 36 3f
       -0.5640142 -0.5959104 -0.66689414 0.71283054
0000f0 a8 69 24 3f bc a6 17 bf bc 4e 20 3f fc 67 24 3f
       0.6422372 -0.5923879 0.6262014 0.6422117
000100 4d eb 1c bf f9 31 2b bf d8 d7 1b 3f e6 f0 08 bf
       -0.6129654 -0.6687313 0.60876226 -0.5349258
000110 2a 8c 09 3f 25 5c 08 bf e9 87 1a 3f ff de 14 3f
       0.537295 -0.532656 0.6036363 0.58152765
000120 19 3c 1b bf 58 bc c7 3e f1 34 18 3f d8 53 12 bf
       -0.60638577 0.39010882 0.5945578 -0.57159185
000130 06 18 0f bf 19 ab 0f 3f 7f a9 29 bf bd d8 27 bf
       -0.5589603 0.5612045 -0.66274256 -0.6556509
000140 82 8b 14 3f 5e c2 26 bf 1a 75 1a 3f f4 64 28 bf
       0.5802537 -0.6514033 0.6033493 -0.6577904
000150 fc d1 01 3f bd 9d f4 3e 6c b0 14 3f 34 d1 15 bf
       0.50711036 0.47776595 0.580817 -0.58522344
000160 a6 ec 11 bf 08 85 5c bf dd 6c 0b bf f1 ab 13 bf
       -0.5700172 -0.8614049 -0.5446299 -0.57684237
000170 17 fe 20 bf 9c 05 22 bf 6b 90 0c bf 9d 26 28 3f
       -0.6288771 -0.6328981 -0.54907864 0.6568392
000180 fd 7c 17 bf f2 f4 0b bf 75 14 3a 3f 46 32 10 3f
       -0.5917509 -0.5467063 0.72687465 0.5632671

weight f4 [50, 100]
000000 f9 b4 1f 3f b6 a7 13 3f c6 0b 1a 3f 02 cc 16 3f
       0.6238552 0.5767778 0.60174215 0.5890504
000010 07 44 56 bf 43 e5 e7 3e 78 46 2c bf 1f 2e 1a 3f
       -0.8369755 0.452921 -0.67295027 0.60226625
000020 00 36 06 bf 4b 0f 1b 3f aa ab 11 bf f3 21 1e 3f
       -0.5242615 0.6057021 -0.56902564 0.6177055
000030 db 1d 0a bf ac b2 15 3f 82 f1 20 3f c8 0f 2a bf
       -0.53951806 0.58475757 0.6286851 -0.6643033
000040 95 38 1d 3f b8 6a 2c 3f 9a 74 04 bf 97 c5 52 3e
       0.6141446 0.6735034 -0.5174042 0.20583187
000050 c3 af 0a bf 2c 3f 1a bf f1 d8 03 3f 6d c7 0e 3f
       -0.5417444 -0.6025264 0.515029 0.5577305
000060 48 bd 86 3d 2e 52 17 bf 24 6b 22 bf 3b ad 00 3f
       0.06579071 -0.5910977 -0.63444734 0.5026433
000070 83 7f 03 bf 99 5b 21 bf e2 9f 17 bf 25 4c 32 3f
       -0.5136644 -0.6303039 -0.59228337 0.6964744
000080 fc a4 67 be b4 c7 09 3f e2 a0 22 bf 1d 22 29 bf
       -0.2262153 0.5382035 -0.6352674 -0.6606768
000090 65 e4 1b 3f cc b0 00 3f d3 84 1e 3f 1a 33 09 bf
       0.6089538 0.5026977 0.61921424 -0.535936
0000a0 6a 0e 01 bf 2f 47 00 3f 03 ac 0b bf ec de 08 3f
       -0.5041262 0.5010862 -0.54559344 0.5346515
0000b0 62 a2 25 3f 29 c6 19 3f 7f 36 0e 3f fa 96 a0 be
       0.647009 0.60067993 0.55551904 -0.31365186
0000c0 87 2f e1 3e 00 32 0e 3f 79 a0 08 bf ff a2 12 3f
       0.43981573 0.55545044 -0.5336986 0.5727996
0000d0 b8 8c 2a 3f eb 7c 1b bf 59 0b 18 3f 19 b6 35 bf
       0.6662097 -0.60737485 0.59392315 -0.70980984
0000e0 3a 28 2b 3f 56 bf 02 bf a4 be 08 3f fd 45 23 bf
       0.66858256 -0.51073205 0.53415895 -0.6377867
0000f0 50 22 2a bf cf 10 08 bf dc a7 9b be 2c 36 8d be
       -0.66458607 -0.5315065 -0.30401504 -0.27580392
000100 9e d2 08 3f a9 78 21 3f 9f 82 35 bf e4 3e 06 3f
       0.53446376 0.6307474 -0.70902437 0.52439713
000110 ae aa 24 bf e2 57 03 3f 63 28 40 bf aa ee 12 3f
       -0.64322937 0.51305974 -0.75061625 0.5739542
000120 30 50 28 bf c6 3c 1d 3f dc bc 42 bf f1 0b 2a 3f
       -0.65747356 0.6142086 -0.76069427 0.6642447
000130 08 37 06 3f 03 26 cf 3e a9 88 1d 3f 9e 38 02 bf
       0.5242772 0.40458688 0.6153665 -0.5086764
000140 ce a2 33 bf aa 52 0a 3f db 97 51 bf 07 49 07 bf
       -0.70170295 0.54032385 -0.8187234 -0.52845806
000150 d7 4e 6a 3e 0b 62 1c bf 92 25 3f bf f5 7b 0a bf
       0.22881638 -0.610871 -0.746667 -0.54095393
000160 87 cd 1b 3f ea a7 2f 3f 66 9e 15 bf d7 25 2a bf
       0.60860485 0.6861559 -0.5844482 -0.6646399
000170 a0 ac 0d 3f 0a 9b 0f 3f 94 ef 41 bf 2a d7 09 3f
       0.5534153 0.56095946 -0.7575619 0.5384394
000180 06 28 2c 3f 19 f4 32 3f 19 ab 18 bf a1 a1 27 bf
       0.6724857 0.69903713 -0.59636074 -0.65481
000190 cf d2 18 bf d8 89 27 bf 6f ca 07 bf c9 46 2a bf
       -0.5969667 -0.6544471 -0.53043264 -0.6651426
0001a0 4c dd 32 bf 41 5a 0c bf df cd 0c bf 49 27 2f bf
       -0.6986892 -0.54825217 -0.55001634 -0.6841932
0001b0 84 7d 0d bf bc 79 0d bf 84 30 12 3f 86 d3 18 3f
       -0.55269647 -0.55263877 0.5710528 0.5969776
0001c0 06 c5 2d bf d3 8a 26 bf ce ec 04 bf 2a 63 1e bf
       -0.6787876 -0.6505558 -0.51923835 -0.6187006
0001d0 ae 0e 03 bf 7a 6e 03 bf a6 26 00 bf 9f f2 2b bf
       -0.51194274 -0.5134045 -0.5005897 -0.67167085
0001e0 0f b5 02 3f 6f 6e 2e bf 95 23 27 bf 82 22 12 bf
       0.51057523 -0.6813726 -0.6528867 -0.57083905
0001f0 75 58 18 bf 1b d8 2e bf ca d8 7f 3d de b7 08 bf
       -0.59509975 -0.682985 0.062462606 -0.5340556
000200 19 41 32 bf 27 71 00 bf 4c 17 2f bf 44 fa 2c bf
       -0.6963058 -0.50172657 -0.68394923 -0.67569375
000210 7a dd 19 3d 0e 7c 11 bf b2 46 10 bf 20 11 27 3f
       0.037564732 -0.5682992 -0.5635787 0.65260506
000220 27 4d 03 bf 87 6e 0b bf c0 0b 27 3f b2 83 12 bf
       -0.512896 -0.54465526 0.65252304 -0.572322
000230 8b 6a 16 3f 15 2f 19 3f d8 55 0b bf 20 7f 29 3d
       0.5875632 0.59837466 -0.5442786 0.041381
000240 73 b1 c2 3d e7 49 05 bf 9e 12 13 bf 95 48 06 bf
       0.09506502 -0.5206589 -0.5745028 -0.524545
000250 8b ab 32 bf ff 66 05 bf 77 c3 2a bf 1c 16 1a bf
       -0.69793004 -0.52110285 -0.66704506 -0.60189986
000260 4a d0 20 bf fa 1d 23 3f ce 7d 27 bf 6f c4 09 3f
       -0.62817824 0.63717616 -0.6542634 0.5381536
000270 84 88 32 bf 20 1c 80 bd ac 69 03 bf 98 1b 11 bf
       -0.69739556 -0.062553644 -0.5133312 -0.5668273
000280 a8 08 28 3f fe dd 1f bf 09 14 1e bf 08 96 29 bf
       0.6563821 -0.6244811 -0.6174932 -0.66244555
000290 c5 1c 00 bf 77 62 12 bf cc b3 16 bf 32 2f 32 bf
       -0.500439 -0.57181495 -0.588681 -0.69603264
0002a0 50 92 1a bf 38 61 0c bf 25 d4 ff be 5a 9f 24 bf
       -0.60379505 -0.54835844 -0.4996654 -0.6430565
0002b0 8e cd 07 bf 71 98 24 3f 48 c4 19 bf 69 17 22 bf
       -0.53048027 0.6429511 -0.60065126 -0.6331697
0002c0 ce 5c 09 bf a9 96 0e bf dc 50 05 bf e2 75 0b bf
       -0.53657234 -0.5569864 -0.52076507 -0.5447675
0002d0 90 7f 23 bf 8d ba 05 bf 22 e8 1b bf ef b6 0e bf
       -0.6386652 -0.5223778 -0.6090108 -0.55747885
0002e0 a1 77 09 3f f3 3c 29 3f 58 3e 06 bf 0e 86 23 bf
       0.53698164 0.66108626 -0.5243888 -0.63876426
0002f0 47 80 2b bf 7a ba 17 bf 01 3f 2d bf 97 a6 01 bf
       -0.6699261 -0.59268916 -0.6767426 -0.5064482
000300 52 d7 32 bf f1 5f 21 bf 17 33 0f bf 73 fb 07 bf
       -0.698598 -0.6303702 -0.5593733 -0.53118056
000310 12 bf 01 bf 5e c2 2c bf fd e3 06 3f 2d 79 0d bf
       -0.50682175 -0.6748408 0.5269163 -0.55263025
000320 03 e9 13 bf 29 be 1d bf 0b 90 fd be f3 93 6d 3d
       -0.5777742 -0.61618286 -0.4952396 0.058002423
000330 fe f9 0d bf 3b 0f 5c bf fb 97 2c 3f 9c 88 df be
       -0.5545958 -0.8596074 0.67419404 -0.43658912
000340 55 cc 9b be 2d 35 11 3f 5e 56 0a 3f dc 1c 14 3f
       -0.3042933 0.56721765 0.54038036 0.57856536
000350 2d 95 19 bd 80 e9 16 3f ca 1f 8f 3e 33 30 42 bb
       -0.03749578 0.5895004 0.2795394 -0.002963078
000360 fe 9a 05 3f 3d 88 f6 be fb a4 30 bf 75 30 10 bf
       0.52189624 -0.48150817 -0.6900174 -0.5632394
000370 e8 fa ea be ce ac 4a bf 0f 85 51 bf 07 7a 32 bf
       -0.4589455 -0.7916993 -0.81843656 -0.6971745
000380 92 4b ef be 6f 82 f5 3e 52 88 ab be 3a de e9 bc
       -0.46737343 0.47951075 -0.33502442 -0.028548349
000390 1d 31 0a 3f 9e d1 0e bf ee 94 17 bf 92 e9 08 3f
       0.5398119 -0.557886 -0.59211624 0.534814
0003a0 37 d9 8e be cb 3b 25 3f ca 42 5b bd 7a 8c 2e 3f
       -0.27900097 0.6454436 -0.053530492 0.681831
0003b0 75 52 0d bf 8f 7c 3b be f6 f2 30 3f bc 6c 22 3f
       -0.55203944 -0.18309234 0.6912073 0.63447165
0003c0 b9 4a 15 3f 9d 10 08 3f f8 f6 14 bf 16 e5 c2 be
       0.5831714 0.5315035 -0.58189344 -0.38065404
0003d0 ee eb 2e 3f 6c 6c c7 3e da 62 00 3f fb 08 13 bd
       0.6832875 0.38949907 0.50150836 -0.035897236
0003e0 19 e0 e6 3e 0f 31 d9 be 4d e6 c6 3d fc a5 1c bf
       0.45092848 -0.4242024 0.09711895 -0.6119077
0003f0 dd 3e cc 3e 97 fe c3 3d f0 4d 92 3d 23 8c 21 bf
       0.3989171 0.095700435 0.07143772 -0.63104457

bias f4 [50]
000000 2c ca 0b 3f f0 82 0e bf a5 6b f1 3e 90 9d 42 3f
       0.54605365 -0.55668545 0.4715244 0.7602167
000010 55 8f 11 bf d5 45 0d bf 0a 42 16 3f 6d d1 11 3f
       -0.5685933 -0.5518468 0.5869452 0.56960183
000020 b3 ec 2a 3f fb c2 22 3f 0f ff 06 bf 2d 3c 53 bd
       0.66767424 0.63578767 -0.5273294 -0.05157106
000030 b6 14 0f bf 3a e7 25 bf ce 59 19 bf 66 83 20 bf
       -0.5589098 -0.6480595 -0.59902656 -0.627005
000040 a2 09 08 3f 17 82 02 3f e1 69 10 3f 7b 28 33 3f
       0.531397 0.5097975 0.5641156 0.69983643
000050 0a 3a 57 bd 35 36 1d 3f 2f 0a 15 bf e3 dc 19 bf
       -0.052545585 0.6141084 -0.58218664 -0.6010267
000060 c5 3a 26 3f 80 06 03 bc 46 a6 76 3e 64 d8 30 3f
       0.64933425 -0.007997155 0.24086866 0.69080186
000070 eb 9e 17 3f 62 cf 25 3f 69 55 0e 3f 5e 42 03 bf
       0.59226865 0.64769566 0.55599076 -0.51273143
000080 c1 11 0a 3f bd 17 33 3f 0b dd 2c bf d0 13 0b 3f
       0.5393334 0.69958097 -0.67524785 0.54327106
000090 4d a0 c7 bd 25 7d 07 3f b2 3b 16 3f 7a 83 1a 3f
       -0.09747372 0.5292533 0.5868484 0.6035687
0000a0 44 f2 1e 3f bf 89 18 bf 9c d7 2c bf 74 92 0b bf
       0.6208842 -0.59585184 -0.67516494 -0.54520345
0000b0 0a 77 1b bf 4a 6e 25 3f 07 6f 19 bf 83 ff 14 bf
       -0.60728514 0.6462141 -0.5993504 -0.5820238
0000c0 0a bd 02 3f ab 5a 0c 3f
       0.510697 0.5482585

weight f4 [28, 50]
000000 ef b4 0f 3f bb 4d 2a bf 10 24 14 bf bd 53 33 bf
       0.5613546 -0.6652486 -0.57867527 -0.7004965
000010 36 7b 11 3f bd 76 30 3f 09 39 eb 3e 7e 82 ff 3e
       0.5682863 0.6893118 0.45941952 0.49904245
000020 1a 89 f6 be d5 39 14 bf a2 2c 27 3f c7 a5 7d bd
       -0.48151475 -0.57900745 0.6530248 -0.061925676
000030 c7 74 2e 3f a4 83 1a bf 3a 03 11 3f d5 ec 03 bf
       0.6814694 -0.6035712 0.5664555 -0.5153325
000040 2d 9d 11 bf aa 63 f0 be 5d fe 1b bf 62 aa 0f 3f
       -0.56880456 -0.46951038 -0.60935 0.5611936
000050 24 1b 26 3c 97 dd 30 bf 4b db a2 3d 9f 90 21 3b
       0.010138307 -0.6908812 0.07951983 0.0024652851
000060 68 ff 19 bf 9e 70 c1 3d a4 05 2a 3d 8b 74 f5 3e
       -0.60155344 0.09445308 0.041509286 0.47940478
000070 ce 07 35 3f d8 c4 14 3f 48 ce 32 bf a3 95 22 3f
       0.70715034 0.5811286 -0.6984601 0.6350958
000080 e4 d4 2b bf cd fe 15 bf 1b 0a 0d bf b8 e3 ee 3e
       -0.6712172 -0.5859192 -0.55093545 0.4665811
000090 2f 6f 9a bd 1a 07 22 bf 64 9e 1c bf 17 28 01 3f
       -0.07540738 -0.63292086 -0.61179185 0.504518
0000a0 46 b0 00 3f 8d 69 38 3f 00 68 19 bf 5a 3f fb 3e
       0.5026897 0.7203606 -0.59924316 0.4907177
0000b0 88 60 32 bf 3a 2d 1d bf 6c ea 32 bf 87 ef 35 bf
       -0.69678545 -0.61397135 -0.6988895 -0.71068615
0000c0 0b 11 25 bf 3a 23 31 bf c3 1e 2f bf cb f7 1d bf
       -0.6447913 -0.69194376 -0.68406314 -0.6170623
0000d0 7d 30 22 bf 23 aa 1a bf 8d 9d 2d bf 3a 7a f8 be
       -0.6335524 -0.6041586 -0.6781853 -0.4853075
0000e0 bf ed 39 bf 5f 6d 1d bf b1 98 05 bf c8 41 37 bf
       -0.72628397 -0.6149501 -0.52186114 -0.7158475
0000f0 4b 5f 05 bf 37 bd d7 3c 71 78 21 bf 79 2e 1a bf
       -0.5209853 0.026335342 -0.63074404 -0.6022716
000100 ee f2 1d bf e6 d9 f2 be 71 aa 14 bf ac 04 2c bf
       -0.61698806 -0.47431868 -0.5807257 -0.6719463
000110 73 56 2f bf f1 ca 34 bf 02 f5 f2 3d 32 60 30 bf
       -0.68491286 -0.70622164 0.11863138 -0.6889678
000120 25 67 bd 3d e3 e6 a5 3d 03 0e 0e bf 03 8c c8 bd
       0.09248189 0.08100679 -0.5549013 -0.0979233
000130 d8 70 e6 3d f7 7b 1c bf 94 19 04 bf 45 2f 27 bf
       0.11251992 -0.61126655 -0.5160153 -0.653065
000140 9e 23 27 bf 22 2a f5 be 9e 1b 1a bf e5 5b 0b bf
       -0.6528872 -0.47883707 -0.6019839 -0.54437095
000150 68 ed 28 bf 28 bb 20 bf 9c fc bf bd 38 47 06 bf
       -0.65987253 -0.6278558 -0.09374353 -0.5245242
000160 45 22 0f bf 78 e9 ee be 8e be 2a bf 07 30 14 bf
       -0.55911666 -0.46662498 -0.66697013 -0.57885784
000170 39 f7 03 bf e4 84 33 bf 7f e0 f7 be 59 76 33 bf
       -0.51549107 -0.7012465 -0.48413464 -0.7010246
000180 62 4e 36 bf d8 c7 26 bf 30 56 01 bf 0b 1a 1b bf
       -0.7121335 -0.6514869 -0.50522137 -0.60586613
000190 c8 93 03 bf c0 52 0d bf f5 0f 36 bf bb c7 0b bf
       -0.5139737 -0.5520439 -0.711181 -0.5460164
0001a0 d9 bb 1e bf a3 bf 26 bf 7d f3 02 bf 7a 3e 38 bf
       -0.6200538 -0.65136164 -0.51152784 -0.7197033
0001b0 28 90 33 bf 59 22 2d bf 63 3c 2a bf 7a e4 a9 bd
       -0.7014184 -0.67630535 -0.6649839 -0.082955316
0001c0 6c 3a ed be 99 13 e8 be 7c 96 24 bf 39 07 24 bf
       -0.46333635 -0.45327452 -0.6429212 -0.6407352
0001d0 13 fa 11 bf 9b 88 18 bf bb dd 0d bf 9a 4d 25 bf
       -0.5702221 -0.59583443 -0.5541646 -0.64571536
0001e0 ff 22 c0 bd 26 4e 14 bf 78 ee 07 be da b3 3b bd
       -0.09381675 -0.57931745 -0.13274562 -0.045825817
0001f0 d4 54 eb be cd cd 72 bb 6d 9c d1 3c 0a 18 02 bf
       -0.45963156 -0.0037048936 0.025587285 -0.5081793
000200 db a6 f0 be 1f e6 3c bf e7 ab 2d bf 9e c8 17 bf
       -0.470023 -0.73788637 -0.6784043 -0.5929049
000210 e6 f5 30 bf e9 1a 2a bf c0 2d 22 bf ac c8 1c bf
       -0.6912521 -0.6644731 -0.6335106 -0.612437
000220 09 bb 92 bd c4 21 3a bf de 55 23 bf 8c 36 3b bf
       -0.071645804 -0.7270777 -0.638029 -0.73130107
000230 64 a8 31 bf d8 0a f2 be e6 97 2a bf ff 80 2f bf
       -0.6939757 -0.47273898 -0.6663803 -0.6855621
000240 45 5c 24 bf a7 3e f2 be 42 12 2d bf c0 22 37 bf
       -0.6420329 -0.47313425 -0.67605984 -0.715374
000250 7d ce 3c bf dc 01 06 bf 11 76 f9 be 4f d7 10 bf
       -0.73752576 -0.5234659 -0.4872289 -0.56578535
000260 31 5b 01 bf 57 7e 29 bf 62 39 1f bf fa 87 2e bf
       -0.5052977 -0.66208404 -0.62196934 -0.68176234
000270 87 52 26 bf f2 2e f9 be dd 56 02 bf 37 b8 0a bf
       -0.64969677 -0.4866863 -0.5091379 -0.5418734
000280 80 ab 0c bf 46 64 de 3d b4 2a 31 bf 6f c5 38 bf
       -0.5494919 0.108589694 -0.69205785 -0.7217626
000290 42 17 08 bf de 7c 2d bf 13 97 0a bf 6e f0 2a bf
       -0.5316049 -0.6776866 -0.5413677 -0.66773117
0002a0 57 0a fd be 98 53 2d bf 0b 65 fb 3d 83 8b 27 bf
       -0.4942195 -0.6770568 0.12275132 -0.65447253
0002b0 48 c6 e5 3d 7f 7c 62 ba 90 87 18 bf 08 a7 60 bd
       0.1121946 -0.0008639767 -0.5958185 -0.054846793
0002c0 32 2b 01 3d e7 5c 03 bf 27 f6 fa be 10 7c eb be
       0.031535335 -0.5131363 -0.49015924 -0.4599309
0002d0 31 ef 29 bf ab 3b ee be f4 fb 3c bf 93 fe 3b bf
       -0.663806 -0.46529898 -0.7382195 -0.73435324
0002e0 6a f3 ea be 69 ae 09 bf 63 64 d4 bd 74 18 f9 be
       -0.45888835 -0.53781754 -0.1037071 -0.4865147
0002f0 5f 3f 0b bf 03 4b 26 bf 25 8c 39 bf 5d 03 0f bf
       -0.5439357 -0.6495821 -0.7247947 -0.55864507
000300 f0 32 06 bf 96 7d 30 bf 7a 7d 21 bf 52 20 26 bf
       -0.52421474 -0.6894163 -0.6308209 -0.64893067
000310 76 e8 33 bf f3 b4 2c bf 8c 83 0c bf e7 69 f4 be
       -0.7027658 -0.67463607 -0.54888225 -0.47737047
000320 05 a8 27 bf fb 0e f3 be c0 37 23 bf d3 0a 33 bf
       -0.6549075 -0.47472367 -0.6375694 -0.6993839
000330 73 93 27 bf bc 1f 31 bf 00 8e ff be 89 8b 0e bf
       -0.65459365 -0.6918905 -0.49913025 -0.55681664
000340 ee e3 0c bf 65 c8 34 bf 9b 30 09 bf a4 9f cd bd
       -0.55035293 -0.7061828 -0.5358979 -0.10040215
000350 8b 9e 26 bf 46 2f 24 bf 3c 02 17 bf 8d 00 0b bf
       -0.6508567 -0.64134634 -0.58987784 -0.54297715
000360 11 b7 18 bf fb 07 e9 be 16 14 35 bf c1 29 28 bf
       -0.5965434 -0.455139 -0.70733774 -0.6568871
000370 7e be af 3d 0b ed 30 bf 26 de 81 3d da ee 41 3d
       0.085812554 -0.691117 0.063411996 0.047346927
000380 31 96 1c bf c1 b9 f2 bd c8 ac 39 bc d1 28 36 bf
       -0.61166674 -0.11851836 -0.011332698 -0.7115603
000390 1c 49 13 bf be 10 3c bf e7 fd 28 bf 39 20 f6 be
       -0.5753343 -0.73463047 -0.66012424 -0.4807146
0003a0 7c f5 23 bf c9 f0 01 bf 99 8e 2b bf ad 94 f9 be
       -0.64046454 -0.50758034 -0.6701446 -0.48746243
0003b0 c2 ad 9d 3d 3e 19 0e bf d1 be 01 bf 92 0c 17 bf
       0.07699157 -0.55507267 -0.5068179 -0.59003556
0003c0 21 61 1e bf 7d e2 f6 be b2 dd f1 be d5 10 0c bf
       -0.61866957 -0.48219672 -0.47239453 -0.54713184
0003d0 3f 61 fa be b8 5c 0f bf 83 9c 27 bf 79 9a 36 bf
       -0.48902318 -0.5600085 -0.6547319 -0.71329457
0003e0 a8 ef 2f bf c2 96 11 bf aa 88 39 3f 23 50 10 3f
       -0.6872506 -0.56870663 0.7247416 0.5637228
0003f0 60 c1 1c bf 34 11 11 3f 86 29 16 bf 00 c1 1b 3f
       -0.61232567 0.56666875 -0.5865711 0.6084137

bias f4 [28]
000000 28 1e 03 3f 93 c1 01 bf 83 b4 29 bf 29 67 39 bf
       0.5121789 -0.50685996 -0.66291064 -0.72423035
000010 31 61 07 bf a1 da 2a 3f e5 36 fb be 12 5e 06 3f
       -0.5288268 0.6673985 -0.4906532 0.5248729
000020 d0 50 36 3f 28 04 01 bf 52 6e 1b bf ae 19 2c bf
       0.7121706 -0.50396967 -0.6071521 -0.67226684
000030 61 a6 11 bf 62 c3 31 3f 07 60 f4 be c2 b6 3c bf
       -0.568945 0.69438756 -0.47729513 -0.73716366
000040 e2 62 33 bf 2d 27 00 bf 93 62 0a 3f 29 2c 1a 3f
       -0.7007276 -0.5005978 0.5405666 0.60223633
000050 95 cb 3d 3f eb 09 21 3f 73 60 05 3f 98 67 28 3f
       0.74138767 0.6290576 0.52100295 0.6578307
000060 fa 55 0f bf 30 67 32 bf 2d b4 26 3f 7b 7f 34 3f
       -0.55990565 -0.696887 0.65118676 0.7050702
