lightning_logs/version_12/checkpoints/epoch=29-step=152250.ckpt (torch, 568267 bytes, 18 tensors)

MLP.0.weight f4 [128, 284]
00000000: fb34 8a3e d482 883d 704d 8abd 5d82 26bd
00000010: d890 81be 3d1b 6bbe 862e fd3d f7bb a73e
00000020: 0f6a f1be 9999 04be 7c6b 3e3f dbf8 5ebd
00000030: 8b2e a7bd f7bd eb3d 7a98 d0be ebb7 913e
00000040: 676e 3d3e 330c 0a3f 5906 073e b00a e0be
00000050: c780 43bf fd25 c4be 833c 2d3e df99 a93e
00000060: d720 6a3e ab98 92be 2bfd e0be 4348 03bf
00000070: af54 833d eb2d 7a3e b23f 163f 960c ef3e
00000080: b056 e13d 221d 38be 9a84 993e 0ef0 42be
00000090: bd6b 05be b71d 983e 45f7 55bf 8e42 bb3e
000000a0: 18db a13d fef8 8f3d 4f5b 183f 875c 74bf
000000b0: 688e b9be c87a 01bf 890a e7be c3bd 093e
000000c0: 632e dfbe c79a ae3e c3d3 113f 4984 ed3e
000000d0: c503 46be eb88 90bd 9d39 06bf 152a 62be
000000e0: b947 c73e bdcb 0a3f 5eb4 273f fe54 f7bd
000000f0: 9514 503d b618 11bf 00d5 903e c6c1 013f
00000100: 619b 883e 64cf 92bd 19dd 633e f4b0 283f
00000110: 7eed b0bd 9b49 013d a02b 20bf 77ed 4d3e
00000120: 199c 563d c3e5 03bf 50bc b73c 6394 95be
00000130: 8280 11be b201 023e 5792 403f 7f92 4abf
00000140: 7924 cbbc e759 423f 09bb a33d 4997 713f
00000150: 549b 173e c6d0 453f acc4 82be c59c 7bbe
00000160: de69 95be ef52 083f f96b 2e3f 960d 98be
00000170: a69e 213f f999 ab3e 6f3e 253e 238a 453e
00000180: 3677 f4be 3c4c 3d3e c2fd 3abf 0704 3bbf
00000190: 6a4f c3bd 9d0e 33be e243 113e 43bb d0bd
000001a0: c58e 863e 3a88 a2be 749c 77be 3712 debc
000001b0: 7bf9 1c3f 07bd 51be 2d7a 15bf ffb1 903e
000001c0: 5f8a fc3d 5c41 823e 596d 1c3f eec5 61be
000001d0: b906 68bf 9a50 063f 73e3 d1be 86b1 c13e
000001e0: 5793 38bf 8194 3e3f 88fd 6abd b60a 713e
000001f0: c4ec 82be 7837 28bf 57df e03e 21f5 cebd
00000200: 364b 763e c3fa 6a3e 8572 8e3e 0469 013f
00000210: 91a5 adbe a4f5 ffbe 217b 783f e104 e9bd
00000220: 2916 a9bd 0412 533c 679e a7be 5d73 26bf
00000230: 0798 ca3d 12bd ffbe d108 fbbd 3589 bbbe
00000240: 96bd db3c 476a e33e 420d b93e 9af8 55bf
00000250: 2442 383f e6fd 333e 2603 c63e a981 28bf
00000260: 70cb 843e be6b ff3e 98c4 043f b216 d8be
00000270: aa53 31bf d1f1 36bf 840d 253e 6c70 adbe
00000280: a6f7 c8be 15c0 c63e 3fe8 353e 2003 2cbe
00000290: 22e9 44bf bb34 413e 3176 d1bd 7b96 0b3e
000002a0: 91cc 78be 667c 84bf 8fd2 403e 6fd4 e6be
000002b0: 3003 9e3e b464 07bf cd85 81be ff95 1f3f
000002c0: 84fb 023f 2a24 d4bd d106 8cbe ed93 a93d
000002d0: 0824 81be b090 593e e7e9 e63d ca50 b0be
000002e0: 4b19 f1be 8850 2dbf 07c4 8bbb dce9 d0bd
000002f0: 8f49 91bc e6e9 1d3d b982 bfbe f0bd 18bf
00000300: 6dd4 0abd ee95 13bf ceda 9b3d aa63 ba3d
00000310: 5498 a5be f6db b83e 5736 de3e 718d 2c3f
00000320: 3239 9d3e 9bfa ad3f 7ad3 39bf 46b6 473f
00000330: 4b50 a43e eb6f 20bd acd3 3e3d 1b78 2a3e
00000340: c5bb 353c 32b5 40be cee8 b03e f343 babe
00000350: 3b98 8bbe e88a 8c3f f07c ddbe 8eb3 d33e
00000360: c215 0dbf 9b83 103f 51f5 2abf c5d0 96bd
00000370: f2fc 813d ffc3 393e 9a47 afbe 441f acbf
00000380: ebf2 133f e13f fdbe 7fde 15bf eeee 873e
00000390: f9de 763e c308 4fbe c792 b4be cad7 08bf
000003a0: f751 243f c5a6 9c3e d482 74bd dcc6 89be
000003b0: 27ab 5b3e dec1 d93e f390 e5be e6d0 6abe
000003c0: e8eb a5bc 473f 253f b6fe 83bd 3785 50be
000003d0: 9c90 403f 342b 583e ddd4 8bbf ec58 563d
000003e0: d8b4 973e 2cb3 0f3f 9647 50bf bb65 08bf
000003f0: 0f48 853e 90d3 8abd a7df 5a3f 53b3 3abe
0.26993546 0.066655785 -0.06753051 -0.040651668 -0.2530582 -0.2295961 0.12362389 0.32760593
-0.4715123 -0.12949218 0.7438276 -0.054436546 -0.08163174 0.11510842 -0.4074133 0.2846063
0.18499146 0.53924865 0.13186015 -0.43758154 -0.76368374 -0.38310233 0.16917615 0.33125207
0.2286409 -0.286321 -0.43943152 -0.5128214 0.064126365 0.24431579 0.5869094 0.4668929
0.110028625 -0.17979863 0.2998398 -0.19036886 -0.1302938 0.2971017 -0.8358043 0.36574215
0.07903117 0.07029913 0.59514326 -0.95453686 -0.3624146 -0.50577974 -0.45125225 0.13451295
-0.43590078 0.3410246 0.5696375 0.46389988 -0.19337375 -0.07057365 -0.5243166 -0.22086366
0.38921908 0.5421713 0.65509593 -0.12076758 0.05080088 -0.5667833 0.28287506 0.506863
0.26681045 -0.07168463 0.22252311 0.6589501 -0.08639048 0.031564336 -0.62566566 0.20110117
0.05239496 -0.51522464 0.022428662 -0.29214773 -0.14209178 0.12695959 0.75223297 -0.79129785
-0.024797665 0.7591843 0.079946585 0.9437147 0.14805347 0.7727169 -0.25540674 -0.24571522
-0.29182333 0.53251547 0.68133503 -0.29697865 0.63132703 0.3351591 0.16137098 0.19290976
-0.477472 0.18486112 -0.73043454 -0.7305302 -0.095366314 -0.17486043 0.14186051 -0.10191967
0.262808 -0.31744558 -0.24180776 -0.027108295 0.61318177 -0.20482264 -0.5838955 0.282608
0.1233108 0.2544049 0.6110435 -0.2204816 -0.9063526 0.5246674 -0.40993842 0.37830752
-0.7209982 0.7444535 -0.057370692 0.23539242 -0.25571263 -0.6570964 0.43920395 -0.101053484
0.24052128 0.2294722 0.27821746 0.50550866 -0.3391538 -0.49992096 0.9706288 -0.11377884
-0.0825618 0.012882713 -0.3273804 -0.6501978 0.09892278 -0.49948937 -0.12257541 -0.36628118
0.0268238 0.4441702 0.36142927 -0.8358246 0.7197592 0.17577323 0.38674277 -0.65822846
0.2593646 0.49886888 0.5186248 -0.42204815 -0.69268286 -0.7146273 0.16118437 -0.33874834
-0.3925144 0.38818422 0.17764376 -0.16798067 -0.7691823 0.18867771 -0.10227621 0.13631622
-0.24296786 -1.0350463 0.18830322 -0.4508395 0.30861807 -0.52888036 -0.25297394 0.6233825
0.5116503 -0.1035846 -0.2734895 0.08280168 -0.25222802 0.212466 0.11275082 -0.34436637
-0.4708961 -0.67701006 -0.0042653116 -0.10200855 -0.01773527 0.03855314 -0.3740442 -0.5966482
-0.03389399 -0.5765065 0.07610093 0.09101041 -0.3234278 0.36105317 0.43400833 0.6740332
0.307077 1.3592104 -0.7258831 0.780125 0.3209251 -0.039169233 0.046588585 0.16647379
0.011092131 -0.1881912 0.34552616 -0.36379966 -0.2726458 1.0979891 -0.43259382 0.41347927
-0.55111325 0.56450814 -0.66780573 -0.073640384 0.063470736 0.18141173 -0.34234315 -1.3447042
0.5779254 -0.49462798 -0.5854263 0.26549476 0.24108495 -0.20218186 -0.35268232 -0.5345427
0.6418757 0.30595985 -0.05969508 -0.2690953 0.21452008 0.4253072 -0.4483715 -0.22931251
-0.02025409 0.6454968 -0.06445067 -0.20363317 0.75220656 0.2111023 -1.0924336 0.052330896
0.2963016 0.5613277 -0.8135923 -0.5328023 0.2603154 -0.067786336 0.85497516 -0.1823247

MLP.0.bias f4 [128]
00000000: a0a6 58bf 3ef6 59bf b8c4 1fbf aa0b 64bf
00000010: e7f8 32bf c5b9 1cbf c9a3 5ebf 914c 49bf
00000020: ffc0 77bf 3ffb 1fbf 781e 26bf 0a4c 6abf
00000030: faeb 95be ef25 0abf 3e74 8ebe fa66 3abf
00000040: 279f fdbe 04c4 7cbf def2 1ebf 538b 53be
00000050: 6afa 38be bf21 0fbf 0ba0 e2be edeb 1abf
00000060: 8d90 81bf ea04 76bf 9cde 83bf 126b d1be
00000070: 4cdc 1abf f3eb 31bf 17ec 4bbf d5b2 00bf
00000080: 70d7 05bf 40d8 03bf af75 debe 475c 3fbf
00000090: ed44 42bf b311 20bf 0875 25bf 73dd 0fbf
000000a0: f52c febe ae18 2bbf 5450 0fbf d47a 9ebf
000000b0: a225 98bf dde1 05bf 0979 91bf 3349 cebe
000000c0: 512d 00bf 4a28 83bf 33bd 45bf 0259 ffbe
000000d0: c9c9 05bf af1b 1fbf 3626 86bf 2bb7 46bf
000000e0: 6f2e d6bd b2f6 0fbf 2972 c7bf d297 06bf
000000f0: 5a4c 62bf 4a13 94bf e327 73bf ad9a 9ebd
00000100: 51b9 7abf 9cef 4bbf aa74 89bf e103 5cbf
00000110: 122c d9be 65c1 f4be af77 7abf 65e0 1bbf
00000120: ea50 42bf 486a 3bbf a3cc 1fbf f950 5ebf
00000130: de22 6cbf e6fb 63bf bd36 e8be a09e 9ebe
00000140: ad9b 62bf aeca 07bf 9811 1cbf c9eb 6abf
00000150: fe78 6dbf 3b20 aebe b93e 97bf 41e6 9bbe
00000160: 6c7e 2bbf 58df a8bf 3f05 1dbf 5719 9dbf
00000170: 9fc4 56bf ce41 a9bf 6141 2fbf 3f31 38bf
00000180: 1c00 e7be d486 1fbf f382 79bf 90ee 95be
00000190: f67b 0abf a894 0cbf 529b 5cbe 82cd 35bf
000001a0: e2d7 8bbf d47f 24bf 96bb 02bf 8a28 20bf
000001b0: 6b5e 3ebf 4fbc 1abf 3ce5 4dbf cdef 06bf
000001c0: e455 b4bf 09d0 69bf 30f9 88bf 4832 a2bf
000001d0: a6a8 86bf 1f0d 35bf 3594 dbbe f0db d3be
000001e0: 499b 9cbf 0a5e 3fbf 2681 21bf 40d5 1fbf
000001f0: 4cab 0cbf 7a10 21bf 4942 75bf 75ac b2be
-0.8462925 -0.8514136 -0.62409544 -0.890803 -0.69911045 -0.6122096 -0.86968666 -0.78632456
-0.96778864 -0.62492746 -0.6489024 -0.91522276 -0.29281598 -0.5396413 -0.2782306 -0.7281338
-0.49535486 -0.98736596 -0.62089336 -0.20658617 -0.18064275 -0.5591087 -0.44262728 -0.60516244
-1.0122238 -0.9610125 -1.030231 -0.40902 -0.60492396 -0.69500655 -0.7965712 -0.50272876
-0.52281857 -0.51501846 -0.4344916 -0.7475018 -0.7588642 -0.62527007 -0.646317 -0.5619728
-0.49643674 -0.66834533 -0.55981946 -1.2381234 -1.1886485 -0.52297765 -1.1365062 -0.40290222
-0.5006915 -1.024667 -0.7724182 -0.49872595 -0.52261025 -0.62151617 -1.0480411 -0.7762324
-0.10458075 -0.562358 -1.5581714 -0.5257541 -0.88397753 -1.1568387 -0.9498274 -0.07744346
-0.9793902 -0.7966249 -1.0738728 -0.8594342 -0.42416435 -0.47803798 -0.9783887 -0.60889274
-0.75904715 -0.7320905 -0.62421626 -0.86842304 -0.92240703 -0.8905624 -0.45354262 -0.30980396
-0.8851879 -0.5304364 -0.60964346 -0.9176603 -0.92762744 -0.34008965 -1.1816016 -0.30449107
-0.6698978 -1.3193159 -0.6133613 -1.2273358 -0.8389377 -1.3223207 -0.68459135 -0.71950144
-0.4511727 -0.62315106 -0.9746544 -0.2928357 -0.540954 -0.5491433 -0.21543625 -0.71016705
-1.0925257 -0.6425755 -0.51067483 -0.6256186 -0.7436282 -0.60443586 -0.8042791 -0.52709657
-1.4088712 -0.9133306 -1.0701046 -1.2671595 -1.0520217 -0.70723146 -0.4288651 -0.41378736
-1.2234889 -0.7475287 -0.6308769 -0.6243477 -0.5494888 -0.62915766 -0.9580427 -0.348972

MLP.2.weight f4 [64, 128]
00000000: 1f0f a93e 39e2 4f3f a69a 53bf 5154 80bd
00000010: 450c 7bbe dbf5 babe a974 90bd 54e0 503f
00000020: 0fea ee3e 37f9 f93e 7230 00be 07dd 693e
00000030: d476 bcbe f8d3 72bf 8dd0 ed3e a583 a9bd
00000040: 4a28 853e 4e2a 153f c858 54be 2e00 5b3f
00000050: e272 6abe e4d8 febe b44f fe3a b0b9 24bf
00000060: 3c5d fabe cdef 01be aa0c eebd 5929 dbbe
00000070: 5c6b 0a3f 41df 6d3c e114 193d 252f 0d3f
00000080: d482 3a3f a250 b93e 0bf0 473e 3c6b 623f
00000090: 8757 19bd 2670 c53e 1d87 1d3f ae6b 05bf
000000a0: ea19 65be b5cb d33e eb33 66be 45d6 e63d
000000b0: db84 913e eea3 383d 601b 733e 81c9 eebc
000000c0: 0145 ecbd 618a d6be dd33 0dbf 802c e43e
000000d0: 19a7 c2be e53a 08be 45f2 4a3f bb9d 1c3e
000000e0: dd99 6f3e 18fc 913f cd22 84be 2416 c13e
000000f0: 354e 733e e06d 1a3e 6a0b 3a3f ca8e e0be
00000100: 1ab6 153d 4693 94be b767 033f 14c9 c2bd
00000110: 209a 72bf 1c6c 85be b389 d6be b0dc e0bd
00000120: 3db3 0fbe 5d43 273e 607d 223e 0b06 eebe
00000130: 8be7 38be 1c8d cabe 247c 993e eb73 393d
00000140: 95f7 343f 68c9 ef3e e6cd a6be e00c 00bf
00000150: 81be 843e 491c b93c 3b39 febe abf3 813e
00000160: ccbe 42be f90d 08bf 0697 e43e 20e6 123f
00000170: 0063 fabe 2e17 153f 6cb6 a0be 8e33 ec3e
00000180: 3dbd c43d 4d22 aa3d 19d3 aebe 3acd 98bd
00000190: 34e2 42be 790a 93be c2cb 9fbd d8f7 973e
000001a0: 0051 b43d 32f3 4b3e e30c 083f ce48 433e
000001b0: 8310 ec3e c7c5 c03d 8c83 243d 4e4c 283f
000001c0: a9f1 293e 340e 1e3e 48be 89be f343 7bbe
000001d0: 4735 a73e 0cee bfbe 6309 d53e 9239 32be
000001e0: f39a 933e 6129 833e e328 d83e 34a5 bb3e
000001f0: 8a13 41be 409a 2c3d f02a bebe 7618 ab3e
00000200: 52e0 38bf 8dbf 6dbd 7679 973e 4d09 1a3e
00000210: 69ab 63bf 1368 be3e bd34 893e cffd a6bd
00000220: 6827 343f 689e e43e 2546 19be a783 b43e
00000230: 23e2 8ebe 0609 093f ba2e 343f 8aae 0a3f
00000240: 936b 1c3f 3749 833e 7889 3d3e 07e9 de3e
00000250: 9b28 26be 50f6 013e 0e9c e03e caa9 ca3e
00000260: 253c 513e 51f6 98bd f7fa b3bd cfe1 993e
00000270: e721 97be 5e0a 4dbe dc61 233e 17bb 8d3d
00000280: 8b7e 5f3f bd7f 173f e3b0 23bf c78b 12be
00000290: 2a01 24bd f15d 8fbd f9df 71bf 3b51 03bf
000002a0: 189f 513f 4c45 9cbc 1543 b73e f90b ae3e
000002b0: 3e2c 00bf 150f 123f 16ca 323e f6b1 0a3e
000002c0: 3d78 0a3e 293a ca3e 5165 ab3e b112 e33e
000002d0: f2ca 113c 1832 853e 7941 223e 6620 66be
000002e0: 061d 973e 3b48 573c d479 84bf 8892 a03e
000002f0: cd59 27bf 3f56 2bbe 64b6 c53b 49b8 92bb
00000300: 375f 12bf 16b6 97be fed7 5e3f 9f3c 03bf
00000310: 9b2b d93d ceea d0be fb3f 22be f17f 9d3d
00000320: b0f3 0c3e 04cf 503e 88ee 8a3e f08e 033e
00000330: 3521 b33d 6765 f8be 925a 4c3f f66f 2a3f
00000340: f59e d5be e170 2a3d 87e2 0f3f 9cc5 39bd
00000350: d5e7 af3e e102 6abe 28f7 92be 5d86 363e
00000360: 8c15 cabe 630f cabe b4c2 cfbd 9c9f 1abf
00000370: 4a8b e7bc c054 33bb 4431 5b3e 60f2 0dbf
00000380: c8a0 2cbe a1ac eabd 2863 13bf 8d57 8f3e
00000390: c7d1 003f 9e3a bc3e ca74 743d f6d2 223f
000003a0: d7da 0ebe b6eb 7b3e 26df 173f ce85 b3be
000003b0: f5ba 39bf 3729 60be 411d f1be 5051 463f
000003c0: 24b7 5d3e d136 9cbe e467 26be a206 d4be
000003d0: 02aa 33bf daa1 b9be f764 033e f910 993e
000003e0: 56d7 a1be d0f3 283f 0df2 48be 525b 7c3f
000003f0: 702e f43e f36c 04bf becd b5bc e6e0 2f3f
0.3301935 0.81204563 -0.8265785 -0.06266082 -0.24516399 -0.36515698 -0.07053501 0.815923
0.46662948 0.48822948 -0.1251848 0.22838221 -0.3680941 -0.9485469 0.46448174 -0.08277062
0.260073 0.58267677 -0.20736992 0.8554715 -0.22895387 -0.4977485 0.0019402415 -0.64345837
-0.48899257 -0.12689133 -0.11623509 -0.42804983 0.5407007 0.01451856 0.037373427 0.5515006
0.7285588 0.3619433 0.19525163 0.88444877 -0.03743699 0.38562125 0.6153429 -0.5211743
-0.22373167 0.41366354 -0.22480743 0.112713374 0.28421673 0.04507821 0.23740911 -0.029148819
-0.11536599 -0.4190245 -0.5515726 0.445652 -0.3801811 -0.13303716 0.79275924 0.15294544
0.23398538 1.1405058 -0.258078 0.37712204 0.23760302 0.15080976 0.72673666 -0.4385894
0.03655062 -0.2901861 0.5133013 -0.09511009 -0.94766426 -0.26059043 -0.4190193 -0.10979593
-0.14033218 0.16334291 0.1586814 -0.46488985 -0.18057077 -0.39560783 0.29977524 0.045276564
0.7069028 0.46833348 -0.32578963 -0.50019646 0.25926593 0.022596495 -0.49653038 0.25381216
-0.19018096 -0.5314632 0.44646472 0.5738239 -0.48903656 0.58238494 -0.31389177 0.46133083
0.09606407 0.083073236 -0.3414543 -0.07461019 -0.19031602 -0.28718928 -0.078025356 0.29681277
0.08804512 0.1991699 0.53144664 0.19070742 0.46106347 0.09412723 0.040164515 0.6574143
0.16596092 0.15435106 -0.26902986 -0.2453764 0.32657835 -0.37486303 0.41608724 -0.17404774
0.28829154 0.25617507 0.42218694 0.36649477 -0.1885511 0.04213929 -0.37142134 0.334171
-0.72217286 -0.058044005 0.29584855 0.1504261 -0.88933426 0.37188777 0.2679805 -0.08153879
0.7037263 0.44652104 -0.14968164 0.35256693 -0.27906904 0.53529394 0.703838 0.54172575
0.61101645 0.25641796 0.18509471 0.4353716 -0.16226427 0.12691617 0.4386906 0.39582664
0.204331 -0.07468856 -0.08788102 0.3005509 -0.29518053 -0.20023486 0.15955299 0.0692045
0.87302464 0.5917929 -0.6394178 -0.14311133 -0.040040173 -0.0700034 -0.9448238 -0.5129582
0.8188338 -0.019076012 0.35793367 0.3399351 -0.5006751 0.57054263 0.17459902 0.13544449
0.1352243 0.39497498 0.33475736 0.44350198 0.008898484 0.2601478 0.15845288 -0.22473297
0.2951433 0.01313978 -1.0349679 0.31361794 -0.653714 -0.16732119 0.0060337055 -0.004477535
-0.57176536 -0.29631108 0.8704833 -0.51264375 0.1060402 -0.40804142 -0.15844719 0.076904185
0.13764834 0.2039147 0.2713511 0.12847495 0.08746568 -0.48514864 0.798257 0.6657709
-0.41722837 0.041611556 0.5620503 -0.04535447 0.3435656 -0.2285266 -0.2870419 0.17824693
-0.39469564 -0.39464864 -0.101445585 -0.60399795 -0.02826466 -0.0027363747 0.21405512 -0.5544796
-0.16858208 -0.114587076 -0.57573175 0.27996483 0.50320095 0.3676347 0.05968169 0.6360315
-0.13950668 0.24601635 0.5932487 -0.35063022 -0.725509 -0.21890722 -0.4709263 0.77467823
0.21651894 -0.30510572 -0.16250569 -0.4141131 -0.70181286 -0.36256295 0.12831484 0.29895762
-0.316096 0.6599703 -0.19623585 0.98576844 0.4769168 -0.51728743 -0.022192832 0.6870254

MLP.2.bias f4 [64]
00000000: 6718 663d 67bf 923e c181 eb3e 4541 0abf
00000010: ab92 933e cfc5 0fbe 1f19 98bd c5c4 1dbf
00000020: 5aaf a3bd e0ce fb3e 27e9 55bf 8dbd 3fbf
00000030: 8a40 cabe 7aa7 f0bd 6926 3cbd 5a4d d6bd
00000040: 4aae 3d3d 6002 723e d55a 393f 918d 5a3d
00000050: af1d a7be 1c30 0cbf 48cd eb3c 8c3e 423e
00000060: 676e 10bd 06cf 813d c0ae fcbd 1a0f 653e
00000070: a927 4ebf 1519 a33e e3be 5a3e b80c 18be
00000080: e730 e53e 4467 39bd 46c3 1c3e b634 1c3d
00000090: a0b6 023f 54ab 84bd 0019 783e 8fbd 94bd
000000a0: ca3c 90be 56be adbe 544a ad3e 43dd d83e
000000b0: 4c7f eabe 7e6a b23e 1c68 3d3f 77c5 49bf
000000c0: 7b82 babd 988b eb3d b7b3 aebd 0cc5 633e
000000d0: b47e ba3d 6350 be3e 1448 e13d de6a 90bd
000000e0: 96aa 393f f0fa 013e 30dd ea3e 0e44 b73e
000000f0: 326f dcbd e7de d93d dba2 fabe 723e 4c3f
0.056175616 0.28661653 0.45997432 -0.54005843 0.28822836 -0.14040302 -0.074266665 -0.6162837
-0.0799243 0.4918127 -0.8355889 -0.74898607 -0.39502364 -0.117506936 -0.04593507 -0.104639724
0.046308793 0.23633718 0.72404224 0.053357664 -0.32639834 -0.5476091 0.02878441 0.18969172
-0.035261538 0.06338315 -0.123380184 0.22369042 -0.80529267 0.31855074 0.2136188 -0.14848602
0.44763872 -0.045264497 0.15308866 0.038136207 0.51059914 -0.06477991 0.24228287 -0.07262718
-0.28171378 -0.33934277 0.3384577 0.4235631 -0.45800245 0.34846872 0.73986983 -0.7881693
-0.091069184 0.11501235 -0.08530372 0.22243136 0.09106198 0.37170705 0.11000076 -0.07051633
0.7252592 0.12693381 0.45871878 0.3579411 -0.10763396 0.106382184 -0.48952374 0.79782784

MLP.4.weight f4 [28, 64]
00000000: 594a 99bf 011e c33e 1000 e5bd b851 f7bd
00000010: e374 8bbe 9c2f 27bf bc43 123d c23f 9fbe
00000020: 50f0 993e bc9b 1e3f a08b 99be 3161 87be
00000030: 5280 0c3e 9fa8 413d e28a f73d 623a 443e
00000040: bb19 81bc c571 80bc 45cb 733e e119 c03e
00000050: ce52 be3e 0821 82be eaf2 aebe 94d5 2dbe
00000060: 2bca a7bf 18dd 9dbf 92ac 1dbf ce26 5a3e
00000070: 1073 01bf a66a f03e 7d99 e9be 3b15 f0be
00000080: d01f 5dbf 6639 e03e 3a98 83bf 9ad5 29bf
00000090: 77dd 81be a5c6 23bf be33 293d 4f99 d6be
000000a0: 72b0 d63e 8f0f 653d 9801 613f 54b6 1f3f
000000b0: 673e ae3e 852e fd3e e64d 68bf 9603 d2be
000000c0: 5c09 65bf 0693 08be eba1 6abe cc4f 98bf
000000d0: 30f7 013f 4e71 efbe 2f75 503e 2abd 9e3d
000000e0: c2db 063f 3dab efbe 4a39 9ebd 68d1 0d3e
000000f0: ca33 c7be 0735 193f b1d7 8bbe 1475 b43e
00000100: 3563 643e 189e 723e 162b 89be 721b 29bf
00000110: d5da aa3c 6309 bebe fdad 9b3e eb97 5abe
00000120: d41a 4fbf dec5 f93e a11d ba3e 5c2f d6bc
00000130: 7b74 4b3e 9a32 6cbf a47c ab3c 35f4 fdbd
00000140: a470 85bd b8fc c73e b301 8c3e a868 b93d
00000150: 33de 5dbf 8912 c73e 9ede 0abf 1a89 283f
00000160: e41c b9bd 9df0 a9be cd6e 55bf 4638 1ebf
00000170: ac7d abbe 5f00 5fbf 91e3 10bf a69a 9dbf
00000180: 9497 73bf 0b3f db3e 4d43 be3e 0566 57bf
00000190: 08d9 2bbf 1cdc ea3e 6a18 a3bf c62c 65be
000001a0: 5595 f3be 6f39 a93d 3942 353e 548e 38bf
000001b0: cbd0 853e aaae 63bf dde5 c83d c0e3 27bf
000001c0: 1e09 2a3e 695a 3bbf 386e 493e 26d5 c63e
000001d0: e39a dd3e 84af ca3e e0b5 73bd 6ddd c23c
000001e0: da48 a5bd ead4 dd3d acf3 ee3e 5db0 e1bd
000001f0: 993d 053e d444 58bd 0e5e f4bd 3de7 bf3e
00000200: 0a45 8dbc a8b1 8e3e e472 933e fe14 67be
00000210: de42 9dbd 59e3 e9be eaa3 e0bd 1175 57bf
00000220: cd2a b83e 6400 37bf 591c 58bf ff26 6c3d
00000230: 86a2 dd3e 0209 43be 5843 283e b7b1 e33e
00000240: d738 08be d73d f43e ed3e a73e 13e5 c33e
00000250: 08b7 01bd e6cc c0be 1b79 40be a26b 35bf
00000260: 46ea 8dbe 06cc 99be 0a94 4c3e 3e32 a3bd
00000270: b101 673e b23c 6c3e ac5f 873d 5332 84bf
00000280: ad4e a4be 2d28 4c3d c019 c7be 388b bc3b
00000290: 1360 0e3e a39e 5b3e 082f 55bf c2c6 49bf
000002a0: e075 e73e 2538 8e3e 46e5 9bbf edfd 21bf
000002b0: 4532 803e 6472 fb3d 5451 133e 4731 60be
000002c0: 961e 5d3e 9bf0 9ebe 70b5 62be 926f b4be
000002d0: ef54 bdbd 0d2e 813e 670b 86bf e591 043e
000002e0: cdd5 01be b751 6abf b3ab 5d3d 47bd 223e
000002f0: 7a38 373e 5cb5 4b3e e6fa cabe a84e a6be
00000300: 4b7f 47bf 602a 823e a7d9 a73d b172 9bbf
00000310: b2e6 c43e 7d9a 88bf b476 82bf 8a72 2a3d
00000320: 1d7f 123e e063 e7be 5f2f 8ebd 0007 46bf
00000330: 5436 3abf 68ae 2bbf 3cdd 94bc 4f92 d03e
00000340: 6939 803e 287f 043e bdcd 7c3d b6d0 c1be
00000350: e78f 463e 464f 88bf 6612 47bf 38ef babf
00000360: 5c88 4d3f 960a 013f 2821 abbe e81c fbbd
00000370: 908a a8bf 51b3 473e 2bf0 6c3e 157e d13e
00000380: ba22 173d e333 e8be a52b 4abf f576 433e
00000390: 6798 613e c362 acbe b12d 183f 5940 41bf
000003a0: ecf9 b1bf 5979 59bf 417f 463e 4675 243f
000003b0: 15aa 50bf 9566 38bf 403c cdbe 8b65 1bbf
000003c0: 3066 6dbe 1f47 043e c6c8 ec3e 20a0 6d3e
000003d0: 9155 b9be 877a d63d 6beb 2fbf 5d97 efbd
000003e0: 700a c03d 19a3 99bd 6c61 23bf d0c5 be3e
000003f0: 5471 403f 96b9 bd3d e179 ed3d 9880 8bbf
-1.1975814 0.3810883 -0.111816525 -0.120761335 -0.27237615 -0.6530702 0.035709128 -0.3110333
0.30066156 0.6195638 -0.29989338 -0.2644134 0.13720825 0.04727995 0.12087037 0.19162896
-0.01575934 -0.01567925 0.2380801 0.37519744 0.3717255 -0.25415826 -0.34169704 -0.16976005
-1.3108572 -1.2333097 -0.61591446 0.21303865 -0.50566196 0.46956366 -0.45624915 -0.46891198
-0.8637667 0.43793792 -1.0280831 -0.66341555 -0.25364277 -0.6397498 0.04130911 -0.4191384
0.41931492 0.05592304 0.87893057 0.62387586 0.34031984 0.49449554 -0.90743864 -0.4101836
-0.89467406 -0.13337335 -0.2291333 -1.1899352 0.50767803 -0.46766132 0.20357202 0.07750924
0.52679074 -0.46810332 -0.07725771 0.13849413 -0.389067 0.5984654 -0.27312997 0.35245574
0.2230347 0.2369312 -0.26790684 -0.66057503 0.0208563 -0.37116536 0.3040618 -0.21347015
-0.8090031 0.48783773 0.3635073 -0.02614563 0.19868653 -0.9226471 0.020933457 -0.124000944
-0.06515625 0.39059997 0.27345046 0.09053165 -0.86667174 0.3888133 -0.54245937 0.658342
-0.090387136 -0.33191386 -0.83372194 -0.61804616 -0.33494318 -0.8710994 -0.5659724 -1.231282
-0.95153165 0.42821535 0.3716072 -0.84140044 -0.6712804 0.45871055 -1.2741826 -0.22380361
-0.4757487 0.08262908 0.17701043 -0.72092175 0.2613586 -0.8893839 0.09809468 -0.65581894
0.1660504 -0.7318483 0.19670951 0.38834494 0.43282232 0.39587033 -0.05949962 0.023787225
-0.08070536 0.10831626 0.46670282 -0.11019967 0.13011779 -0.052800015 -0.11932002 0.37481108
-0.017244834 0.27869916 0.28798592 -0.22566602 -0.076787695 -0.45681265 -0.10968764 -0.84163004
0.35970154 -0.7148497 -0.84418255 0.057654377 0.43288058 -0.19046405 0.1643194 0.44471523
-0.13302933 0.4770343 0.32665196 0.38260707 -0.031668693 -0.37656325 -0.18796198 -0.7086736
-0.277178 -0.3003847 0.19978347 -0.07968567 0.22559239 0.23070028 0.06610045 -1.0327858
-0.32091275 0.049843002 -0.38886833 0.005753901 0.13903837 0.21447234 -0.8327489 -0.78818905
0.4520712 0.2777721 -1.2179344 -0.63278085 0.25038353 0.12277678 0.14386493 -0.21893798
0.21593699 -0.31042942 -0.22139525 -0.3524137 -0.092447154 0.25230446 -1.047223 0.1294628
-0.12679215 -0.91530937 0.054118823 0.15892516 0.17892638 0.19893402 -0.39644545 -0.32481885
-0.7792861 0.25422955 0.08195811 -1.2144376 0.38457257 -1.0672146 -1.0192475 0.04161314
0.14306302 -0.45193386 -0.06942629 -0.7735443 -0.7273915 -0.67063 -0.018171899 0.40736625
0.250438 0.12939131 0.061719645 -0.37854546 0.19390832 -1.0649192 -0.7776245 -1.4604254
0.8028619 0.5040678 -0.33423734 -0.12261373 -1.3167286 0.19501998 0.23138492 0.40916505
0.036898352 -0.45352086 -0.78972846 0.19088347 0.22030793 -0.336691 0.5944472 -0.7548881
-1.3904395 -0.84950787 0.19384481 0.64241445 -0.81509525 -0.7203153 -0.4008503 -0.6070182
-0.23183513 0.12917756 0.46246928 0.23205614 -0.36198094 0.10472589 -0.68718594 -0.11698792
0.09376991 -0.075018115 -0.6382053 0.37260294 0.75172925 0.09263913 0.11595512 -1.0898619

MLP.4.bias f4 [28]
00000000: 6259 ab3d 5917 013f d517 113c b4a7 4b3e
00000010: 73b5 57be 135a 02bd 9031 99bd 39fd 413d
00000020: ce22 65bd cf75 0e3e 63c0 c4be 329c d33d
00000030: 83ba d63e acd3 983e dab0 c3be d6bb 98bc
00000040: 049b 79be 0d3d e1be ebeb 05be 3352 153e
00000050: 5850 1abe 426f bfbf 1752 7b3f 5640 d9be
00000060: 8282 0e3e 3b10 173f 409a 9e3e 18a8 1abe
0.08366658 0.5042625 0.00885578 0.19888192 -0.21065311 -0.031824183 -0.074801564 0.047360633
-0.055941395 0.13912128 -0.3842803 0.10332526 0.41939172 0.29848993 -0.38220865 -0.018644255
-0.2437554 -0.4399189 -0.13078277 0.14582138 -0.15069711 -1.4955828 0.98172134 -0.42431897
0.13916972 0.5900914 0.30977058 -0.15103185

exp_avg f4 [128, 284]
00000000: 25d3 1438 6206 72b9 b29e 343a c66d d639
00000010: 95ea e7b8 b55c 25b9 0b1c 8239 54b7 a137
00000020: 76a9 7039 515a 51b8 6a9e 41b9 a367 8239
00000030: 593b cc39 24ad 2837 98e6 9938 180b 8d38
00000040: 90a7 2e39 de03 02b9 0302 9239 8fdd 8936
00000050: ccfe 2539 0319 8439 e751 90b9 36cc 58b9
00000060: 46d3 3039 d590 7ab8 c257 4439 d1d6 9cb9
00000070: f396 81b9 fd90 d236 a126 47b8 a571 86b7
00000080: 0293 75b8 1dba beb7 fab4 52b9 412b e538
00000090: 6012 5ab8 fdc8 60b8 1116 a338 2f35 06b8
000000a0: 4a6c ae38 c6ee 9638 a8e2 c038 6101 7839
000000b0: a241 2c39 bc1a 4738 dde4 4db8 940f ec38
000000c0: ca27 7838 2045 56b9 6c52 65b8 eefd 2939
000000d0: cd18 9037 7d12 6138 4bd6 6ab7 d4c4 dc38
000000e0: 3354 c6b8 1286 4439 eb2a d138 298f 99b8
000000f0: 7a81 0f38 a8bf 93b8 0867 50b6 4045 8d37
00000100: 7f3e a0b8 f70a a838 53a2 0fb9 dbe7 4539
00000110: 8e11 3b39 32c1 ba38 10ac 2639 cd1e d638
00000120: 4177 7439 be8c ed36 6b40 8538 efb8 df37
00000130: 81ed dcb8 a688 8738 92a5 0eb8 e742 8eb7
00000140: 5c8c 86b7 6ce8 8238 a187 a338 5f03 8c38
00000150: f5ad feb6 0644 a2b8 bd96 b237 0f26 1e39
00000160: 222b 84b8 a107 8db8 35c0 28b7 3eb1 d038
00000170: 52e6 9db8 6582 1ab9 67ce 8d38 a99d 6338
00000180: 30d2 9a38 b53c 3eb8 69a2 bdb8 39cf 89b8
00000190: f4be 83b8 d450 1737 dba2 31b8 dba6 59b8
000001a0: 268a a9b8 a766 4539 35ec e638 9e82 04b8
000001b0: 176a 5737 9a21 a0b7 a92a 02b6 127f 39b7
000001c0: 7156 a038 1530 86b8 8f1a 3cb8 d30d 8838
000001d0: e7ab 9db8 c16b 5338 aa37 f4b8 ce46 6438
000001e0: 09a3 78b8 5e19 fdb8 73f3 beb7 697f d938
000001f0: 83f2 3ab9 bf5a 84b8 1424 56b7 096e 6238
00000200: 709a 8537 105e 5a38 56a8 c7b7 88ad f8b7
00000210: 63c5 4e36 3223 22b8 3161 2cb8 af2d 59b8
00000220: ffb8 93b8 0c94 9338 c53a 40b8 fef0 5938
00000230: 9587 31b8 883a 57b8 7d1b 9ab5 b730 1db7
00000240: b02d 9cb8 ff64 56b7 4aab 0639 6517 62b7
00000250: d959 50b8 01d6 6d37 0f80 ca37 d86f 08b9
00000260: 0db8 eab7 c2f0 3cb8 ef8a d536 dbdb 0b38
00000270: 46af 2437 17cc 78b6 93e0 bf37 2516 4738
00000280: e481 72b7 bb8e efb8 2341 6eb7 28e7 d737
00000290: 707a 0338 2253 3fb8 4310 03b7 fee3 49b6
000002a0: 95df 8eb8 f3f8 d8b8 33a5 0fb7 a253 fa37
000002b0: e9f7 8f37 5639 bbb7 42a6 b537 313b 67b6
000002c0: acae 2138 358c 0038 c40a f2b7 b3e3 13b8
000002d0: 5305 8d37 f613 db37 f86b a9b8 bbdf 45b8
000002e0: 1644 2b38 5f78 8438 8345 0838 b3cc d6b6
000002f0: b74c 7ab8 d79a ed37 c0a7 6e36 0d10 53b7
00000300: a978 d637 313c 5e37 d47a 8338 a08f 7737
00000310: 0a06 17b7 f90c 4f38 78ad 1c38 2935 2db8
00000320: 3917 7eb7 53a9 2338 db29 a0b8 e360 16b8
00000330: d2c7 69b8 98d2 77b8 ce78 3738 c064 47b8
00000340: e5a3 ccb7 7ad5 30b8 0142 3d37 5957 c036
00000350: 9534 6e37 f85f 39b8 e553 3137 3b0b 4d37
00000360: 2003 9137 0319 01b8 9e6d d538 c03f 4837
00000370: bf1e 8bb8 3f0d 3eb8 a7f1 9db6 5298 3e38
00000380: 47f1 05b8 f2c9 9c37 6b8a 56b8 e09f 57b8
00000390: e4ec 4537 3bc3 09b8 87dc 6cb7 16b5 0bb8
000003a0: 4bd6 2938 e066 29b8 b542 f5b7 4921 5e38
000003b0: f159 4d36 2f1b 6738 bb4a d3b7 86f0 49b7
000003c0: d602 37b8 c9f8 8636 89f4 2c37 9e01 8837
000003d0: cdb9 5738 4e33 8b38 722d 6038 4ec5 bdb7
000003e0: 69cf dcb8 10b9 d338 79fb 5ab6 6048 0ab8
000003f0: c545 3eb8 ce0e 04b8 21b0 2438 9dbf 34b7
3.5482593e-05 -0.00023081296 0.00068901025 0.00040899048 -0.00011058633 -0.00015770162 0.00024816426 1.9278064e-05
0.00022951313 -4.9913597e-05 -0.00018464928 0.00024872748 0.0003895413 1.0053893e-05 7.33856e-05 6.72547e-05
0.00016656355 -0.00012399207 0.0002784879 4.108711e-06 0.00015830545 0.00025195637 -0.00027526842 -0.0002067544
0.00016863373 -5.973953e-05 0.00018724709 -0.0002991469 -0.00024717263 6.2753666e-06 -4.7481273e-05 -1.6026965e-05
-5.8549464e-05 -2.273643e-05 -0.0002009458 0.000109276276 -5.1992363e-05 -5.3592947e-05 7.776556e-05 -3.199762e-05
8.317137e-05 7.1970324e-05 9.1974915e-05 0.00023651637 0.00016427648 4.7470196e-05 -4.9088954e-05 0.000112562586
5.9164864e-05 -0.00020434381 -5.4674616e-05 0.00016211692 1.7177686e-05 5.36614e-05 -1.3997381e-05 0.000105270796
-9.457059e-05 0.00018741962 9.973891e-05 -7.322274e-05 3.421444e-05 -7.045205e-05 -3.1054387e-06 1.6840757e-05
-7.641035e-05 8.0129066e-05 -0.00013698013 0.00018873757 0.0001784025 8.9051566e-05 0.00015895092 0.00010210052
0.00023314079 7.079535e-06 6.353933e-05 2.6669788e-05 -0.00010534656 6.4627544e-05 -3.4009638e-05 -1.6958873e-05
-1.6039405e-05 6.242175e-05 7.7977085e-05 6.676348e-05 -7.590041e-06 -7.737432e-05 2.1289447e-05 0.00015082232
-6.3022846e-05 -6.724825e-05 -1.0058332e-05 9.951227e-05 -7.529244e-05 -0.0001473516 6.761849e-05 5.426785e-05
7.382443e-05 -4.5356068e-05 -9.0424735e-05 -6.571267e-05 -6.2821346e-05 9.019121e-06 -4.235176e-05 -5.1892228e-05
-8.08428e-05 0.00018825625 0.000110112516 -3.15929e-05 1.28397e-05 -1.9089133e-05 -1.939634e-06 -1.1056445e-05
7.6454955e-05 -6.398574e-05 -4.4847427e-05 6.48756e-05 -7.518363e-05 5.0406674e-05 -0.00011645195 5.4425378e-05
-5.9279646e-05 -0.00012068705 -2.276313e-05 0.00010371098 -0.00017828685 -6.311153e-05 -1.2763794e-05 5.3985077e-05
1.5926751e-05 5.2062853e-05 -2.3801036e-05 -2.964471e-05 3.0811286e-06 -3.8656588e-05 -4.1098512e-05 -5.1779378e-05
-7.0439644e-05 7.037082e-05 -4.58311e-05 5.1961273e-05 -4.232636e-05 -5.1314506e-05 -1.1481894e-06 -9.3692715e-06
-7.4471696e-05 -1.2778909e-05 0.00012843046 -1.3476097e-05 -4.967474e-05 1.41761275e-05 2.4139908e-05 -0.00013011636
-2.7980679e-05 -4.5046916e-05 6.3640687e-06 3.334494e-05 9.815971e-06 -3.7073676e-06 2.287355e-05 4.746592e-05
-1.4454567e-05 -0.00011422994 -1.4201071e-05 2.5737638e-05 3.1346863e-05 -4.5615372e-05 -7.811995e-06 -3.0084043e-06
-6.812733e-05 -0.00010346053 -8.561928e-06 2.9841267e-05 1.716237e-05 -2.2318836e-05 2.1654301e-05 -3.4456136e-06
3.8548067e-05 3.0648156e-05 -2.8853661e-05 -3.5259593e-05 1.681099e-05 2.611613e-05 -8.078659e-05 -4.7176825e-05
4.0832987e-05 6.316671e-05 3.2489665e-05 -6.401527e-06 -5.967609e-05 2.8324705e-05 3.5562407e-06 -1.2580317e-05
2.5566975e-05 1.32462455e-05 6.269445e-05 1.4755788e-05 -9.001707e-06 4.9364728e-05 3.7354854e-05 -4.1295923e-05
-1.5144987e-05 3.9019924e-05 -7.637191e-05 -3.585302e-05 -5.5737626e-05 -5.908552e-05 4.3743108e-05 -4.7539128e-05
-2.4395014e-05 -4.2160485e-05 1.1280646e-05 5.7322145e-06 1.4198148e-05 -4.4196815e-05 1.0569555e-05 1.2221567e-05
1.7286802e-05 -3.077929e-05 0.00010177049 1.1935772e-05 -6.6337634e-05 -4.5311866e-05 -4.7070967e-06 4.544139e-05
-3.1934378e-05 1.8690687e-05 -5.1150488e-05 -5.140889e-05 1.179727e-05 -3.2845168e-05 -1.4118042e-05 -3.3308832e-05
4.0492316e-05 -4.038855e-05 -2.9237339e-05 5.2959924e-05 3.0599733e-06 5.510001e-05 -2.518796e-05 -1.2036535e-05
-4.363324e-05 4.0224736e-06 1.0308934e-05 1.6213216e-05 5.1433035e-05 6.637593e-05 5.3448086e-05 -2.2622433e-05
-0.000105290506 0.000100957346 -3.2630908e-06 -3.296917e-05 -4.5364508e-05 -3.148504e-05 3.926468e-05 -1.07734495e-05

exp_avg_sq f4 [128, 284]
00000000: 6760 1f3a 94e9 4b3a d8aa 7b39 b1d1 bf39
00000010: c561 4539 d290 4939 7b7a 0139 2de2 1139
00000020: d42c 0239 654c c338 e138 6f38 450a c238
00000030: 1320 8f38 ee2b a738 20ac c638 a09f 3c38
00000040: f63b 0f38 5a15 6b38 bea0 6838 0d51 9c38
00000050: a7c8 fe37 c831 2638 03e6 3638 454b 0738
00000060: c2e1 3138 124b 1f38 a308 bc37 b9a8 c037
00000070: 8368 fe37 b995 c537 6901 f837 7e08 cc37
00000080: 7225 7237 01cc d837 2c94 0938 f2ef 0438
00000090: 2015 9b37 25cd d437 3816 8437 4746 9c37
000000a0: 8889 b237 d84c 7937 e6b6 bf37 3cfd b937
000000b0: 117a 6537 ee83 8f37 cf88 4337 4f9c 6337
000000c0: 3a0c 4237 26f7 8437 c36b 3e37 febf 6a37
000000d0: 0108 7537 59e3 2737 e9f9 2537 3b0d 2d37
000000e0: 3776 8237 4350 8337 6e82 fd36 5ef1 2e37
000000f0: 3274 4d37 9cc4 2637 e173 4637 2157 4037
00000100: ce39 1a37 b345 1d37 b078 3d37 af15 1737
00000110: 9846 4f37 a2b2 1237 ea2f 0937 1e5f 4137
00000120: 2c74 2837 bfca b036 bc10 0437 de61 ed36
00000130: 6cf9 bc36 b7eb 1937 d1d9 1b37 7cfc e636
00000140: 87ed ec36 8257 0837 5e4b 0737 77a8 1c37
00000150: a7cf ba36 7466 2037 94d2 e336 3499 eb36
00000160: 265d 2137 6cad aa36 f868 d736 5dc2 b136
00000170: 2eb6 ea36 4e9b 0837 e6bd b636 c4dc e636
00000180: 08d8 d436 8b34 b436 911e b136 898c 1337
00000190: ca17 0337 5c54 1537 a40c b336 94f7 ba36
000001a0: f18d cc36 607a 6236 09a2 9a36 7d48 f536
000001b0: 4378 9d36 0e42 f536 9850 d236 e022 0237
000001c0: 9d6b ab36 bc63 7f36 161e b836 4e09 d636
000001d0: ff60 8c36 86c7 9536 8a01 a836 53ff 9a36
000001e0: 3d3b bd36 217e ba36 72e4 9a36 552e e036
000001f0: d6ba 7636 526c db36 e21d 9836 b32e f536
00000200: 3158 ac36 1227 a936 ef62 7e36 ed55 4936
00000210: ab64 9036 13cf d136 62e7 6336 12f0 9736
00000220: c564 8936 97d2 8136 6893 a436 42af 9136
00000230: 6722 5436 e3d9 6c36 94b7 0937 5073 7436
00000240: 34d7 a736 05c2 a336 8f85 b036 140d 2636
00000250: 35a5 8836 ec0b 9836 c7e3 9136 4e65 6436
00000260: 1873 2036 1d8d a136 708a 6e36 1f58 1936
00000270: a481 b236 28b8 a636 fb20 9a36 8387 7236
00000280: 7ac0 8436 9d91 9d36 701d 6b36 73f1 3136
00000290: 68e9 3436 1627 9a36 194c 2f36 7de3 4b36
000002a0: 8f9c 6636 c4a8 8536 f273 1e36 b20a 2f36
000002b0: dd8d 6e36 0219 6136 1efa 4936 98a2 8436
000002c0: ab82 6636 83ad 7c36 279d 6936 35d2 9236
000002d0: 2256 4436 7034 0d36 8f4a 6f36 e86a e635
000002e0: e5a3 3e36 ab0f 5436 cd06 4236 b233 1836
000002f0: 6c13 fc35 e055 1b36 4c08 6936 7937 3236
00000300: cad8 6736 7267 1a36 a6f3 2a36 3b10 4c36
00000310: e377 0936 cbda 6d36 e3cb eb35 8e1d 1b36
00000320: 0a09 3836 811a 7036 c68f 1f36 3e9b 5736
00000330: e76c 2836 9858 0a36 5062 7636 7cb4 e735
00000340: 3a2e 0d36 3550 ba35 bcbf 2c36 f1b4 e435
00000350: a34d 0936 ae16 7d36 2504 4336 b332 8536
00000360: 3776 1336 659e 0f36 ef98 6736 97bd 8a36
00000370: c5d9 4736 fbe8 f135 af1f 2736 3633 1336
00000380: 516b 0936 0110 1736 0930 0c36 0b7b f835
00000390: 94ff d135 0242 ee35 4f8a 2836 f1bc 1236
000003a0: dcd1 ca35 0a12 1936 98da fa35 beca 0a36
000003b0: d188 6336 70dc cd35 6173 ca35 ff47 0736
000003c0: 61e0 3d36 da55 f935 675d 3236 0932 4b36
000003d0: 5c3d 0936 4d03 d935 8fe4 1a36 1c8b e435
000003e0: fc86 3936 1371 c135 2a25 1436 c7b1 0936
000003f0: 858e bb35 ffb0 fa35 faf3 1136 d805 d535
0.0006079734 0.00077786413 0.0002400087 0.0003658659 0.00018823806 0.00019222804 0.00012348026 0.00013912535
0.00012414466 9.312554e-05 5.7035013e-05 9.252554e-05 6.824746e-05 7.971363e-05 9.4734365e-05 4.4971355e-05
3.41497e-05 5.604825e-05 5.5462813e-05 7.4537566e-05 3.0372596e-05 3.9623847e-05 4.3606397e-05 3.225661e-05
4.2410342e-05 3.797847e-05 2.2415368e-05 2.2966751e-05 3.0327827e-05 2.355395e-05 2.956456e-05 2.432265e-05
1.4433042e-05 2.5844203e-05 3.280134e-05 3.169472e-05 1.8487277e-05 2.5367897e-05 1.5745973e-05 1.8629375e-05
2.1283297e-05 1.4859448e-05 2.2854143e-05 2.217164e-05 1.3677884e-05 1.7108363e-05 1.1654759e-05 1.3566648e-05
1.1566148e-05 1.5850714e-05 1.1349973e-05 1.39921885e-05 1.46050015e-05 1.0006909e-05 9.892953e-06 1.0314684e-05
1.5552256e-05 1.5653792e-05 7.5551716e-06 1.0427406e-05 1.2246006e-05 9.940148e-06 1.18287e-05 1.1464378e-05
9.192574e-06 9.374157e-06 1.1293378e-05 9.00535e-06 1.2354598e-05 8.743869e-06 8.176992e-06 1.1525843e-05
1.0040629e-05 5.2688115e-06 7.871709e-06 7.0745436e-06 5.631873e-06 9.174392e-06 9.289434e-06 6.883927e-06
7.061e-06 8.126606e-06 8.064175e-06 9.337548e-06 5.567406e-06 9.560597e-06 6.7896417e-06 7.021381e-06
9.618036e-06 5.0865838e-06 6.4197193e-06 5.297638e-06 6.994952e-06 8.142391e-06 5.4461298e-06 6.8802347e-06
6.3432417e-06 5.370535e-06 5.2785695e-06 8.794604e-06 7.813747e-06 8.9007335e-06 5.3360873e-06 5.572054e-06
6.096198e-06 3.3747856e-06 4.608421e-06 7.3100077e-06 4.692965e-06 7.3092588e-06 6.26787e-06 7.756724e-06
5.108725e-06 3.8056014e-06 5.48713e-06 6.37878e-06 4.183617e-06 4.4637736e-06 5.0069693e-06 4.6192813e-06
5.639535e-06 5.5579153e-06 4.616152e-06 6.681114e-06 3.676561e-06 6.5393187e-06 4.533432e-06 7.3070055e-06
5.1362663e-06 5.041141e-06 3.7906536e-06 3.000135e-06 4.3032537e-06 6.252792e-06 3.3960318e-06 4.5280985e-06
4.0946493e-06 3.8690155e-06 4.904741e-06 4.3417394e-06 3.1610487e-06 3.5293567e-06 8.208579e-06 3.6425954e-06
5.002041e-06 4.8803654e-06 5.260757e-06 2.474354e-06 4.0723485e-06 4.531341e-06 4.3478535e-06 3.4033615e-06
2.3908851e-06 4.8146017e-06 3.5545345e-06 2.285007e-06 5.3199055e-06 4.968624e-06 4.593397e-06 3.6139688e-06
3.956314e-06 4.6959162e-06 3.5034864e-06 2.6515597e-06 2.695795e-06 4.594108e-06 2.6121327e-06 3.0381773e-06
3.43638e-06 3.983356e-06 2.3611324e-06 2.6083258e-06 3.554734e-06 3.354217e-06 3.0096921e-06 3.952835e-06
3.434873e-06 3.7651923e-06 3.481118e-06 4.3756104e-06 2.9256412e-06 2.104116e-06 3.5657174e-06 1.7167449e-06
2.8407605e-06 3.1599582e-06 2.8912211e-06 2.2679856e-06 1.8781116e-06 2.3146786e-06 3.4724535e-06 2.6556356e-06
3.454787e-06 2.3008001e-06 2.5473796e-06 3.0407816e-06 2.0484374e-06 3.5443106e-06 1.7568203e-06 2.3114003e-06
2.7423398e-06 3.5778214e-06 2.3776533e-06 3.212786e-06 2.509734e-06 2.061517e-06 3.6714082e-06 1.7263369e-06
2.1037545e-06 1.3881423e-06 2.5741601e-06 1.7039985e-06 2.0459781e-06 3.771314e-06 2.9059677e-06 3.969611e-06
2.1973517e-06 2.1400858e-06 3.4510701e-06 4.1347917e-06 2.978007e-06 1.8023705e-06 2.4903381e-06 2.1934516e-06
2.0477057e-06 2.251007e-06 2.0889586e-06 1.851325e-06 1.5646096e-06 1.7751593e-06 2.5114457e-06 2.1865674e-06
1.511125e-06 2.2809277e-06 1.8690071e-06 2.0681614e-06 3.3905274e-06 1.5337846e-06 1.5083752e-06 2.0158475e-06
2.82938e-06 1.8576932e-06 2.6578434e-06 3.0278482e-06 2.0450307e-06 1.616872e-06 2.3080827e-06 1.702781e-06
2.764572e-06 1.441253e-06 2.207535e-06 2.051807e-06 1.3974064e-06 1.8677964e-06 2.1748697e-06 1.5871437e-06

exp_avg f4 [128]
00000000: 9b5f 3fb9 9b11 0a39 0ec5 8fb7 6f0a d2b8
00000010: 7fa7 5a3a c00e 9db8 d01e 41ba 9bb0 bdba
00000020: f87b 6c39 a8c1 adb7 1977 083a a28b a2b6
00000030: edcf 32b8 61ea 1cb8 cc28 8137 de95 f639
00000040: 0613 5b39 cbf2 cfb9 2328 a7b7 7d9d f7b9
00000050: 7eff 50b9 6645 6139 1241 4fb9 9b44 23b9
00000060: 5c80 29ba 4262 ddb8 67eb b2b9 5bfa 9eb9
00000070: 1ac7 f8b8 4bd4 92b8 cafa 4339 5975 9bb8
00000080: dca4 3d38 478c 4e39 174d 88b9 01c8 553a
00000090: 9701 7539 c1b7 0739 d4a0 3339 e8fe 41b9
000000a0: 5c71 da37 855a 263a 16a9 3ab6 6c6f 8939
000000b0: b45f ec39 2cd3 0139 34af 0239 f9c4 653a
000000c0: cc0c 32b5 0348 4fba f507 3bb9 3034 d8b4
000000d0: adcc 1b38 8206 f138 4ced a7ba f6c8 72b9
000000e0: d264 84b9 6261 1b37 77f6 58ba f2d1 23ba
000000f0: b40d fcb9 b9ff 83ba e4ab 3f3a 1d29 28b9
00000100: e657 6a39 0b35 3339 3d45 d6ba 92c8 8fb9
00000110: 1f09 88b9 14d2 fdb9 089d 15ba 3a89 2839
00000120: c915 64b8 1501 7a38 f05d 6036 4c18 9837
00000130: bdc1 0a3a 484c 76b5 f8c7 5538 d8f7 323a
00000140: 0643 d839 b0bc 7b37 7c1f dc38 8935 e639
00000150: 1914 e4b9 6961 51b9 e6ee b6b8 44df 693a
00000160: 6b34 4c3a 320a 4ab6 6d4f 9e37 01ff 8aba
00000170: 9e1c 6a38 d315 16ba 57ea c5b8 60a4 9db8
00000180: ebe0 d839 dd10 e439 03dd 88b8 002f ce38
00000190: 20b2 ac38 1f8a c1b9 79c6 73b9 8b0f c9b7
000001a0: c928 75b7 00aa 03b9 a4bf 9439 b9a4 ddb7
000001b0: f6b6 9e38 abcd 68b9 f2cd 5db9 f40b 3b38
000001c0: 2c6d f8b9 625c 8536 69dd 45b6 b52f 7dba
000001d0: a7da 76b8 c953 183a 558f 8b39 542e 0e38
000001e0: 6e83 8e38 0a0e 7936 81c9 08ba 7c05 1a39
000001f0: 0d02 67b8 3f53 2339 8931 dd39 460a 0e3a
-0.00018250795 0.00013167264 -1.713869e-05 -0.00010015524 0.0008340999 -7.489091e-05 -0.0007366957 -0.0014472188
0.00022552896 -2.0713385e-05 0.0005205735 -4.8442316e-06 -4.2632153e-05 -3.741158e-05 1.5396996e-05 0.00047032436
0.00020892554 -0.00039663012 -1.9926641e-05 -0.0004722885 -0.00019931604 0.00021483525 -0.00019765299 -0.00015570449
-0.00064659654 -0.00010556403 -0.00034126194 -0.00030322638 -0.00011862647 -7.001365e-05 0.00018690075 -7.412834e-05
4.521465e-05 0.00019697948 -0.00025997378 0.0008155108 0.00023365613 0.00012943057 0.00017130683 -0.00018500874
2.6040412e-05 0.0006345886 -2.781458e-06 0.00026213692 0.00045084732 0.00012381066 0.00012463034 0.0008765008
-6.632879e-07 -0.0007907154 -0.00017836674 -4.0271107e-07 3.71455e-05 0.00011492988 -0.0012811809 -0.00023153782
-0.0002525212 9.261394e-06 -0.0008276472 -0.0006249241 -0.00048075395 -0.0010070718 0.00073116855 -0.00016037044
0.00022348724 0.0001709053 -0.0016347539 -0.00027424522 -0.00025946737 -0.0004841244 -0.00057072984 0.0001607285
-5.4379725e-05 5.9605652e-05 3.343328e-06 1.8131126e-05 0.00052931515 -9.1753145e-07 5.0969393e-05 0.0006827093
0.00041248667 1.5004698e-05 0.00010496282 0.00043908905 -0.00043502523 -0.00019968081 -8.7229346e-05 0.0008921514
0.00077897933 -3.010628e-06 1.8872053e-05 -0.0010604562 5.58166e-05 -0.0005725298 -9.437341e-05 -7.5169606e-05
0.00041366307 0.00043500113 -6.526152e-05 9.8316e-05 8.2347775e-05 -0.00036914737 -0.00023248223 -2.3968305e-05
-1.4612634e-05 -0.00012556463 0.00028371543 -2.6421958e-05 7.568106e-05 -0.00022201861 -0.00021152923 4.4595407e-05
-0.00047383585 3.9744637e-06 -2.9484165e-06 -0.0009658293 -5.8854606e-05 0.0005810825 0.00026618937 3.3898585e-05
6.795568e-05 3.7112063e-06 -0.00052180147 0.00014688628 -5.50766e-05 0.00015575903 0.0004218931 0.0005418401

exp_avg_sq f4 [128]
00000000: b21b 9c37 f5ed f436 30ad 1837 5331 6237
00000010: e205 2d37 c1a8 3b37 531e 8337 824c 1d37
00000020: fbc1 0937 4daf 0d37 475f ad36 7dff 2b37
00000030: 3c16 0a37 4c16 0637 6923 f636 0167 db36
00000040: 5e0b 3e37 b792 f336 2b11 bf36 d217 2037
00000050: 2641 1437 2424 ac36 787b cb36 cc53 1637
00000060: a0a4 1d37 147d 5636 d59c f536 9ba6 8037
00000070: 6bbe 2c37 f872 e336 8e75 a236 c3e0 1e37
00000080: 74fa 0837 702e 0f37 4e4d 5437 22f4 3d37
00000090: 6530 0737 5430 1637 961b f936 d5a3 6037
000000a0: 8fee 5a37 fca1 0737 33a8 0e37 9682 1437
000000b0: 0a27 e236 a84c 9f36 e8a0 0f37 37f9 4f37
000000c0: ee47 1d37 f812 7737 8f6c 2a37 2e32 8d37
000000d0: 9320 1237 5a94 1437 f711 5737 721d 1337
000000e0: ba01 4537 3a37 d336 9053 4037 115e 4537
000000f0: 989f 3037 0a0f 1637 f716 3637 c70d f736
00000100: dd52 5337 1fe7 d636 9242 0737 305f 6337
00000110: 5018 ae36 d15d 2637 d510 f236 ad71 6c37
00000120: 94be b336 5914 d336 f931 f036 f71c 1237
00000130: 6182 9736 31e1 4a37 926c c536 1809 6d37
00000140: 7c16 3437 f059 b736 5886 de36 b33b 2637
00000150: 0b0a fc36 69ab 2137 3578 2637 0860 3c37
00000160: c2e5 f236 3ac1 7b36 9cde 5737 c001 3037
00000170: 21ef b936 bf9b 3437 7f26 d736 2bdb db36
00000180: 5ead d836 dc7d a637 942b 3e36 fba1 1437
00000190: 8989 f036 673a b137 ec22 0e37 a840 3437
000001a0: a89e c936 9a34 ac36 f357 0937 a76a 1f37
000001b0: 34cb 5e37 a1e0 0337 abc2 e636 494d 2d37
000001c0: 0c69 2437 567b ea36 7c8b 0337 9a95 4437
000001d0: 31b1 3637 cef9 7d37 6180 0637 9208 2c37
000001e0: 7d28 fe36 28fa 1637 3ded 1137 8804 0d37
000001f0: ef20 1637 9b46 0837 bbd9 2237 04ff d736
1.8609546e-05 7.2994685e-06 9.100229e-06 1.3482134e-05 1.0312973e-05 1.118536e-05 1.5630538e-05 9.375743e-06
8.211001e-06 8.44507e-06 5.1668935e-06 1.025188e-05 8.230618e-06 7.992214e-06 7.3354936e-06 6.5387e-06
1.1327529e-05 7.259044e-06 5.694242e-06 9.542289e-06 8.836656e-06 5.130207e-06 6.064245e-06 8.960207e-06
9.396259e-06 3.196129e-06 7.3198266e-06 1.533637e-05 1.0296334e-05 6.7785113e-06 4.8416614e-06 9.469865e-06
8.164545e-06 8.534276e-06 1.2654184e-05 1.13221195e-05 8.057895e-06 8.951949e-06 7.4239897e-06 1.3389586e-05
1.3049356e-05 8.084342e-06 8.5030215e-06 8.851892e-06 6.7398696e-06 4.747493e-06 8.560928e-06 1.2396186e-05
9.374677e-06 1.4726764e-05 1.0158065e-05 1.6831877e-05 8.709862e-06 8.856028e-06 1.2819181e-05 8.768739e-06
1.1742517e-05 6.2947192e-06 1.1463548e-05 1.1764017e-05 1.0527576e-05 8.944198e-06 1.0853392e-05 7.3627775e-06
1.2595873e-05 6.404603e-06 8.062127e-06 1.3552417e-05 5.1884344e-06 9.916214e-06 7.2141215e-06 1.4093163e-05
5.356802e-06 6.290659e-06 7.158375e-06 8.709022e-06 4.515329e-06 1.209257e-05 5.8836968e-06 1.4128418e-05
1.0734071e-05 5.464295e-06 6.6317552e-06 9.908271e-06 7.5113544e-06 9.636257e-06 9.922359e-06 1.1228032e-05
7.2389093e-06 3.7514387e-06 1.2866829e-05 1.0490825e-05 5.541268e-06 1.07650985e-05 6.411981e-06 6.552223e-06
6.4574842e-06 1.984735e-05 2.8337572e-06 8.859201e-06 7.1685686e-06 2.112724e-05 8.47199e-06 1.074389e-05
6.008737e-06 5.132123e-06 8.186314e-06 9.50197e-06 1.3279543e-05 7.860509e-06 6.8771965e-06 1.0329598e-05
9.79962e-06 6.9881016e-06 7.840685e-06 1.1717342e-05 1.0889301e-05 1.5138137e-05 8.016913e-06 1.0253994e-05
7.5745033e-06 8.998941e-06 8.69791e-06 8.40531e-06 8.948365e-06 8.122671e-06 9.706647e-06 6.437187e-06
