lightning_logs/version_14/checkpoints/epoch=29-step=38070.ckpt (torch, 247971 bytes, 12 tensors)

MLP.0.weight f4 [64, 284]
00000000: 5539 31be ed1b 783e 6944 d1bd 0c99 cc3d
00000010: 61bf e1be 3edd 8e3e 35af 6bbe 0e1c ed3e
00000020: b159 df3e 7888 2d3e 7b6e c43e 0da1 6dbd
00000030: e8c3 30bd 706a 2e3e 56b9 09bf 5c30 edbe
00000040: 271d 53be 0b27 a9be 5101 56be e280 473e
00000050: c22f a93e 687e 453d 2e30 14be 395a d73e
00000060: c7a0 223e 32a0 113d d3a2 8ebe 6754 263e
00000070: 8829 3a3e 1ff5 03bd b226 dfbe b6fb a6be
00000080: 2b68 113e a6d6 86be 7ed5 5cbe 9726 74be
00000090: 95e0 ddbe 3289 adbe 9fdd e93e e480 863e
000000a0: 71ac b8bd 6827 a3be 545f ddbe bd6d babe
000000b0: 7c11 d9bd cfd8 ef3d 6789 2d3e 2767 1e3d
000000c0: 0e3a 83be 99eb 353c 5362 c03e fc1e 973d
000000d0: 5ec3 e13d 9393 81be e045 893e b30d 19be
000000e0: 7078 523e b524 ba3d 4ece e63e 4d85 f03d
000000f0: 6ef8 a0be 5915 8fbe 81d8 853e 412e 4ebe
00000100: af0b 45be 2873 f03e b03c d3be 462a 19bf
00000110: c758 693e a817 ae3d 643f c3bd ec48 68be
00000120: 1532 ce3d 7155 e23e 89f8 9ebe ae9c 9cbe
00000130: d13a 2abe a026 073d 8339 ce3e d73a 023e
00000140: 636d 17bf fbcc 0e3f 766e 393e df95 a93d
00000150: a690 df3d 5590 c63d 2f5b 0e3e e0c9 a03e
00000160: 2cc5 bf3e ae2d 833f 7de1 3d3f 6650 653d
00000170: 6656 4ebe bbf7 4b3e f93d 803e 82b1 2dbe
00000180: 174f 1b3f e676 f73e e93a 4dbe 82e2 0b3e
00000190: 36c4 c7bd ed47 1cbe 4bdb 1b3e 3888 1abf
000001a0: 6d8c 55be 3e6a fdbd 74e6 2cbf a645 66bf
000001b0: 2ba3 24bd c0d0 263e db17 f0bc 7c38 4ebd
000001c0: b43f bc3d 8ca5 033e 1bcb b2bd 8076 6a3e
000001d0: 7a10 1cbf d408 083a 7289 e73e 2fa4 02bf
000001e0: 4c18 02bf dc07 143e 57a4 7fbe e3d6 013f
000001f0: 455b 4e3e 90e9 b4bd 1bdc e5be e305 a5be
00000200: 51cd ba3e 8854 3ebf 58af 09bf f518 f53c
00000210: 7c67 1a3e 5e19 bf3e 7512 f33e 503e 2f3e
00000220: 77e6 82bd ad36 debe 0f4e fa3e cf57 4d3f
00000230: 7e7c 703d 1bfe 073e 4e13 be3d 4a8e 8bbe
00000240: 785b 5ebe d5d6 2ebf 69b4 2dbe f115 493b
00000250: 36fa f7be 6862 903d acdb aa3e 9c79 15bf
00000260: 975a e6bd e773 283f 68c0 12be 2c61 083f
00000270: 7896 26bf 0caf 743f 2d1e efbe e758 adbe
00000280: 149f fbbe acf9 a93d 479a 9a3e f49c 15bf
00000290: bfd5 31be 8ffd 25bd 8ed5 80be 54b1 b73d
000002a0: ba48 ea3e 288f 243c 2165 b7be 309d 20bd
000002b0: 97e7 7abc 6413 0fbf 3c11 d7be 7f11 14be
000002c0: 982a a03e db8d 96be 5cd0 5dbf 22f6 d63d
000002d0: a252 943d 2074 14bf a3ec 1b3f e90a 9f3d
000002e0: 5867 7b3b b608 cabd 10fa a43e 79ad 2d3d
000002f0: 609d 9bbd ae2a 9a3d 70f5 513e 1f33 703e
00000300: 19d3 04be 2772 ce3d 5502 abbe d850 b33e
00000310: 86d1 bdbd 59a1 6fbe 6ec6 d23e e93d 813e
00000320: 2b4e 073f ca37 94bd 993b 54bf db0b 9d3e
00000330: b12d 66bd b608 51bc 6e0d 9abe 3226 2e3e
00000340: 9622 1abe 1bb4 0bbf e0dc 4cbe abc4 4ebf
00000350: 11da c2be 2c44 0bbd 785c 9abe 079f 383f
00000360: fc4c 203d 93ab 523b ebd4 be3c 6e30 0cbd
00000370: 4de6 283e 5ccc 983d 2ca1 c23e fea3 3ebe
00000380: e57b c1be 97af 513f 5e11 193f 9e12 803e
00000390: e380 933e e5f9 a3be 4a52 04be 73b5 393e
000003a0: 93d3 4fbe a12c c2be 460c c83d 495a 2abe
000003b0: 3994 f0be 456c 43bd ed97 b2be bfde 363f
000003c0: b197 bbbd 9bff 4fbf e46b 6ebe cdff debe
000003d0: 3de0 4d3f dc09 9d3d 280c 28bd dd59 fb3d
000003e0: 3564 9b3e 1bdb 68be d38b 7abe 60eb 1fbd
000003f0: 7e47 393d bb24 723d 38e7 dc3d 3be8 c5bd
-0.17307027 0.24229403 -0.10218126 0.09990129 -0.44091323 0.2790317 -0.23016055 0.46310467
0.43623117 0.1694659 0.3836554 -0.058014918 -0.04315558 0.1703279 -0.53798425 -0.46325958
-0.2061659 -0.330376 -0.2089894 0.19482759 0.3304425 0.048216254 -0.14471504 0.42061022
0.15881644 0.035553165 -0.278586 0.16243134 0.18179905 -0.032216188 -0.4358421 -0.32613915
0.14199893 -0.2633564 -0.21565816 -0.23842846 -0.43335405 -0.33893734 0.45676896 0.2627021
-0.090172656 -0.31866002 -0.43236792 -0.3641185 -0.10599038 0.11711275 0.16946946 0.038672592
-0.2563023 0.011103534 0.37575015 0.07378957 0.110235915 -0.25307903 0.26811123 -0.14946632
0.20553756 0.090890326 0.45079273 0.11744175 -0.31439537 -0.27945974 0.26141742 -0.20134832
-0.19242738 0.46962857 -0.41257238 -0.5983013 0.22787772 0.08500606 -0.09533575 -0.22684067
0.10068146 0.44205812 -0.31048992 -0.30588287 -0.16623999 0.03299582 0.40278253 0.12717758
-0.59151286 0.55781525 0.18108544 0.08280539 0.109162614 0.09695498 0.13901971 0.31404018
0.37455118 1.0248315 0.7417219 0.055984877 -0.20150146 0.1991872 0.2504728 -0.16962245
0.60667557 0.483329 -0.20042004 0.13660625 -0.09754221 -0.15261813 0.15220372 -0.60364103
-0.2085435 -0.1237378 -0.67539144 -0.89950025 -0.04019467 0.1629057 -0.02930825 -0.050346836
0.09191838 0.1285612 -0.087301455 0.22896767 -0.6096264 0.0005189304 0.4522205 -0.51031774
-0.50818324 0.14456123 -0.24965034 0.50718516 0.20152004 -0.08833611 -0.4489449 -0.32231054
0.3648477 -0.74347734 -0.5378318 0.029919127 0.15078539 0.3732404 0.4747502 0.17113614
-0.06391614 -0.4340109 0.4888768 0.8021211 0.058712475 0.13280527 0.09281026 -0.27256995
-0.2171458 -0.6829656 -0.16963352 0.0030683244 -0.48433083 0.070500195 0.3337072 -0.58388686
-0.112477474 0.6580185 -0.1433121 0.5327327 -0.6507335 0.955796 -0.4670271 -0.3385689
-0.49144804 0.08299574 0.3019583 -0.58442616 -0.17366694 -0.040525015 -0.2516293 0.089693695
0.4575861 0.010043897 -0.35819343 -0.039212406 -0.015314004 -0.5588896 -0.42005336 -0.14459799
0.31282496 -0.29405102 -0.86646056 0.10496165 0.072423235 -0.5798969 0.60907954 0.07765753
0.0038361158 -0.09864943 0.32222033 0.042401765 -0.07598376 0.07527672 0.20503783 0.23457001
-0.12971152 0.100803666 -0.33400217 0.35022616 -0.09268479 -0.23401393 0.41167015 0.25242546
0.5285365 -0.072372034 -0.8290344 0.30673108 -0.05619592 -0.0127584245 -0.3008837 0.17006758
-0.15052256 -0.54571694 -0.20006132 -0.8076884 -0.38056996 -0.03400056 -0.30148673 0.72117656
0.039135918 0.0032145723 0.023294887 -0.034225874 0.16494103 0.074608535 0.3801359 -0.18617246
-0.37789837 0.81908554 0.59792125 0.25014204 0.2880927 -0.32026592 -0.12922016 0.18135624
-0.20295553 -0.37924674 0.09767966 -0.16636004 -0.46988085 -0.047710676 -0.34881535 0.71433634
-0.09159792 -0.812494 -0.23283345 -0.43554536 0.80420285 0.07667896 -0.041027218 0.122729994
0.3034989 -0.22739832 -0.24467401 -0.03904283 0.045234196 0.05911706 0.10786289 -0.09663435

MLP.0.bias f4 [64]
00000000: 9529 b13e 530e da3d 4982 053f 714b 043f
00000010: 3b0e 9a3e 944b 663f 73e8 d03d 722a 843e
00000020: 98fe 243e 316a 4b3f a258 203f 3fdd 083f
00000030: 20fd 653f bdbf 113e 47f1 ee3e 10b0 8f3e
00000040: 4743 463f 5544 423f fdcb 223f fbdd 463e
00000050: 8141 a13e 813f 273f 09b1 243f 6bec 0f3f
00000060: d2db 203f d0fc f23e 88b2 1b3f ed6b e53e
00000070: 3af8 c53e da9d ee3e 4a69 793e 58bd 9f3e
00000080: 67eb f93e ee6c 213e 54f4 263f f264 1d3f
00000090: d6e8 3f3f 1315 a53e 0028 953e 641b b93e
000000a0: 2fee 0c3f 6e94 9e3e 4075 a43e 7ad9 603f
000000b0: 45ce 303e c78f 943e d229 2f3e c700 ff3e
000000c0: 82b0 303e 72c5 4a3e 76c7 093f 4c2b 113f
000000d0: f880 0d3e bc3d 0a3f 6006 033e 1bad d63e
000000e0: 34a7 733f dbec bd3e 090c de3e 734b 223f
000000f0: bd2c 093e 0881 203f 4d2f b33d a9a9 7f3c
0.34602037 0.106472634 0.52151924 0.51677614 0.30088982 0.89959073 0.10200586 0.25813633
0.16112745 0.7945891 0.6263524 0.53462595 0.89839363 0.14233299 0.46668455 0.28064013
0.7744641 0.75885516 0.6359251 0.19420616 0.31495288 0.65331274 0.64332634 0.5622012
0.6283542 0.47458506 0.6081929 0.44808903 0.38665944 0.46604806 0.24356571 0.31199145
0.4881241 0.1576421 0.65216565 0.61482155 0.74964654 0.3224264 0.2913208 0.3615371
0.5505094 0.30972618 0.32120705 0.8783184 0.17266186 0.29015943 0.17105797 0.4980528
0.17254832 0.19801882 0.5381998 0.5670669 0.13818729 0.5400045 0.127954 0.41928944
0.95177007 0.3709477 0.43368557 0.63396376 0.13395973 0.62696886 0.08749256 0.015604415

MLP.2.weight f4 [28, 64]
00000000: 3e06 7fbf 94af c53d 834e 6b3f e83b 083e
00000010: 1982 acbe 3f74 d73e d9eb e43c 8575 90be
00000020: 3ca5 cebe fcfa 90bd 5fb3 86bf cfea 0b3e
00000030: aca4 6d3f 3140 5bbf 249d 26bf 3482 b13e
00000040: acb6 65bf dd26 35bf 1386 133f 622f 0abf
00000050: 14f9 383c 60e1 a1bf 1290 8e3e 9072 18bf
00000060: edbe 5a3e 24b4 de3e 4b0c 8fbf 5f4c d53e
00000070: ce4b 413f 6f5c 883f 6940 a3bf 8c18 a1be
00000080: 21f6 1b3e 81a4 fbbf 9086 37bd e7bb 733e
00000090: 56de 293f bda9 ffbe 090b 60bf 0b77 9ebf
000000a0: 6169 3abf 978b 67bf 5185 583c e2d7 253e
000000b0: 817f 003f b492 783f 8acf 733e 2a71 97bf
000000c0: 48ce 96bf a87f afbf 5904 8abe 366a 813d
000000d0: 9da4 6dbf 72ee 69be 2aad c3bc 0745 203f
000000e0: 8d81 9bbf 65c8 473f 5440 ed3e 86e6 793e
000000f0: f62a 99bf dcc3 ccbd 16b7 31bf 96c4 163f
00000100: 5787 86bf 2990 6c3e 2a9d 5ebe d795 bc3e
00000110: a715 8f3e bc31 6e3e f346 90be 94ed 74bf
00000120: 4385 1d3f b21d 333f 4b10 423e 2c19 0b3f
00000130: e1be a93d e8d5 29bf 309a 20be 4db9 80bf
00000140: 6cbd 1c3e 77b9 00be f405 1c3e 47f2 1bbf
00000150: b0c8 e73e d047 79bf 1a2d ad3e 6596 15bf
00000160: 1008 53bf 056d c43c 6840 803c 06fa 1ebe
00000170: 004e 003f cb11 0abf 1a3c fe3e ad9b a7be
00000180: b215 01c0 542c eb3e a41b cf3c 5e00 313e
00000190: d675 da3e 55ab 8bbf 4c81 97be 43ef 083f
000001a0: eef6 c33e 2299 6b3f 9936 94bf a3e8 edbe
000001b0: ce0d 93bf f13d 89bd ef2a 393e 58a0 183f
000001c0: d0be 4ebf f1b9 a1bf b772 c9bf 229b 8dbc
000001d0: 0dd2 26bf 71c7 c4bd d18c 893e f021 643e
000001e0: 365a 10bf 5f50 aa3e 1612 97bf c8e1 87be
000001f0: 2a3f ff3e 25d7 edbf abc3 813f ef3a 10bf
00000200: c0c6 be3e c338 673c d995 fabe 6c44 b6bd
00000210: 544a d7be 9b52 26bd 2757 5bbe bbff f2bf
00000220: ff7a f73e 1368 9bbf ef85 ca3d 37e1 1cbe
00000230: 9759 3bbf 065c 633f cb37 8ebe dc49 eabe
00000240: 13f8 b2be 9e5c 87bf 89d3 363f 1940 5fbe
00000250: fd3b e4bd afd6 4b3e 896e 29bf 8926 debd
00000260: a36e b1be 6d15 23bf 106d 11bf 716a 653f
00000270: 9803 85be a938 17bf 3364 e3bd c0a0 82be
00000280: 786d 843e 0b19 f23e efa8 063e 4218 4c3f
00000290: 58cd d43e 88ca 29be 6caf cf3e 3b02 673f
000002a0: 3579 15bf aa3e c7bd ebad bdbf eaf6 183f
000002b0: 7439 4e3f 4466 92be 0dc0 80be c2d3 303f
000002c0: 50d6 10bf abf4 f4be 6ec7 1cbf ba6c bb3e
000002d0: 5df7 f0be e31f 203e 851c 2ebf 25a8 4dbe
000002e0: 8194 87bf 7ac6 d6be 9d4a 1d3e 4ea6 a33e
000002f0: f160 16bf e97a a2bf 1602 0e3f 04af 65be
00000300: 16b8 8cbd 15fc a3bf 2544 b03e 089a a13d
00000310: cab0 55be d05a 8fbf 0636 04bf f026 be3e
00000320: 5da2 323f a656 f03e 687a 4b3f ae3b 85bf
00000330: de73 9e3e b9b0 5bbf ec95 c9bf 68e5 29bf
00000340: d9b7 083f 3334 e03d cfa3 bd3d 12af b5bf
00000350: 0e27 02bf fe21 293f 65ce 4ebf 198e 82be
00000360: 6fe1 81bf fa9d a03f cb99 85bb 54ab d2be
00000370: 8a1d 80be ec0f aebf b78a 02bf 23f6 8fbd
00000380: ffdc d0bd 9566 d63e 24a9 acbf 2ae9 48bf
00000390: a0eb 71bf c09d f33e 803d 993f 14f1 cfbf
000003a0: c3f6 a5bf 708e 02c0 6478 c9be 0196 313f
000003b0: 466f 2dbe 0b22 c4bf 6d7f 5e3e 8abe 1cc0
000003c0: 726c 673e 61c2 413f 5130 1d3f a760 8abf
000003d0: 5326 383f 48d0 1bc0 bcff 56bf 430a 683f
000003e0: 1ec9 e0be 3837 783e 2343 26bf 6cfe 86be
000003f0: e104 0bbf 167c 083f d302 25bf 1629 a6bf
-0.996189 0.096526295 0.91916674 0.13304102 -0.33693007 0.42080876 0.027944492 -0.2821466
-0.4036044 -0.070791215 -1.052349 0.13663791 0.92829394 -0.85644823 -0.6508353 0.3466965
-0.8973186 -0.70762426 0.57626456 -0.5397855 0.011289854 -1.2646904 0.27844292 -0.5954981
0.21361895 0.4349681 -1.1175627 0.4165983 0.75506294 1.0653208 -1.2754031 -0.3146404
0.1523061 -1.9659578 -0.044806063 0.23802148 0.6635488 -0.49934188 -0.8751684 -1.2380079
-0.72817045 -0.9044737 0.013215379 0.16195634 0.50194556 0.9709885 0.23809639 -1.183141
-1.1781702 -1.3710833 -0.26956442 0.06319086 -0.92829305 -0.22844866 -0.023886282 0.6260533
-1.2148911 0.7804015 0.4633814 0.24404344 -1.1966236 -0.09998295 -0.6941999 0.58893716
-1.0510052 0.23101868 -0.21739641 0.3683307 0.27946207 0.2326116 -0.2817913 -0.95675015
0.61531466 0.69967186 0.18951528 0.54335284 0.082883604 -0.6634202 -0.15683818 -1.0056549
0.15306634 -0.12570749 0.15236646 -0.6091656 0.452703 -0.973752 0.33823472 -0.5843261
-0.8243418 0.023977766 0.015655711 -0.15525064 0.5011902 -0.539334 0.4965523 -0.3273596
-2.0169492 0.45932257 0.025281735 0.17285296 0.42668027 -1.0911661 -0.29590833 0.53490084
0.3827433 0.9203054 -1.1579162 -0.4646655 -1.1488588 -0.067012675 0.18082784 0.59619665
-0.80759907 -1.263487 -1.5738133 -0.017285887 -0.6516426 -0.09608353 0.26865247 0.22278571
-0.5638765 0.33264443 -1.1802394 -0.26539445 0.49852878 -1.8581282 1.0137838 -0.56339926
0.3726101 0.014112654 -0.4894245 -0.08899769 -0.42048895 -0.040606122 -0.21419965 -1.8984293
0.48336026 -1.2141136 0.09888827 -0.15320288 -0.7318358 0.8881229 -0.27776942 -0.45759475
-0.3495489 -1.057514 0.7141653 -0.21801795 -0.11144254 0.19906114 -0.6618429 -0.10847194
-0.34654722 -0.6370457 -0.5680704 0.8961554 -0.25979304 -0.5907083 -0.11103096 -0.25513268
0.25864768 0.4728473 0.1315038 0.79724514 0.41562915 -0.16581166 0.40563524 0.9023778
-0.5838807 -0.09728749 -1.48187 0.5975176 0.80556417 -0.28593647 -0.25146523 0.69073117
-0.56577015 -0.47842917 -0.61241806 0.3660639 -0.47063723 0.15637164 -0.6801227 -0.20083673
-1.0592195 -0.419483 0.15360494 0.31962818 -0.5874167 -1.2693759 0.5547193 -0.22430044
-0.06871049 -1.2811304 0.3442699 0.07890707 -0.20868221 -1.1199589 -0.51644933 0.37139082
0.69778997 0.46941108 0.7948365 -1.0408838 0.30947775 -0.8581653 -1.5748878 -0.6636567
0.5340553 0.10947456 0.0925976 -1.4194052 -0.5084084 0.6606749 -0.80783683 -0.25499037
-1.0146922 1.2548211 -0.0040771714 -0.41146338 -0.25022537 -1.3598609 -0.5099291 -0.07029369
-0.10198402 0.4187514 -1.3489118 -0.7848078 -0.9450016 0.4758129 1.1971893 -1.6245446
-1.2965931 -2.0399437 -0.39349663 0.6936951 -0.16936979 -1.5322889 0.21728297 -2.4491296
0.22599962 0.75687224 0.6140185 -1.0810746 0.7193348 -2.4345875 -0.8398397 0.9064066
-0.4390344 0.24239814 -0.6494619 -0.26365983 -0.5430432 0.5331434 -0.64457434 -1.2981288

MLP.2.bias f4 [28]
00000000: 803b 933e 8ca0 98be aa7a 743d 5bf9 e03d
00000010: cbf2 c4bd 0a8d b9be 5997 9b3d e7ea ee39
00000020: e6d8 57be 161f f4bb 4101 a6be 9511 4a3c
00000030: f997 093e 8721 1f3e 0a56 7dbe c7b2 4c3c
00000040: 4060 71be 8158 e9be ee24 02be 2669 a63d
00000050: 77e0 62bd d033 3abf cfa1 d33e dad8 8cbe
00000060: cc43 1bbd a9f2 72bd af4e 6e3e 7b9c 3d3e
0.28756332 -0.29809988 0.059687294 0.10985061 -0.096166216 -0.36240417 0.07597227 0.00045569913
-0.21078834 -0.007449995 -0.32422832 0.012333293 0.13436879 0.15540133 -0.24739853 0.012493796
-0.23571873 -0.45575336 -0.127094 0.08125524 -0.055389848 -0.7273531 0.41334388 -0.27509195
-0.037906453 -0.05931345 0.23272203 0.18516724

exp_avg f4 [64, 284]
00000000: fc79 e8b9 1d7a 4b3a 261a fdb9 041c 6eb9
00000010: 788d 21b8 e4f5 73b9 4691 a0b8 ea3f 2f38
00000020: 1a6e f5b8 b5ae ea39 4817 1db9 a826 ae38
00000030: daa1 a3b9 59ed ff38 a1b1 2a39 768a ca36
00000040: 9cf5 d7b8 db20 4038 7cac d3b8 7887 4a38
00000050: 5f04 4fb8 e642 82b7 a8e5 8537 f823 26b9
00000060: 3ef5 1239 315b 22b9 84b1 ac38 7d44 b3b7
00000070: 66ca 9bb8 9deb 0bb9 c92a 0db8 722e 17b9
00000080: 79bc 2839 45d6 10b9 8983 2139 63ce 3639
00000090: 2312 3f39 b405 0ab9 7932 34b8 9871 e2b7
000000a0: 1d81 20b8 5e5a 66b8 b33b 3238 a90d ad38
000000b0: 3e87 8ab6 bc89 7838 2e55 1738 94c2 f138
000000c0: 4540 08b8 4ef1 61b7 902e 9b34 d14a e8b8
000000d0: a25a ccb8 f073 ba37 bfcf 7238 f269 a038
000000e0: ed96 46b7 8a05 af37 6b73 f0b7 f6dd 6738
000000f0: c21d cdb6 a80c 88b8 7e49 4439 b029 e8b7
00000100: 1237 8037 371a 6db8 0be5 d837 aaf0 d3b8
00000110: e646 a037 e36c f7b8 5e1c c2b8 fdea 59b8
00000120: a384 5a38 37eb 1339 a3bb e538 ad71 9eb5
00000130: 6b47 bcb8 0ba1 18b9 5e2d bd38 f589 b437
00000140: 2854 2eb9 a8fa bdb4 18d1 6138 4699 29b8
00000150: 6d1b 9bb8 77d1 1838 d1f8 ca38 20ea 2d38
00000160: 380b 5938 f961 a038 4c14 52b8 4f8f 9a37
00000170: a5ee a4b8 2cc0 1738 8fa9 5138 a5dd d9b6
00000180: c4cd 0ab7 d628 0039 b876 f338 9c6b 78b8
00000190: 1830 55b8 d132 cdb6 b06b e637 0252 44b7
000001a0: 213e a538 c4e1 b837 e950 f137 18f1 4138
000001b0: 6345 31b8 47ef c438 4aac 4d38 dd55 5c38
000001c0: f625 1b38 b382 bfb4 5c44 f7b8 9689 03b8
000001d0: a337 25b8 e61d 2eb7 5bbf 5e33 b3c6 89b8
000001e0: ef77 ba35 ca4f 2c38 0035 0939 edcf ff35
000001f0: 71ca 9e37 ea20 f6b7 2774 7736 2852 ccb7
00000200: 41be 1e37 ee52 72b8 10e3 58b8 3057 ae38
00000210: 9c0e 54b8 c995 14b8 793f 6337 d8ec 5438
00000220: 643c d3b7 5d30 6eb8 9f6a 2038 72e0 8437
00000230: bf38 a9b7 44ff 42b8 5533 0a38 6d83 0138
00000240: 90b9 fc38 3752 8f37 25d5 dab7 7c2e 2937
00000250: ec8f 9c38 4cde f237 4302 4b37 349b b237
00000260: 817c 6438 d5d9 6bb8 22e0 2e38 97d8 6bb8
00000270: 64b8 b638 311c abb8 e1d3 8c35 799d 18b8
00000280: bf58 97b7 37de ac38 a2a7 2fb8 a0cb 6138
00000290: eba8 57b8 f7ff a936 3ef9 06b7 9184 14b6
000002a0: 5dab c6b7 b17d 53b7 75b9 8d38 7a4a 9eb8
000002b0: 4130 2b38 8ad9 4c38 5390 4238 4b2a 9b37
000002c0: 2626 97b4 0255 80b7 4dbb 1bb8 d98c 8e37
000002d0: 6bf2 a037 45e9 36b8 a9c0 7eb6 d18d 66b7
000002e0: 8b3f 7eb7 7a0b 49b7 2ffb 1838 d6d0 9e37
000002f0: ba37 0138 da8a be37 92ac 2bb8 1161 6636
00000300: 8cbf 04b8 ef1c 9fb7 362e 80b7 a104 34b8
00000310: f956 c738 bd9a b7b8 4a73 a2b7 686c 31b7
00000320: d812 f7b7 530a 99b8 368f a9b7 bcbb 2db8
00000330: 5bf1 b1b7 39b2 d1b7 30e3 c937 d1f7 15b4
00000340: 1298 efb7 09b1 67b8 db84 d536 15d9 6fb8
00000350: 15ae deb8 97b0 92b7 c305 53b8 78f4 4eb8
00000360: 0b47 8d36 2665 3e38 0132 dcb7 6668 6ab6
00000370: 78b3 c3b7 c13d 6138 b786 6638 95a0 0a38
00000380: 8d62 9338 c482 2338 d2ea ff37 2f00 7cb7
00000390: b375 aeb6 d0a5 60b8 ad9e 5b38 bf17 1238
000003a0: cf8c 5d37 97dc 23b7 4fef 31b8 a58c 1937
000003b0: f5b0 4738 9b1e 1eb7 56cf 3c36 60d1 6fb8
000003c0: b8ca 65b6 d20a 22b7 eb20 23b8 d8e6 f237
000003d0: 2cb4 a0b6 68cd d337 ed74 59b8 faff d0b7
000003e0: 77f4 46b7 4c67 fd37 e496 7d37 eaf8 3a38
000003f0: 1e2f 8838 ed6a 9c37 315d 80b7 b280 3fb7
-0.00044341374 0.0007762032 -0.00048275403 -0.00022707885 -3.8517144e-05 -0.00023265887 -7.656454e-05 4.1782776e-05
-0.000117030184 0.00044762125 -0.0001498136 8.304167e-05 -0.00031210372 0.00012203557 0.00016278635 6.036188e-06
-0.00010297747 4.5806966e-05 -0.00010093392 4.8286718e-05 -4.9356717e-05 -1.552836e-05 1.5961778e-05 -0.00015844393
0.00014015005 -0.00015483495 8.234664e-05 -2.1370355e-05 -7.4286756e-05 -0.00013343846 -3.3656866e-05 -0.00014417784
0.0001609194 -0.00013812732 0.00015403157 0.00017433758 0.00018221936 -0.0001316283 -4.296235e-05 -2.6994196e-05
-3.826722e-05 -5.4920434e-05 4.2494106e-05 8.251827e-05 -4.1284648e-06 5.9256083e-05 3.6080535e-05 0.000115280185
-3.2484782e-05 -1.3467228e-05 2.8904878e-07 -0.00011076558 -9.74436e-05 2.2226915e-05 5.7890775e-05 7.6491284e-05
-1.183686e-05 2.0864205e-05 -2.8663975e-05 5.528141e-05 -6.1129404e-06 -6.487343e-05 0.00018719395 -2.7675967e-05
1.5284433e-05 -5.6529618e-05 2.5855863e-05 -0.00010106091 1.9106501e-05 -0.000117981595 -9.255925e-05 -5.195568e-05
5.2098778e-05 0.00014106637 0.00010954521 -1.1805001e-06 -8.977841e-05 -0.00014555843 9.0206726e-05 2.1521913e-05
-0.00016625284 -3.538637e-07 5.3838914e-05 -4.0435487e-05 -7.3960844e-05 3.6434703e-05 9.678456e-05 4.146446e-05
5.174728e-05 7.647643e-05 -5.0086805e-05 1.8424964e-05 -7.8645804e-05 3.618018e-05 4.9987397e-05 -6.492907e-06
-8.2733495e-06 0.00012222244 0.00011609256 -5.9228027e-05 -5.0827948e-05 -6.115392e-06 2.7468282e-05 -1.1701604e-05
7.8793855e-05 2.203964e-05 2.8767116e-05 4.623932e-05 -4.226471e-05 9.390577e-05 4.9036265e-05 5.2532054e-05
3.6990234e-05 -3.5671619e-07 -0.00011790611 -3.136097e-05 -3.939088e-05 -1.03781695e-05 5.186244e-08 -6.56968e-05
1.3892985e-06 4.1082305e-05 0.00013085082 1.9059495e-06 1.8929337e-05 -2.9340812e-05 3.6873478e-06 -2.4356952e-05
9.461831e-06 -5.777453e-05 -5.170988e-05 8.3132065e-05 -5.0558345e-05 -3.5425448e-05 1.3545033e-05 5.0765317e-05
-2.5181282e-05 -5.6788664e-05 3.824627e-05 1.5840142e-05 -2.0172794e-05 -4.649094e-05 3.294957e-05 3.0878397e-05
0.0001205086 1.7085213e-05 -2.6086878e-05 1.0084008e-05 7.465467e-05 2.8952163e-05 1.21002695e-05 2.1291526e-05
5.447539e-05 -5.6231238e-05 4.1693573e-05 -5.623008e-05 8.712782e-05 -8.1591665e-05 1.0492478e-06 -3.6386282e-05
-1.8041928e-05 8.24299e-05 -4.187937e-05 5.383382e-05 -5.141731e-05 5.0663907e-06 -8.045054e-06 -2.2130882e-06
-2.3683237e-05 -1.2605845e-05 6.757948e-05 -7.5478994e-05 4.0814517e-05 4.883999e-05 4.6387617e-05 1.8497134e-05
-2.8153698e-07 -1.5298374e-05 -3.7129317e-05 1.6993306e-05 1.9186371e-05 -4.360943e-05 -3.7961092e-06 -1.37420875e-05
-1.51543745e-05 -1.1983206e-05 3.6473557e-05 1.8932315e-05 3.0807896e-05 2.2714423e-05 -4.0930296e-05 3.432917e-06
-3.1649644e-05 -1.896775e-05 -1.5280308e-05 -4.2919655e-05 9.5052594e-05 -8.754942e-05 -1.936559e-05 -1.0575262e-05
-2.945347e-05 -7.2975316e-05 -2.0213058e-05 -4.1421255e-05 -2.1212434e-05 -2.4997733e-05 2.406686e-05 -1.3966861e-07
-2.8561833e-05 -5.523957e-05 6.363361e-06 -5.7184214e-05 -0.0001061821 -1.7486787e-05 -5.0311686e-05 -4.9341907e-05
4.210398e-06 4.5393732e-05 -2.6249329e-05 -3.4929485e-06 -2.3329383e-05 5.3701693e-05 5.4961736e-05 3.3051318e-05
7.027863e-05 3.8984013e-05 3.0507716e-05 -1.5020413e-05 -5.199306e-06 -5.3560187e-05 5.2361447e-05 3.4831228e-05
1.3205411e-05 -9.766917e-06 -4.2422962e-05 9.152257e-06 4.76101e-05 -9.42466e-06 2.8134868e-06 -5.7177036e-05
-3.4241657e-06 -9.658472e-06 -3.8892886e-05 2.8956143e-05 -4.7893463e-06 2.524881e-05 -5.1845727e-05 -2.491473e-05
-1.1858639e-05 3.0208052e-05 1.5115107e-05 4.4577675e-05 6.4937616e-05 1.864644e-05 -1.5302185e-05 -1.1414451e-05

exp_avg_sq f4 [64, 284]
00000000: b154 3d37 a804 8537 abb4 d736 c5ab ce36
00000010: 5ed1 9936 efb3 8b36 d5f0 4a36 e46f 5536
00000020: 25b5 3636 f211 4036 2838 0e36 5fd7 0836
00000030: 012c 0136 5e2b b335 d703 c435 1f8c a035
00000040: b481 c435 8310 ac35 db88 8b35 8d13 6835
00000050: e97e 7e35 8807 8d35 11e4 3d35 c20a 3335
00000060: 81b7 9235 b0fb 3c35 12ad 0135 e5e5 1035
00000070: 2e48 4a35 9589 0835 60bf 3335 cb58 1535
00000080: 7c12 0235 d685 0c35 c186 1a35 3fdc fe34
00000090: bc04 fc34 977a c134 d1cd c434 19e4 f434
000000a0: b311 0435 8beb 0635 900d c434 4bab b834
000000b0: f91f a634 3b35 0735 58ba c734 5b69 a234
000000c0: e41a a634 f766 ac34 8f91 ad34 a409 9334
000000d0: b790 7934 3be4 9934 62a4 a534 9b85 6f34
000000e0: 9185 8e34 23e2 8034 e4a5 8e34 7f46 8234
000000f0: 8c46 8034 578b 9f34 09d4 5c34 0218 8934
00000100: 1d9b 6a34 c671 5134 0e7c 6e34 184e 5834
00000110: 23d7 5f34 eec4 7334 d028 4234 11b3 5834
00000120: 7e81 8034 85f9 4834 e534 2a34 e195 5034
00000130: 2f31 4e34 a8b6 6234 3d54 5634 2dcc 1e34
00000140: dada 7234 4e28 4034 b90c 2934 35cb 2234
00000150: efc9 6634 4dc7 4a34 f578 1d34 da37 3f34
00000160: 91cb 2534 6e08 3434 bc93 0734 29de 2234
00000170: 07af 3e34 4db9 1234 dd66 3e34 ca6a 1b34
00000180: b477 2334 4ae1 2034 ed45 2034 aebf f933
00000190: a115 1834 30b5 1734 f15f 1a34 883d 1f34
000001a0: b3f3 0034 a0b9 0834 7c39 1834 4d84 0834
000001b0: 3362 f933 b88c 0634 a8a4 1b34 1fd7 0834
000001c0: 9089 b433 076f 0934 9046 ee33 c222 f533
000001d0: be2a 0c34 c878 d233 1224 1734 e62f e833
000001e0: 2425 0434 b9ba e233 b44e 1a34 cb0a 0234
000001f0: dcb6 de33 25af dc33 8d95 b533 69b7 e133
00000200: e6b8 dd33 0855 ea33 512c dd33 1baa ca33
00000210: 826c f833 3b14 c833 b3be b333 bf15 b533
00000220: 6f28 af33 c5df dd33 2347 c733 e884 b233
00000230: a7e8 a033 81eb d533 bdf7 d633 bff3 9c33
00000240: 7e58 d833 070f d633 1328 b333 a62b 9833
00000250: aaed a733 f3d5 d233 a4cf a533 38c9 df33
00000260: 6c30 9633 1eb4 a133 39f6 b433 9ab2 8133
00000270: 3982 b433 3307 be33 68b0 7f33 5bb7 b533
00000280: 06cf aa33 41cc a433 8cf6 9733 c80e 8c33
00000290: 5ea4 d133 bf75 ae33 103c 8d33 ef53 a733
000002a0: 9541 8b33 47fc 9033 cbab c133 a47d 8a33
000002b0: e52e 8433 f657 8033 d09a 9333 b042 8f33
000002c0: 1a93 7933 aaee 8733 54d2 9233 4c4c 9333
000002d0: 1191 9d33 996a 5f33 3689 a833 54cf 9b33
000002e0: 5504 a933 5b7f 9733 e40e 8133 f553 9333
000002f0: 820e 8d33 a675 8933 ce9b 6b33 2189 5d33
00000300: a6b0 8833 4532 9633 c79a aa33 4dba 8433
00000310: dcf4 9f33 a103 8133 a4bf 8633 dddf 8433
00000320: 1d7e 8333 b018 6233 cc07 b033 111b 6f33
00000330: ad02 9333 b855 5633 1e5d 7f33 4af3 5233
00000340: 3545 7733 3923 8533 9d0b 8733 e0fc 8833
00000350: b5f6 8a33 09df 8333 1352 3c33 ff10 a233
00000360: 0c9b 9c33 7ddf 4433 2445 5233 2ebb 9333
00000370: e815 6933 f72e 6033 e0e5 5f33 936a 4a33
00000380: fc67 9433 9a59 6333 fbde 7c33 ee75 2833
00000390: 5708 5433 421c 2e33 bd6d 3f33 7016 5233
000003a0: c275 4533 52fb 6d33 9d1e 3933 7780 7b33
000003b0: 898b 7f33 1d8b 4c33 3e5f 1433 dddd 3d33
000003c0: 1d28 4133 61fe 7333 79b5 4533 be39 1933
000003d0: f670 4b33 3d93 3d33 2495 2933 1eb5 3633
000003e0: 7c06 5833 9e5a 4c33 3fbd 6033 a6e6 4d33
000003f0: 3b67 3633 73d7 2933 8e71 3233 ce31 2333
1.1284997e-05 1.5857004e-05 6.428532e-06 6.159275e-06 4.584129e-06 4.16347e-06 3.0240528e-06 3.1804602e-06
2.7225553e-06 2.8620675e-06 2.1192336e-06 2.0390942e-06 1.9248112e-06 1.3349161e-06 1.4604256e-06 1.196171e-06
1.4640887e-06 1.2819804e-06 1.0396137e-06 8.6455185e-07 9.480705e-07 1.050751e-06 7.0739867e-07 6.669835e-07
1.0931254e-06 7.040171e-07 4.8308095e-07 5.397872e-07 7.53559e-07 5.0864156e-07 6.6961184e-07 5.5636036e-07
4.845567e-07 5.234882e-07 5.7565563e-07 4.7471437e-07 4.6942102e-07 3.6038247e-07 3.6657596e-07 4.5614505e-07
4.919959e-07 5.026165e-07 3.6517713e-07 3.4397303e-07 3.0943173e-07 5.036888e-07 3.720222e-07 3.0251508e-07
3.0939475e-07 3.2112413e-07 3.232967e-07 2.7387898e-07 2.3242579e-07 2.866453e-07 3.085325e-07 2.2307215e-07
2.6546743e-07 2.4006394e-07 2.6570262e-07 2.426568e-07 2.3893188e-07 2.971744e-07 2.0566235e-07 2.5535707e-07
2.1849378e-07 1.9506032e-07 2.2210608e-07 2.0144978e-07 2.084676e-07 2.2702781e-07 1.8082505e-07 2.0181712e-07
2.3936076e-07 1.8717226e-07 1.5851727e-07 1.9426035e-07 1.9203138e-07 2.111434e-07 1.9960949e-07 1.4789175e-07
2.2617624e-07 1.7896056e-07 1.574398e-07 1.5161352e-07 2.1493882e-07 1.8885221e-07 1.4665768e-07 1.780858e-07
1.544088e-07 1.6766873e-07 1.26266e-07 1.5168247e-07 1.7758803e-07 1.3664722e-07 1.773255e-07 1.447435e-07
1.5224106e-07 1.4983121e-07 1.49266e-07 1.16298324e-07 1.4163972e-07 1.4128887e-07 1.4377271e-07 1.4830414e-07
1.2009586e-07 1.2733517e-07 1.4177016e-07 1.2714118e-07 1.16128284e-07 1.2530916e-07 1.4495402e-07 1.2744248e-07
8.4069256e-08 1.2799511e-07 1.1095574e-07 1.1415024e-07 1.3054066e-07 9.800857e-08 1.4076093e-07 1.08120545e-07
1.230697e-07 1.055791e-07 1.4371e-07 1.211112e-07 1.03709425e-07 1.0276407e-07 8.4556724e-08 1.0510741e-07
1.0324747e-07 1.0911941e-07 1.02991756e-07 9.4373e-08 1.15681374e-07 9.316906e-08 8.370025e-08 8.432425e-08
8.1564274e-08 1.0331818e-07 9.279599e-08 8.3129464e-08 7.4929e-08 9.961423e-08 1.0010215e-07 7.308653e-08
1.00743804e-07 9.967885e-08 8.3426265e-08 7.085991e-08 7.819774e-08 9.817804e-08 7.721181e-08 1.0420848e-07
6.993727e-08 7.52991e-08 8.426691e-08 6.039518e-08 8.4055905e-08 8.848874e-08 5.9532255e-08 8.4618215e-08
7.953899e-08 7.673999e-08 7.076332e-08 6.521947e-08 9.762219e-08 8.123924e-08 6.5767495e-08 7.791811e-08
6.484621e-08 6.7514115e-08 9.018512e-08 6.44898e-08 6.155259e-08 5.9764645e-08 6.873381e-08 6.671087e-08
5.810862e-08 6.32984e-08 6.836913e-08 6.859099e-08 7.3372696e-08 5.2018184e-08 7.848068e-08 7.255463e-08
7.870464e-08 7.054651e-08 6.009739e-08 6.8604926e-08 6.568463e-08 6.40096e-08 5.4856905e-08 5.158029e-08
6.365126e-08 6.994063e-08 7.944396e-08 6.180617e-08 7.448554e-08 6.007691e-08 6.2747205e-08 6.1874495e-08
6.123103e-08 5.264218e-08 8.197057e-08 5.567114e-08 6.845708e-08 4.990372e-08 5.9456504e-08 4.9115705e-08
5.7572112e-08 6.199702e-08 6.28854e-08 6.378991e-08 6.4710015e-08 6.140733e-08 4.3846807e-08 7.5468044e-08
7.292519e-08 4.5838068e-08 4.8957318e-08 6.879269e-08 5.4269464e-08 5.219678e-08 5.2130304e-08 4.712872e-08
6.910702e-08 5.293405e-08 5.887612e-08 3.9222805e-08 4.936768e-08 4.0538232e-08 4.457046e-08 4.8914842e-08
4.5974737e-08 5.5409437e-08 4.310151e-08 5.855733e-08 5.949872e-08 4.7623974e-08 3.4545558e-08 4.4206775e-08
4.4972797e-08 5.6809203e-08 4.6032685e-08 3.5675605e-08 4.7367358e-08 4.4138904e-08 3.948402e-08 4.2539902e-08
5.0297317e-08 4.7579867e-08 5.2326182e-08 4.7940055e-08 4.2469065e-08 3.954433e-08 4.1547132e-08 3.7996692e-08

exp_avg f4 [64]
00000000: 36c5 1339 d30b c0b7 020b 6739 ad47 0639
00000010: 11d5 e9b7 36df 9238 b656 7f38 cf33 edb7
00000020: 292b d9b8 51b1 c238 7abd 58b9 7239 1138
00000030: ec60 efb7 997f 81b7 03ca 9eb8 d382 c1b6
00000040: 9436 8039 81fa 1a39 bf75 aa38 d39f c2b7
00000050: 7667 9cb8 13d8 3538 4813 57b8 c55b f438
00000060: d713 a138 da94 6837 2d2a f8b7 2c66 60b9
00000070: e7bd 2f38 dc36 6237 a1eb 0db8 8140 f138
00000080: 2d50 afb8 b8e5 73b8 b0a3 1138 71a9 0938
00000090: c04b 5338 15aa 3939 7c04 51b9 e61a dbb6
000000a0: 4639 05b8 f766 23b7 f2f0 1a38 9ba6 87b8
000000b0: 8ae6 dfb8 a4ce 76b7 e0e9 c0b8 7514 1fb9
000000c0: caa9 c038 d9ad 3cb9 1838 e6b8 cf9d d2b7
000000d0: 3a6b 03b8 f3a9 efb8 990a e7b8 5d66 76b6
000000e0: a53b c3b8 cfbb d937 7a36 5537 b086 8ab8
000000f0: fdab 8834 4d88 dc37 b440 cbb8 fec5 3938
0.00014092479 -2.289369e-05 0.00022033977 0.00012805937 -2.7874981e-05 7.003399e-05 6.0877494e-05 -2.8276727e-05
-0.000103554055 9.2836686e-05 -0.00020669951 3.4624194e-05 -2.8536153e-05 -1.5437416e-05 -7.571655e-05 -5.767078e-06
0.00024454726 0.00014779904 8.1281636e-05 -2.3201026e-05 -7.457931e-05 4.3354998e-05 -5.127795e-05 0.0001165192
7.680774e-05 1.3862935e-05 -2.9583543e-05 -0.00021400367 4.190011e-05 1.3483423e-05 -3.3836466e-05 0.0001150379
-8.359584e-05 -5.8149657e-05 3.472314e-05 3.282115e-05 5.0376868e-05 0.00017706335 -0.00019933464 -6.52984e-06
-3.176301e-05 -9.7395305e-06 3.694086e-05 -6.468334e-05 -0.0001067641 -1.4710855e-05 -9.198836e-05 -0.00015171042
9.186899e-05 -0.0001799384 -0.00010977703 -2.5107436e-05 -3.1332696e-05 -0.000114280636 -0.00011016912 -3.671644e-06
-9.309434e-05 2.5955871e-05 1.2708473e-05 -6.60544e-05 2.5457112e-07 2.6289514e-05 -9.691846e-05 4.429183e-05

exp_avg_sq f4 [64]
00000000: b6a7 cc34 4302 b234 fb8a 9c34 e205 3e35
00000010: 63b0 9234 6289 ba34 fc53 a334 0bb3 c934
00000020: 1d5a f134 773c 9134 78eb d834 1b4a 8d34
00000030: 92c0 ce34 ecee 5434 630e 7534 2d0b f434
00000040: b0e2 b734 ffb0 f334 112e d934 6467 ab34
00000050: 6c29 ab34 26cd ad34 848b ab34 e2c0 fb34
00000060: 7f7a a234 de10 c134 63ad 4334 ae63 f134
00000070: 95f8 3934 c7cf 9a34 1cc1 b934 6b7d fe34
00000080: 2ba1 a034 46b7 dc34 7bce 8f34 93c3 8e34
00000090: a82a b834 e8bc ad34 db52 b434 d8cd 3234
000000a0: 2dee 5a34 cfb2 3e34 9086 9b34 d49c cc34
000000b0: c55d e734 e0f4 4e34 ecab dc34 bb3f e134
000000c0: c4db 8c34 8d75 f634 f2d8 b134 f92e bf34
000000d0: 95d3 9734 0386 ab34 742c f734 cd5e be34
000000e0: 6f59 7734 6a59 6b34 9c23 d534 cd23 ac34
000000f0: 1b63 c334 cdc8 0535 b959 9434 9538 c834
3.8119987e-07 3.315673e-07 2.9158386e-07 7.0789076e-07 2.7322957e-07 3.474516e-07 3.0422223e-07 3.7569438e-07
4.4955314e-07 2.705235e-07 4.040446e-07 2.6317215e-07 3.8510603e-07 1.9830958e-07 2.2822637e-07 4.5456673e-07
3.4251343e-07 4.539106e-07 4.0452917e-07 3.192646e-07 3.188137e-07 3.2373026e-07 3.1952743e-07 4.6892734e-07
3.026398e-07 3.5961324e-07 1.8223868e-07 4.4962275e-07 1.7319901e-07 2.8835913e-07 3.459944e-07 4.740244e-07
2.9919588e-07 4.1111542e-07 2.678606e-07 2.659186e-07 3.4303707e-07 3.2361208e-07 3.3587898e-07 1.6652427e-07
2.038948e-07 1.7760179e-07 2.8968907e-07 3.8112069e-07 4.309533e-07 1.927433e-07 4.1103283e-07 4.1955886e-07
2.6236933e-07 4.59066e-07 3.3126668e-07 3.56107e-07 2.8279888e-07 3.1948738e-07 4.603968e-07 3.5459234e-07
2.3036203e-07 2.1918609e-07 3.970025e-07 3.2063545e-07 3.639369e-07 4.9838565e-07 2.763243e-07 3.7294072e-07

exp_avg f4 [28, 64]
00000000: fb9c 7836 4267 7bb6 51d9 dd39 fc89 f239
00000010: ff39 bcb5 fdd7 9938 2dd4 9539 979c 4337
00000020: cfba 0437 5b03 f839 769b c037 5b7b 9b39
00000030: 2b76 9d39 1004 3a39 aa7f 4938 80a5 5a39
00000040: 4389 f236 fc6f 8439 3089 cc39 d3eb 5b39
00000050: 6258 6636 41b5 1138 47f1 f439 e4bf 3236
00000060: f39d 2437 e6b2 5638 7189 5137 8f4d 3b37
00000070: b82d d836 ad6d d335 3e7f 1837 1be5 8939
00000080: 55d8 8f38 0812 8f39 5d1c 4a37 a474 2a36
00000090: ec42 0c3a 8bec 0437 af0e 8a39 7249 6539
000000a0: 8d5d 1d38 151b 0736 f4ec b039 1716 86b6
000000b0: fbd8 5b34 1c70 d039 68d9 3236 cb6b 05b7
000000c0: 6c18 d936 57a9 ca39 145b a536 a0c3 6137
000000d0: a819 c538 a4a8 c836 7f07 2336 29f1 a838
000000e0: a6f8 7239 b27d 6a39 cd4a 4d37 7282 ee38
000000f0: ad20 70b5 b455 98b6 3343 ff38 ca24 0438
00000100: 0610 8ab8 6275 82b8 26ed 9cb8 0f30 59b9
00000110: a8f3 f5b7 4b03 44b8 9d42 29b7 3f15 b137
00000120: 7e92 5738 5777 8bb8 f875 c2b7 7d87 e5b8
00000130: 0cce 8eb8 64a9 83b8 4e00 4b38 c006 d937
00000140: 707b 3a35 baf9 2eb7 af37 4338 5b0d 39b9
00000150: fcd7 feb8 df20 b338 7b40 9f38 5707 cf36
00000160: d282 dcb8 c113 25b8 aa29 91b7 1c61 a2b5
00000170: 8360 0b38 e7ff 17b8 32f2 23b8 2908 b0b8
00000180: adf1 c738 550a 99b8 9a29 d4b8 f883 e236
00000190: 0a5a b8b6 e2a2 39b7 f57f 59b5 3673 85b8
000001a0: 57c1 08b9 945f a4b7 3a18 95b7 e628 d435
000001b0: 4c11 e2b4 991c 4838 13a1 8bb8 b0b5 27b9
000001c0: 93e0 1fb8 6d4d 02b7 5d28 7838 05d2 07b9
000001d0: bb68 1a38 b4ec e537 cb7c a3b6 ad89 ebb7
000001e0: c8c8 8ab7 e79d 67b8 b519 ef36 8c4a 3937
000001f0: f065 2f38 f6f2 eeb6 5e36 d2b8 5081 1a38
00000200: 8a86 58b8 5d16 83b8 487d 7fb8 f9b6 2338
00000210: 15eb 1637 1fa1 7eb8 f929 8db6 4ee1 2636
00000220: 7136 ccb7 97b0 53b8 2336 aeb8 d0fa f3b6
00000230: 16ad 9bb8 fc3b 0fb9 2597 9b36 3e3f 3bb8
00000240: 2500 b8b8 2396 82b8 0ea5 c4b8 e554 8cb8
00000250: 5a7e 46b7 4cf1 e6b8 131f 62b7 584f 17b8
00000260: cf0b 12b8 6bdd 17b7 23c6 26b8 b26f 44b6
00000270: f5be c9b6 bada b1b7 0fa1 c7b7 a648 c6b8
00000280: 7162 6ab8 5ad9 03b7 e119 0737 5a07 f1b8
00000290: 5ceb 51b8 03d5 a1b7 199b 13b8 59d1 91b6
000002a0: 079e 93b8 5834 9eb7 ed30 9637 93ee ccb8
000002b0: 2309 bfb8 0bb5 46b8 b5f8 39b6 15fe a1b8
000002c0: 24a7 80b8 36f3 78b7 0c6a 9fb7 309c eeb8
000002d0: 1b42 6ab6 8b7d bbb8 e723 5eb8 c260 7fb8
000002e0: 0c8e d3b7 ee39 90b7 2635 adb8 45a7 b3b8
000002f0: 5f1d 76b7 96ca 51b7 b56c 77b8 ea5b 30b8
00000300: e671 1b37 85ac 87b5 7d6b 8d37 73b3 6139
00000310: 2769 4cb7 f4e2 1537 2b57 9338 efa4 47b7
00000320: 3a19 c438 ff73 9239 67d5 0f39 6d13 2039
00000330: f952 8836 a6ef 9b35 0681 b337 3a02 a537
00000340: 0159 8539 c284 f234 50f6 d238 363b 9c36
00000350: 6674 9f38 4f61 2638 dc53 8036 d61f 4e38
00000360: e2c7 b2b5 e9c2 f238 151d b835 f08b 03b7
00000370: 8ea9 bf36 9640 9e38 ab4a b737 eb59 4db6
00000380: 0601 73b6 d1d2 a138 8b4a fb38 7ad2 0fb4
00000390: 7fb3 8a35 744c 2338 e115 8739 0484 d236
000003a0: 0519 a238 2570 3bb7 267b 8238 b65e 4339
000003b0: b749 1c36 37fe bd38 8d72 d636 dd32 f738
000003c0: 9589 8cb6 2f91 5339 a6f9 5337 0e16 ae37
000003d0: 0f77 b738 c179 5f38 8e60 23b6 62aa 3d38
000003e0: c8d7 0939 2261 ae38 302a 0337 1013 8939
000003f0: 896e dab7 a9f5 8837 e05c 22b5 d832 8d36
3.7046254e-06 -3.7462019e-06 0.00042314318 0.00046260643 -1.4023971e-06 7.3358395e-05 0.00028577578 1.1659365e-05
7.911308e-06 0.00047304746 2.2960576e-05 0.0002965581 0.00030033416 0.00017739856 4.804103e-05 0.00020851754
7.2281414e-06 0.00025260437 0.00039012125 0.00020973319 3.4324116e-06 3.47395e-05 0.00046719072 2.6635762e-06
9.811937e-06 5.1188188e-05 1.2489371e-05 1.1164127e-05 6.442624e-06 1.5752645e-06 9.089532e-06 0.00026301373
6.859066e-05 0.0002728852 1.2046742e-05 2.5399868e-06 0.00053505483 7.922888e-06 0.0002633235 0.00021866502
3.7518843e-05 2.0132331e-06 0.0003374588 -3.996083e-06 2.0474901e-07 0.0003975638 2.6650614e-06 -7.952515e-06
6.469947e-06 0.0003865461 4.927986e-06 1.3456593e-05 9.398471e-05 5.980097e-06 2.4293256e-06 8.055784e-05
0.00023171547 0.00022362804 1.2236368e-05 0.00011373022 -8.9454517e-07 -4.53993e-06 0.000121718644 3.1505515e-05
-6.5833374e-05 -6.220747e-05 -7.482832e-05 -0.00020712636 -2.9319737e-05 -4.673311e-05 -1.0088695e-05 2.1109938e-05
5.1396426e-05 -6.650265e-05 -2.3181536e-05 -0.000109448076 -6.809467e-05 -6.278118e-05 4.8399255e-05 2.5871559e-05
6.9470025e-07 -1.0429352e-05 4.6543482e-05 -0.0001764795 -0.00012151894 8.541508e-05 7.593721e-05 6.169935e-06
-0.00010514785 -3.9357463e-05 -1.7304748e-05 -1.2098203e-06 3.3230066e-05 -3.6239533e-05 -3.908779e-05 -8.393854e-05
9.534075e-05 -7.297533e-05 -0.00010116697 6.750688e-06 -5.4941092e-06 -1.1064783e-05 -8.1025e-07 -6.363394e-05
-0.00013041995 -1.959483e-05 -1.7773466e-05 1.5807134e-06 -4.2108366e-07 4.771035e-05 -6.658039e-05 -0.00015994045
-3.8117705e-05 -7.766631e-06 5.91654e-05 -0.00012952842 3.6814e-05 2.740915e-05 -4.8723064e-06 -2.8078293e-05
-1.6544378e-05 -5.522175e-05 7.1257477e-06 1.1044216e-05 4.1818188e-05 -7.121237e-06 -0.00010023707 3.6836893e-05
-5.1623712e-05 -6.250732e-05 -6.0913415e-05 3.9032635e-05 8.995431e-06 -6.0708375e-05 -4.2070137e-06 2.4867072e-06
-2.4344046e-05 -5.0470782e-05 -8.30705e-05 -7.2711628e-06 -7.423216e-05 -0.00013659889 4.6369555e-06 -4.4643173e-05
-8.7738306e-05 -6.226848e-05 -9.376752e-05 -6.691533e-05 -1.1831138e-05 -0.000110122 -1.3477885e-05 -3.60751e-05
-3.482011e-05 -9.051854e-06 -3.9762013e-05 -2.9271291e-06 -6.012497e-06 -2.1201897e-05 -2.3797647e-05 -9.4549076e-05
-5.588163e-05 -7.858815e-06 8.052652e-06 -0.00011493145 -5.004868e-05 -1.9291887e-05 -3.5191977e-05 -4.345708e-06
-7.038941e-05 -1.8859442e-05 1.7904176e-05 -9.771916e-05 -9.1092916e-05 -4.7375488e-05 -2.7711915e-06 -7.724405e-05
-6.134648e-05 -1.4838579e-05 -1.9003659e-05 -0.000113778166 -3.4907196e-06 -8.940239e-05 -5.296236e-05 -6.088685e-05
-2.5219306e-05 -1.7193113e-05 -8.2591825e-05 -8.5665415e-05 -1.4669581e-05 -1.2504539e-05 -5.899063e-05 -4.204727e-05
9.265239e-06 -1.0108494e-06 1.6858563e-05 0.00021524522 -1.218383e-05 8.933934e-06 7.0257425e-05 -1.1899726e-05
9.350707e-05 0.00027933714 0.00013717041 0.00015266026 4.062775e-06 1.1618147e-06 2.1398544e-05 1.967057e-05
0.0002543405 4.5172607e-07 0.000100594596 4.6560554e-06 7.603392e-05 3.966811e-05 3.82446e-06 4.9143877e-05
-1.3320207e-06 0.00011575764 1.3717532e-06 -7.84079e-06 5.7119823e-06 7.546057e-05 2.185007e-05 -3.059972e-06
-3.6210417e-06 7.716346e-05 0.000119824974 -1.3394484e-07 1.0334041e-06 3.893343e-05 0.00025765508 6.2738563e-06
7.729422e-05 -1.1172179e-05 6.221821e-05 0.00018631932 2.328872e-06 9.0595735e-05 6.3910325e-06 0.00011787352
-4.188342e-06 0.00020176613 1.2634706e-05 2.0752686e-05 8.7482964e-05 5.3280735e-05 -2.4345095e-06 4.5219793e-05
0.00013145723 8.315059e-05 7.818031e-06 0.0002614488 -2.6039097e-05 1.6326858e-05 -6.0484854e-07 4.2080464e-06

exp_avg_sq f4 [28, 64]
00000000: 6efc b134 7995 9134 8b85 9134 176c 7c34
00000010: 1f28 3234 e879 ed34 a39b ee33 5542 1233
00000020: 2488 d033 eb04 a933 36cf bc33 b71b 9234
00000030: fbc0 fe34 a05f 7234 821a 1734 2b98 e633
00000040: 1c98 0f34 4f1b 4c34 69a7 5235 63ca 3934
00000050: 7f14 0b33 6216 c533 7995 ea34 cbf0 2633
00000060: c62a d333 e247 1f34 4c97 ba33 2b01 b734
00000070: fc14 9335 9af0 0c35 cf50 0e33 b8f0 0a34
00000080: 6b32 aa34 24c6 4633 c62b d233 2f22 d834
00000090: 7acd 8934 54e6 9333 55f9 d233 e58e a233
000000a0: 5cec b033 dbe9 9333 8b6a 2334 96a0 5a35
000000b0: 2f2a 9c34 0d8a 9934 9ddc fc33 c245 a734
000000c0: a761 1433 0280 2633 8493 c633 692d 7434
000000d0: e27a 0334 8d9f 8734 03a5 3434 1074 0535
000000e0: 3c7a c133 86c1 fa34 5e2d 1434 1cd7 1e35
000000f0: a50d 6a33 a0db 3934 de7f 9e33 5819 c933
00000100: ae25 d534 c960 4035 7258 b534 619f 0036
00000110: a1ae 3535 70f2 ae35 9191 1235 183b 8634
00000120: 5ed8 2835 714f 3d35 4165 f234 d27f c534
00000130: 2901 9735 ab08 7d34 ffa6 a734 9c22 2034
00000140: 85b0 3e35 ad26 8934 c554 1f35 d1b0 8a35
00000150: bdba d734 3111 a634 e8be 3f35 916f bf33
00000160: 2ebe e534 6bce 5035 eec9 8035 7b4a 4434
00000170: d1a3 4c36 5bf0 0f34 cc09 6535 ad9b e734
00000180: dbfa ea33 ec2e c035 e421 9434 499c 5b35
00000190: 143b 0935 8445 cc33 a9a5 b234 c4e5 3235
000001a0: 476a 9c35 ad15 2035 b9a5 8c33 2f7d 0835
000001b0: 1ad8 2334 1e13 9834 0ec2 e034 098c 3e35
000001c0: 25e0 b734 9122 4634 64a3 9234 c9b4 5135
000001d0: 38e6 3734 da1e 1335 4c9d 5c35 88f0 b635
000001e0: 962b 0234 a264 7a35 4dc3 5b34 c35f 8634
000001f0: b0eb 5835 b32a a333 5f4d 6a35 4c41 7134
00000200: 108d 2336 f9b6 8e35 ec30 d534 c460 9535
00000210: 6e67 2835 cec2 8035 41d3 4435 e745 1834
00000220: 7dee 1235 abe3 3934 a4f3 5835 56d2 2f35
00000230: d08a 7335 96d9 b235 03ca 0135 9131 3e34
00000240: a900 3a35 153d c634 44f5 0d36 8240 0035
00000250: 6c52 6c34 7269 2b35 c76c 4f35 3676 1334
00000260: d93c 3335 b5ff 1b35 7260 2e35 909f 3535
00000270: 0adf ef34 5520 ce34 f8f8 d234 2aef 1e35
00000280: d7b4 6c35 b1c4 2935 03ed 2e35 d781 0f36
00000290: 311f b135 028c 8a34 403f 5335 fa49 0a35
000002a0: 1cec 6234 1739 3935 1314 d934 4df7 1536
000002b0: 25ae 8c35 9643 3235 8646 8a34 c9a6 9835
000002c0: 966d 0035 8d5e e533 b461 eb34 f835 8435
000002d0: 6623 f634 82b6 7835 de26 2c35 bcad 6835
000002e0: 4bcf 1435 c6df a634 6a96 2e35 775f e735
000002f0: 3037 4d34 c17c 8034 c5ff 0435 3136 ba34
00000300: c58a a633 7e26 9432 c673 f433 2606 ba34
00000310: 0003 7932 08dd 2133 8a27 5534 b81a 0933
00000320: 0470 6234 c65b 7435 72f4 1935 c0f8 aa34
00000330: 3b75 6733 dda3 6633 05fd c232 f38c 6e33
00000340: 6ceb 6135 90dc 0434 7dc6 b534 63d5 dc31
00000350: 3b14 0734 5716 1235 959e 7033 ca44 6233
00000360: 973d 2433 c082 6a34 f89d 8534 073a 5033
00000370: e08e 8133 6404 e533 68f6 a432 8546 bc33
00000380: d642 c633 4355 8d33 13e3 4034 d48f 0f34
00000390: a59e 8832 8017 b334 7660 0a35 c22e 6632
000003a0: d0ce 5f32 f977 3a32 fea7 8334 4fd0 9635
000003b0: 159c 7e33 d037 a033 b842 7b33 6841 1a34
000003c0: da7d c532 3d2a f934 6c1e dd34 5c4b eb33
000003d0: 349f 7634 b35d 8f33 1ba0 4932 7f59 a133
000003e0: 2988 4735 6a7f 9733 6903 0234 efe1 5c35
000003f0: aab7 0533 8e81 cd33 45d7 1e32 c54b d033
3.3152486e-07 2.711711e-07 2.710552e-07 2.3508652e-07 1.6592138e-07 4.4233389e-07 1.1111049e-07 3.4053603e-08
9.7105186e-08 7.87057e-08 8.792124e-08 2.7214784e-07 4.7451599e-07 2.2572794e-07 1.4072614e-07 1.0737889e-07
1.337325e-07 1.9008915e-07 7.847471e-07 1.7303095e-07 3.23821e-08 9.177599e-08 4.3694652e-07 3.8868887e-08
9.8332336e-08 1.483418e-07 8.688821e-08 3.4087256e-07 1.0958461e-06 5.2504186e-07 3.3135446e-08 1.2939825e-07
3.1701651e-07 4.6280675e-08 9.7868494e-08 4.0258007e-07 2.5667742e-07 6.8871174e-08 9.82424e-08 7.569705e-08
8.238632e-08 6.887759e-08 1.5219318e-07 8.144501e-07 2.9087957e-07 2.8598916e-07 1.1774794e-07 3.115693e-07
3.454775e-08 3.876631e-08 9.2469264e-08 2.2740791e-07 1.224503e-07 2.5261798e-07 1.6823837e-07 4.9715254e-07
9.009497e-08 4.6706936e-07 1.3800079e-07 5.917261e-07 5.449478e-08 1.7309367e-07 7.380707e-08 9.364402e-08
3.9701757e-07 7.1666415e-07 3.377823e-07 1.9166257e-06 6.7681873e-07 1.3034569e-06 5.4601065e-07 2.500244e-07
6.289973e-07 7.052359e-07 4.5149685e-07 3.678711e-07 1.1250714e-06 2.3565615e-07 3.122768e-07 1.4913752e-07
7.1037385e-07 2.554638e-07 5.935547e-07 1.0333262e-06 4.018274e-07 3.0932418e-07 7.143085e-07 8.9144244e-08
4.2792948e-07 7.7786416e-07 9.595512e-07 1.8281018e-07 3.0493723e-06 1.3405354e-07 8.5323404e-07 4.3140372e-07
1.09421045e-07 1.4318771e-06 2.7591807e-07 8.181128e-07 5.1122447e-07 9.512135e-08 3.3275617e-07 6.664452e-07
1.1653837e-06 5.963619e-07 6.549403e-08 5.0846114e-07 1.5259175e-07 2.8326116e-07 4.1864445e-07 7.0984294e-07
3.4249493e-07 1.8452762e-07 2.7313502e-07 7.8121644e-07 1.7126956e-07 5.480666e-07 8.2185284e-07 1.363006e-06
1.212305e-07 9.32787e-07 2.0467014e-07 2.502912e-07 8.080924e-07 7.598046e-08 8.728438e-07 2.2468629e-07
2.4371002e-06 1.0633076e-06 3.9709937e-07 1.1129528e-06 6.2735387e-07 9.593439e-07 7.3323105e-07 1.4181533e-07
5.4736284e-07 1.7312293e-07 8.0820814e-07 6.549866e-07 9.0726553e-07 1.3325359e-06 4.835021e-07 1.7713161e-07
6.929136e-07 3.6924817e-07 2.11534e-06 4.7777587e-07 2.2009198e-07 6.385591e-07 7.72718e-07 1.3733447e-07
6.677124e-07 5.81141e-07 6.49604e-07 6.765995e-07 4.46795e-07 3.8394015e-07 3.9296697e-07 5.9207616e-07
8.818001e-07 6.324363e-07 6.516495e-07 2.1384237e-06 1.3196606e-06 2.5806372e-07 7.8695666e-07 5.1516656e-07
2.1133786e-07 6.900095e-07 4.0434006e-07 2.2346678e-06 1.0481496e-06 6.640852e-07 2.5755816e-07 1.1373423e-06
4.7843184e-07 1.0680842e-07 4.384325e-07 9.850473e-07 4.5846826e-07 9.2652783e-07 6.413155e-07 8.667955e-07
5.543595e-07 3.1082726e-07 6.503893e-07 1.7238625e-06 1.911219e-07 2.3932628e-07 4.9546026e-07 3.468463e-07
7.7552194e-08 1.7246972e-08 1.13831945e-07 3.4649673e-07 1.449439e-08 3.768676e-08 1.9851555e-07 3.19221e-08
2.1088641e-07 9.103063e-07 5.7352656e-07 3.1845957e-07 5.38905e-08 5.370008e-08 2.2699632e-08 5.5541886e-08
8.4161616e-07 1.2373698e-07 3.3858296e-07 6.427102e-09 1.2580215e-07 5.4421747e-07 5.6023584e-08 5.268229e-08
3.824024e-08 2.1840515e-07 2.4888118e-07 4.848155e-08 6.0330194e-08 1.0664442e-07 1.9204165e-08 8.7672596e-08
9.232251e-08 6.581333e-08 1.7964003e-07 1.3370237e-07 1.5904627e-08 3.3358447e-07 5.1549375e-07 1.33983935e-08
1.3027332e-08 1.08539036e-08 2.4522882e-07 1.1236497e-06 5.928094e-08 7.460733e-08 5.8501172e-08 1.4366162e-07
2.2991049e-08 4.6410597e-07 4.1186593e-07 1.0956748e-07 2.2968453e-07 6.676e-08 1.1736144e-08 7.513426e-08
7.4331416e-07 7.054662e-08 1.2108434e-07 8.2285163e-07 3.1133517e-08 9.569622e-08 9.245757e-09 9.699537e-08

exp_avg f4 [28]
00000000: a705 5338 f6c2 9eb6 5b65 a2b7 3f0f 1638
00000010: 4d52 0935 27b5 3436 a4f1 66b7 3fde 46b7
00000020: 6302 bab5 bc39 81b6 f40b be33 8fd2 1db8
00000030: 8334 eab6 de63 4e39 a506 6637 870d c136
00000040: 2d47 66b7 e278 b8b6 44e7 de36 1ddb e3b8
00000050: 087d e0b6 4514 a0b7 88fa 50b6 fa04 5d35
00000060: dc7c 0337 4ac5 95b8 cd80 3136 26fa 8936
5.0311584e-05 -4.7314634e-06 -1.9359102e-05 3.5776986e-05 5.115624e-07 2.6927535e-06 -1.376533e-05 -1.1853465e-05
-1.3858775e-06 -3.8512208e-06 8.849739e-08 -3.7627815e-05 -6.9798566e-06 0.00019682894 1.3710615e-05 5.753423e-06
-1.372564e-05 -5.4977e-06 6.6430384e-06 -0.000108650165 -6.6902758e-06 -1.9082925e-05 -3.1140244e-06 8.233616e-07
7.83728e-06 -7.1416216e-05 2.6450027e-06 4.1120393e-06

exp_avg_sq f4 [28]
00000000: 38a0 b932 8f03 4b33 d07b 7833 8e1a c132
00000010: 3189 a731 397b bc31 7071 ce32 cd87 bf31
00000020: 301b c830 062a 1033 bfdf d431 47e1 2134
00000030: 3d71 c532 1111 1534 37ca ad32 96f7 7032
00000040: cfb5 2332 dc96 2030 ad17 9f33 2235 5f34
00000050: 407b 4133 c25a 6634 3694 fb33 5fff 802f
00000060: 0ff9 4e33 a120 1a34 7821 0334 a547 a130
2.1609694e-08 4.7267857e-08 5.7854606e-08 2.2480233e-08 4.8759365e-09 5.485529e-09 2.4033142e-08 5.5742704e-09
1.4559642e-09 3.3565833e-08 6.195449e-09 1.5076249e-07 2.2985313e-08 1.3882915e-07 2.0231807e-08 1.4026133e-08
9.529187e-09 5.8422045e-10 7.408321e-08 2.0787823e-07 4.504841e-08 2.1453437e-07 1.1715058e-07 2.3464516e-10
4.818963e-08 1.4354238e-07 1.2212502e-07 1.1734654e-09
