lightning_logs/version_13/checkpoints/epoch=29-step=38070.ckpt (torch, 247971 bytes, 12 tensors)

MLP.0.weight f4 [64, 284]
000000 66 95 76 3e 02 55 06 be f4 f2 bb 3d 2e 51 c2 3b
       0.24080428 -0.13118365 0.09177199 0.0059300875
000010 24 7a 82 3d 6e 90 4c bd 07 bc 55 be be 32 9c bc
       0.06370953 -0.049942426 -0.20872508 -0.019067165
000020 5b bb a6 3e 67 63 6d 3e 99 de ce be 61 00 6d be
       0.32564816 0.2318245 -0.40404204 -0.23144676
000030 14 c0 d8 bb 8f a9 c7 3c e3 53 13 3d 5d 59 95 bd
       -0.0066146944 0.024372844 0.035968672 -0.07292435
000040 64 ec 89 3e a4 49 bd 3d 72 66 15 3e b7 3c 10 3e
       0.26938164 0.092425615 0.14589861 0.14085661
000050 9a 6e ab 3e 6b 25 17 be 5b 8e 4c 3e 81 97 a4 3e
       0.3348282 -0.14760368 0.1997618 0.32146838
000060 bb d3 c9 3e 12 f7 0c be 25 6f 4e bd f9 59 bb 3e
       0.3941935 -0.13766125 -0.050398964 0.3659208
000070 72 09 1a 3e 84 cf 88 bc c3 bd 6e be 74 07 00 3f
       0.15042666 -0.016700514 -0.23314576 0.5001137
000080 97 ab fb be 4b 02 1a 3e 13 fa d4 3c b1 5f 66 be
       -0.4915435 0.15039937 0.02599815 -0.22497441
000090 41 bb eb be 06 3c 0e bc 4f e6 49 be 95 75 a4 bd
       -0.460413 -0.008681303 -0.19716762 -0.080302395
0000a0 91 3d 4a bd 6c 18 6a be 5e 3d ec 3e ea 37 c5 3d
       -0.04937512 -0.22860879 0.4614057 0.096298054
0000b0 44 26 21 3e 01 a6 7a 3d 63 4f a9 3e 01 40 02 3e
       0.15737253 0.06119347 0.3306838 0.12719728
0000c0 b0 57 59 be 42 b5 b6 3c ab 14 c0 bd 88 bc a1 3e
       -0.21224856 0.022303227 -0.09378942 0.3158915
0000d0 22 4f a3 3d a1 0b 76 be dc 21 cc 3e 81 5f 62 be
       0.07974078 -0.24027874 0.39869583 -0.22106744
0000e0 bd 69 f4 3e b4 d2 75 bc af 5f db 3e 3e ed 8a bd
       0.47736922 -0.015003849 0.42846438 -0.067835316
0000f0 0f 19 9b 3e ae 5b 3a 3e ec e8 6d be 5d 91 31 be
       0.30292556 0.18199036 -0.23233384 -0.17340608
000100 6a 05 46 3f 5c 6c 3a be 27 b7 70 3a e6 a0 2b be
       0.7735201 -0.18205398 0.0009182565 -0.16760597
000110 d1 00 15 bf 81 aa 87 3d 0b 59 cd 3e f7 98 bd 3e
       -0.5820437 0.06624318 0.40106997 0.37030765
000120 35 9c ab be e4 e6 a5 3e bf 94 9c bd 7a 41 c3 3c
       -0.33517614 0.32402718 -0.076455586 0.023834933
000130 b8 a2 4c be 72 ce 01 bc 28 a7 02 be fa 7f 1f be
       -0.19983947 -0.007922756 -0.12759078 -0.15576163
000140 ac 86 7a be ca 7d 1f bf cb aa 0c 3f 5f f2 53 3e
       -0.24465436 -0.62301314 0.5494811 0.20697926
000150 7f 49 e3 be fa 0f 14 3e 60 d0 c3 be 43 64 ad bd
       -0.4439201 0.1445922 -0.38244915 -0.08466389
000160 e3 c3 c7 bd 76 34 fc bd c7 6b c5 bd d2 d6 1d bf
       -0.09754159 -0.12314694 -0.096396975 -0.61655915
000170 f2 3a 29 bd f1 cd 2f bf 58 19 ee 3d f6 08 9a 3d
       -0.04131598 -0.68673617 0.11625928 0.075212404
000180 8a e6 7a 3e 02 d5 05 3f a6 c4 11 bf 83 4e 3e 3d
       0.24502006 0.5227815 -0.56940687 0.046461593
000190 7a f6 00 be f6 61 24 be 04 a4 df be a6 3c 96 bd
       -0.12594023 -0.16052994 -0.43679821 -0.073357865
0001a0 aa 28 78 3c 51 c8 b8 3e ab 93 c3 be dd 6a d3 be
       0.015146414 0.3609033 -0.381986 -0.41292468
0001b0 ff 76 9d bd 32 40 7c 3d 13 b6 87 3e b9 6d 85 3f
       -0.07688712 0.06158466 0.265061 1.042411
0001c0 aa f8 69 3f 6b 52 0b 3f d4 66 cc be 18 0e 11 3f
       0.91395056 0.54422635 -0.39922202 0.5666213
0001d0 cf ad 8c 3e 40 3f 49 3e 51 92 ea bd ab 61 cd 3d
       0.27476355 0.19653034 -0.11453689 0.10028394
0001e0 d6 47 bf be 57 35 ac be 59 3d 12 3f 28 47 01 bf
       -0.37359494 -0.33634445 0.5712486 -0.504992
0001f0 ab 93 8d be c3 f7 01 bd b0 31 10 bf 37 80 a7 bd
       -0.27651724 -0.031730425 -0.5632582 -0.08178752
000200 b8 49 d7 3d 92 2c 23 bf 5b 0d ef 3e b8 94 c0 bd
       0.105121076 -0.63739884 0.46689877 -0.09403366
000210 85 f8 95 3e 36 11 9d 3d 2d 6b 50 bc 76 50 c7 3e
       0.29291168 0.07669298 -0.012720865 0.38928574
000220 a4 5b 2a bf 88 b6 7b be 3f fd d4 be 9e 12 f9 bc
       -0.6654608 -0.24581349 -0.4159946 -0.030404385
000230 cf 81 a8 3d 4f 29 9e 3e 41 7d 2e 3f 13 7c c6 3e
       0.08227884 0.3089089 0.6815987 0.38766536
000240 5d 20 ac be 92 ad 54 be 81 fe 0e 3d c2 35 de 3e
       -0.3361844 -0.20769337 0.034910683 0.4340039
000250 5c fc a6 bd 6f 4f 2f 3e 8f 46 b4 bd d8 1d e1 be
       -0.081536025 0.17120145 -0.088025205 -0.4396808
000260 9d 24 da bd a1 fe aa 3e 36 4e 67 3e 11 1e 55 3d
       -0.10651515 0.3339739 0.22588429 0.052030627
000270 48 3d 25 3e a7 9d 94 be d1 eb cf be 18 5f 4c 3e
       0.16136658 -0.2902653 -0.406096 0.1995815
000280 4a fd e9 bd f5 0f 80 3e d9 9a 38 3e dd 26 d2 be
       -0.11425264 0.25012174 0.1802782 -0.41045275
000290 6b 92 8d 3e d7 87 9a 3e 2a 75 34 bf 48 e9 2a be
       0.2765077 0.30181763 -0.7049128 -0.16690552
0002a0 72 0e e4 be 7c 94 d5 3e cd 93 c7 3e 73 fe 2b 3e
       -0.4454227 0.41714847 0.3897995 0.16796283
0002b0 06 cd fd bd a6 5f 26 3f c5 bf 90 3e ac f6 e8 be
       -0.12392621 0.649897 0.2827131 -0.45500696
0002c0 6f b5 86 bb 42 9e 28 be cf 1c d9 be ef 99 70 be
       -0.004110984 -0.1646662 -0.42404792 -0.23496221
0002d0 91 97 0c 3e 1f 10 b0 3e c6 6d f5 3e 22 86 a1 3e
       0.13729693 0.343873 0.47935313 0.31547648
0002e0 77 b5 1a be a0 b3 93 3e f1 a4 39 be 2a e0 18 3e
       -0.15108286 0.2884798 -0.18129326 0.14929262
0002f0 0c 9a 37 be 13 a7 8d bd 02 33 c7 be 09 49 1b 3e
       -0.17929858 -0.069166325 -0.38906103 0.1516458
000300 38 dc eb be df b6 cf be a1 ad 49 3f fa 53 de 3d
       -0.4606645 -0.40569207 0.7878056 0.10855861
000310 b0 b5 b5 3d 72 12 98 3d 66 b1 3f be 89 47 b0 be
       0.08872545 0.07425393 -0.18720016 -0.34429577
000320 94 7e 5d 3e f0 5c 37 bd 1c 50 41 bf 79 ed 9c be
       0.21630317 -0.044766366 -0.7551286 -0.30649927
000330 69 d1 38 bf 4f 0d 59 be 13 c7 1a be 2f e7 36 be
       -0.72194535 -0.21196483 -0.15115003 -0.17861627
000340 8c a8 fd 3e e4 36 d5 3e cf b3 15 bf 5d b3 f8 bd
       0.49542654 0.4164344 -0.5847749 -0.12143586
000350 11 fb 93 be 9d f7 0d bf 44 56 86 3e c5 0c 87 bb
       -0.28902486 -0.5545595 0.2623769 -0.0041213953
000360 17 bc f0 3e 19 68 d0 3e 82 06 34 3d d5 8d 97 3e
       0.470185 0.4070442 0.04395152 0.29600397
000370 ff e7 d4 3d b3 39 65 bf 54 c4 56 3e 18 d9 b5 3e
       0.10395812 -0.8954117 0.2097333 0.35517192
000380 63 f8 f7 be cd 95 72 3e 81 28 28 3f f9 42 60 be
       -0.48431692 0.23689957 0.65686804 -0.21900548
000390 69 e2 ee 3e 28 a9 56 bf 21 25 60 3f 14 7d c2 be
       0.46657112 -0.8385186 0.87556654 -0.37986052
0003a0 cb 4e 0d bf e4 92 07 bf 56 26 2d be 83 0b 94 3e
       -0.55198354 -0.5295851 -0.16909155 0.28915033
0003b0 46 57 45 be f4 34 fa be a0 fa 60 be 64 4e e6 be
       -0.19271573 -0.48868525 -0.21970606 -0.44981682
0003c0 62 d2 21 3f 3e 14 22 3e 74 94 2b bf 43 c6 80 3d
       0.63211644 0.15828034 -0.67023396 0.062878154
0003d0 11 25 b4 3e 34 0a fd be fb 4e 80 be 84 b2 20 be
       0.3518453 -0.49421847 -0.25060257 -0.15693098
0003e0 d6 19 42 3e b9 3d 0d 3f 0f 17 d9 3e cf 43 08 3e
       0.18955168 0.55172306 0.42400405 0.13307117
0003f0 10 ba 73 3e cd b8 49 3e 66 c2 bd 3e 8c b6 7d be
       0.23801446 0.19699402 0.37062377 -0.24776667

MLP.0.bias f4 [64]
000000 35 28 e5 3d 4d 5a 03 3f e0 1c f7 3e 82 a2 1e 3e
       0.111893095 0.51309663 0.48264217 0.1549168
000010 f0 49 33 3f 8f 9a cc 3e 16 ce ba 3e 49 91 17 3f
       0.70034695 0.3996167 0.36485356 0.5920606
000020 14 71 45 3f bf 3a 87 3e 85 d3 47 3e 9d 0c 89 3e
       0.7712567 0.26412007 0.19514282 0.26767436
000030 32 66 6c 3f ea b6 38 3f 16 f3 28 3e 61 04 3a 3f
       0.9234344 0.72154105 0.1649898 0.7266293
000040 c6 00 cf 3e f0 4c e2 3e 21 d2 02 3f 95 6b 45 3e
       0.40430278 0.44199324 0.5110188 0.1927932
000050 c3 60 53 3f 7b 38 3c 3f 7f 3a 81 3e a0 ad 8b 3f
       0.8256952 0.7352368 0.2523994 1.0912361
000060 8a f1 b8 3e eb ea 7a 3d c2 90 01 3f b6 84 13 3f
       0.3612178 0.06125919 0.5061151 0.57624376
000070 8f 2d 07 3f 39 b2 11 3f 0e a8 bf 3e bf 32 ac 3e
       0.5280389 0.5691257 0.37432903 0.33632466
000080 18 c4 06 3f 52 f6 92 3e 1d c7 9f 3e f5 96 1a 3f
       0.52642965 0.28703552 0.312066 0.6038659
000090 81 cf 62 3e e2 5c 0f 3f 32 a0 b1 3e f6 10 3b 3e
       0.22149469 0.560011 0.34692532 0.18268189
0000a0 dc c7 2e 3f a4 bf c6 3d df 1f 9a 3e 18 a4 c2 3e
       0.6827371 0.09704521 0.3010244 0.3801582
0000b0 a3 80 20 3f 88 19 5d 3f b8 39 e1 3e 17 78 32 3f
       0.62696284 0.8636708 0.43989348 0.6971449
0000c0 5d c8 1a 3f fc 09 13 3f 9d b2 ef 3e a0 fb 1d 3f
       0.6046198 0.5743711 0.4681596 0.61712074
0000d0 46 80 ed bb 82 ef 5f 3e 31 70 09 3f ea 55 e5 3e
       -0.0072479574 0.21868709 0.53686816 0.4479211
0000e0 b9 49 0b 3f b0 35 7c 3f 0d f3 22 3f 87 a9 4b 3e
       0.54409367 0.9851942 0.63652116 0.19888888
0000f0 76 30 4a 3f 02 58 9a 3e 36 bc 26 3f 43 06 87 3e
       0.78980196 0.3014527 0.6513094 0.26371965

MLP.2.weight f4 [28, 64]
000000 00 5e 3a 3f b4 27 8d bf fe 68 a7 be ad 25 3a 3c
       0.7279968 -1.1027741 -0.3269729 0.011361522
000010 5c a8 3c bf ce eb 90 bf de 5e 26 3f a4 78 6f 3f
       -0.73694396 -1.1321962 0.64988506 0.9354346
000020 32 84 25 3f e4 09 1f bf 58 11 1c 3e bd 66 cb 3d
       0.6465484 -0.62124467 0.15240991 0.09931705
000030 8a 0d 13 bf b3 32 3c 3f 85 80 1d 3e d5 e6 dc be
       -0.57442534 0.7351486 0.15381058 -0.4314486
000040 e1 86 95 bf a5 3c a0 bd 26 34 ce be 96 7e 80 bf
       -1.1681787 -0.07824067 -0.4027416 -1.0038631
000050 49 d3 9d be 61 29 c7 bf da 99 9c bf b4 44 4f 3f
       -0.3082526 -1.5559503 -1.2234452 0.8096421
000060 bf ba c9 be 36 94 cf 3e 03 17 fb be 36 3e 19 bf
       -0.39400288 0.40542763 -0.49040994 -0.5986055
000070 35 1f 1e bf ea 41 09 bf a2 41 cf 3e 63 1a 0f be
       -0.6176637 -0.536162 0.4047976 -0.1397491
000080 a5 af 97 bf 36 43 06 be 0a f4 19 3e 50 5c 81 3e
       -1.1850477 -0.13111576 0.150345 0.2526574
000090 41 66 25 bf 9c 54 fb 3d 1b b9 02 bd 37 2e 7b bf
       -0.6460915 0.12271997 -0.03191481 -0.98117393
0000a0 60 4b 4d 3e 04 84 55 be 9e a4 2a bf 4b cb 0f c0
       0.20048285 -0.20851141 -0.66657436 -2.246783
0000b0 bd 36 2a 3f d4 4d f1 3e 7e fd 84 3f 3b 4c ea be
       0.66489774 0.4712969 1.038986 -0.45761284
0000c0 52 d7 17 bf 85 17 42 3e 55 7c 39 be 74 a5 e5 be
       -0.5931293 0.18954284 -0.18113835 -0.44852793
0000d0 0e a1 2b bf 35 c1 82 3e 36 66 84 3e 7d 2c 7b bf
       -0.67042625 0.2553803 0.2585923 -0.9811476
0000e0 d1 75 fc 3e a1 66 0c 3f 9d c0 48 3f 96 08 e1 be
       0.49308637 0.548441 0.78418905 -0.43951863
0000f0 bb db fb be 15 fd c4 3d 39 e9 22 bf 6f 17 5d 3f
       -0.4919108 0.09618584 -0.6363712 0.8636388
000100 f4 86 9f be b4 47 86 3f c4 63 26 bf d8 55 36 be
       -0.3115765 1.0490632 -0.6499598 -0.17806184
000110 52 a2 2b 3e db d4 a0 bf ed 42 1d 3f 76 c0 1b be
       0.16761139 -1.2564958 0.61430246 -0.15210137
000120 82 fb 2d 3e e7 41 e8 be 47 a5 9d bf 7b 0f d1 bf
       0.16990474 -0.4536278 -1.2316064 -1.6332849
000130 07 dd 05 3e 39 88 4b bf 27 94 b2 bf 78 19 c1 3e
       0.13072596 -0.79504734 -1.3951463 0.37714744
000140 75 81 c0 bf 8b e0 87 bf 6e 56 22 3f 11 cd 30 3f
       -1.5039507 -1.06154 0.6341313 0.69062907
000150 6e d3 17 be 26 59 4d 3e ec 8f 1f 3f 22 a9 08 be
       -0.14826748 0.20053539 0.6232898 -0.13345769
000160 3a ad 3e be d7 cb 4f bf c1 22 78 be 06 f0 40 3f
       -0.18620768 -0.8117041 -0.24232008 0.75366247
000170 20 e7 85 bf c5 83 3f 3f 99 0a 41 be 98 d2 7e bf
       -1.0461159 0.7481044 -0.18851699 -0.9954009
000180 3f 80 ed be 93 b5 7f be ae 56 8e be a1 c5 ad 3e
       -0.46386907 -0.24971609 -0.27800506 0.3393984
000190 b1 c2 66 3e 1b 5a 46 3f 15 98 f6 3e 12 b5 ad bf
       0.22535206 0.7748124 0.48162904 -1.3570883
0001a0 a7 54 43 3e e1 80 17 3f 4a 0d a0 bf 4d ff e5 3e
       0.19075261 0.5918103 -1.2504056 0.44921342
0001b0 94 25 18 3f e5 d8 9a 3e 6e 03 89 3e d6 fe c3 bd
       0.5943234 0.30243602 0.2676043 -0.095700905
0001c0 36 56 e8 bf d8 fa 18 bf 60 16 cf bf a5 49 e2 bf
       -1.815131 -0.5975776 -1.6178703 -1.7678725
0001d0 0f 1a 1f 3f 69 d9 4f 3f da d6 1d be 3e 2e 5d 3e
       0.6214914 0.81191117 -0.1541399 0.21599671
0001e0 77 d8 89 bf 68 c7 80 3e 2c e2 8a be fa b3 93 bf
       -1.0769185 0.25152135 -0.2712568 -1.15393
0001f0 33 64 59 bf a1 a3 d4 3e 77 3c bb 3e 49 da be be
       -0.84918517 0.4153109 0.3656957 -0.37275913
000200 10 a2 1d bf 19 d4 80 be bf 75 50 bf cf 31 e7 be
       -0.6157541 -0.25161818 -0.81429666 -0.45155188
000210 33 32 ea be 94 82 13 3e 52 43 69 be 6b c6 1f be
       -0.45741424 0.1440528 -0.22779587 -0.15603034
000220 a6 4c 00 3e 83 7f cc 3e ec da a6 bf 91 91 51 3e
       0.12529239 0.39941034 -1.303556 0.20465685
000230 3b cf d4 3e f3 d8 04 3e a5 bd f7 be 16 bf 53 bf
       0.41564354 0.12973385 -0.48386875 -0.8271345
000240 c0 e0 d5 3e 0a c6 d5 3e 0f 3c 49 bf 6b 7d a0 3d
       0.41773033 0.41752654 -0.7860727 0.078364216
000250 05 b4 8c 3e f7 52 6d be 40 0a 62 be 4f b4 d4 bc
       0.27481094 -0.2317618 -0.22074223 -0.025964884
000260 1e 65 4c bf a2 28 d5 bd 72 87 8c bf 05 79 cd 3e
       -0.7984179 -0.10408141 -1.0978835 0.40131393
000270 0e ec a7 bf 04 a3 a5 be 21 d2 b2 3e 68 55 92 3d
       -1.3118913 -0.32350934 0.3492594 0.07145196
000280 18 79 09 bf 29 6c fc 3e 64 68 3d bf 84 50 ea 3e
       -0.537004 0.4930127 -0.7398741 0.45764554
000290 c8 42 52 3f 27 cd e7 bd 54 25 84 3e a5 e7 4c 3f
       0.8213315 -0.113184266 0.2580973 0.8004096
0002a0 64 01 08 3e e3 44 dc bc 41 d1 ee 3e eb a3 05 bf
       0.1328178 -0.026888316 0.46644023 -0.52203244
0002b0 ab 3b 6d bf a9 66 61 3e c4 0a fc be a0 55 14 bf
       -0.9266917 0.22011818 -0.49226964 -0.57943153
0002c0 22 c8 e5 be 12 0a 25 3f 49 87 9c 3e e7 d8 1e 3f
       -0.44879252 0.6446849 0.30571964 0.62049717
0002d0 1e 8f b1 3e f3 08 3c 3e 65 17 23 bf 12 83 a9 bf
       0.34679502 0.18362789 -0.6370757 -1.3243124
0002e0 85 e4 66 bf d0 b9 00 3f 3e ed 84 be 5d ac 0d bf
       -0.90192443 0.5028353 -0.2596225 -0.5534113
0002f0 42 b6 71 bf 3a 1c 16 3f fd f6 84 be a7 58 bc be
       -0.9441873 0.5863682 -0.25969687 -0.36786386
000300 0f e7 95 bf 08 88 14 be 34 b5 86 3f 59 b0 63 3f
       -1.1711138 -0.14505017 1.0524049 0.8894096
000310 b3 9f 79 3f 0a 86 2e bf c8 43 6a 3c b2 c5 4d 3f
       0.97509307 -0.6817328 0.014298387 0.80379784
000320 da e0 bc bf c3 e7 d5 bf 6d f9 8d be 3b cb 9b be
       -1.4756119 -1.6711353 -0.2772936 -0.3042849
000330 ad 32 13 3f 1e 08 5b 3f e9 f0 a8 3e 4c 4a 65 be
       0.574992 0.8555926 0.329963 -0.22391623
000340 52 19 b0 bd d2 0d 87 bf 31 18 21 c0 0a 9d 0c bf
       -0.085985795 -1.0551093 -2.5171015 -0.5492712
000350 be a4 91 3e 4a 59 02 bf b0 ca fc be f7 78 53 bf
       0.28446 -0.50917494 -0.49373388 -0.8260645
000360 55 13 46 bf 6e ca 34 bf 41 fb 87 bf 26 77 ef be
       -0.7737325 -0.70621383 -1.0623552 -0.4677059
000370 e7 16 fe 3e 03 ea 89 bf e1 80 35 bf 0c 09 71 bf
       0.49626848 -1.077454 -0.7089978 -0.9415443
000380 eb c3 f8 bf 97 4d 9a bf 32 79 e6 be 55 79 0b c0
       -1.943479 -1.2054929 -0.4501434 -2.1792805
000390 2a e9 94 3d 65 19 2a bf 13 a5 54 bf 03 58 12 3f
       0.07271035 -0.66445 -0.83064383 0.57165545
0003a0 8d 6f 84 be 49 78 43 3f 36 ea c0 bf b9 05 94 bf
       -0.25866356 0.76355416 -1.5071476 -1.1564246
0003b0 cd 03 2c bd c2 16 a5 3d 87 99 9b bf a8 a1 02 3f
       -0.041995812 0.08060981 -1.2156228 0.5102792
0003c0 cb cf 9d bd 04 9f 0c 3e 03 03 03 3f d6 37 af 3e
       -0.07705649 0.13732535 0.5117647 0.34222287
0003d0 4b 2f ff bf a0 2c fc be 64 d4 33 bf 13 88 5d 3f
       -1.9936308 -0.49252796 -0.7024596 0.8653576
0003e0 ca fd 41 3f 59 3d 40 3e 77 6a 84 3f f7 26 e6 bc
       0.75777876 0.18773402 1.034499 -0.028094752
0003f0 fa 9b 07 c0 3a de 77 be dc c5 63 bf 7e 45 b6 bf
       -2.118895 -0.24205866 -0.88973784 -1.4239957

MLP.2.bias f4 [28]
000000 06 16 d4 3e d2 46 e7 3d ca 28 b7 bd 0f 7a 1c 3e
       0.41423053 0.11292805 -0.08943327 0.15280937
000010 3b fc 30 be 0a 7a 0c be fd 3b 96 bc a2 0a 7a be
       -0.17283718 -0.13718429 -0.018339152 -0.24418119
000020 c2 d1 93 be 77 97 16 3e a2 86 ba 3d 36 94 0e bd
       -0.2887097 0.14706217 0.091077104 -0.034809314
000030 c8 59 b1 be 48 6a c2 3e 63 52 3b 3e 6d 02 31 bb
       -0.3463881 0.3797171 0.18293147 -0.0027009503
000040 67 de 0b be 6a 27 0e bf a2 4f 73 bd a3 6e b9 bc
       -0.13659059 -0.5552889 -0.059402116 -0.022635764
000050 3a 2b 8d bd 5c 30 44 bf 69 bc a8 3e 33 6a 0d bf
       -0.068930104 -0.7663629 0.32956246 -0.5524017
000060 cb cf 41 3d 8c 6e 88 3e 8c 07 9a 3e d4 15 91 bd
       0.047317307 0.2664684 0.30083883 -0.070842415

exp_avg f4 [64, 284]
000000 1f a6 42 39 00 c0 28 39 a5 59 1a ba 50 cd 79 b9
       0.00018563167 0.00016093254 -0.0005887992 -0.00023822975
000010 91 57 29 ba dd e0 30 3a 44 40 d6 b7 6f d5 90 b9
       -0.0006459887 0.00067473744 -2.5540714e-05 -0.0002762484
000020 9f ce c1 39 b6 c3 8e 38 62 b1 3f b9 f9 3e b4 b8
       0.00036965773 6.807542e-05 -0.0001828126 -8.5947984e-05
000030 02 7b 7f 3a ab 43 9e 39 8d 4d c6 b9 68 7e bc b9
       0.00097458076 0.00030186525 -0.00037823283 -0.00035952334
000040 46 64 d2 39 f1 65 1c 39 8c c7 b9 b9 c8 c7 7f b8
       0.0004012903 0.00014915295 -0.00035434624 -6.09828e-05
000050 b7 81 1e b9 81 79 6e 39 d3 78 63 39 75 ee 93 b8
       -0.00015116377 0.00022742712 0.00021693418 -7.053922e-05
000060 e4 6c ba b7 c2 c4 dc 39 b4 99 a0 b8 66 4c 61 b8
       -2.2223634e-05 0.00042108266 -7.658024e-05 -5.3715332e-05
000070 c8 1a d3 b8 d1 5c 9d b8 16 b5 dd b9 ec 35 b1 b8
       -0.000100662524 -7.503632e-05 -0.00042287324 -8.4500614e-05
000080 f9 bb 38 b9 31 56 17 b9 70 7b ce 39 a0 b9 91 38
       -0.00017617633 -0.00014432591 0.0003938335 6.948714e-05
000090 c6 8e 3d b9 9d c1 80 b8 7e fb 55 39 e4 c5 93 38
       -0.00018077632 -6.139579e-05 0.00020406951 7.046366e-05
0000a0 37 2f 13 39 3e 6f 95 39 6d b0 7e 38 43 3a 3f b9
       0.00014036601 0.00028502377 6.072263e-05 -0.00018236884
0000b0 33 60 de b8 6b c6 48 b9 2e 45 e3 38 0a ce 58 39
       -0.000106037034 -0.00019147403 0.00010837089 0.00020676121
0000c0 0e 33 f7 b6 fb 88 d9 38 9c 58 1a b9 39 08 2f b9
       -7.367117e-06 0.00010372881 -0.00014719594 -0.00016692364
0000d0 42 9a 7f 39 2a cd e2 37 f7 4f b6 39 b1 a7 3b 39
       0.0002437616 2.7036836e-05 0.00034773324 0.0001789618
0000e0 ba 24 2a 39 4b 6a 4d 39 c3 d1 a9 b9 9a a0 4d 39
       0.00016226145 0.0001958992 -0.00032390477 0.00019610152
0000f0 c8 69 44 38 32 2a aa b8 c4 90 69 39 0b 5e 54 39
       4.6828558e-05 -8.114091e-05 0.00022274541 0.00020252929
000100 e6 63 ec 36 ad c9 37 39 56 08 ef b8 fc d4 dc b8
       7.044978e-06 0.0001752737 -0.00011397961 -0.00010530089
000110 2f 55 0a 39 97 dd 4b 39 ac f3 0e 39 7c a7 f7 b8
       0.00013192439 0.00019442137 0.0001363295 -0.00011809074
000120 91 59 90 37 f5 7a 1b 39 05 a5 66 b9 23 97 c4 38
       1.7207845e-05 0.00014827757 -0.00021995984 9.37416e-05
000130 78 f8 a1 38 1e a2 45 39 df d7 14 38 a7 27 be 38
       7.723359e-05 0.00018847777 3.5486995e-05 9.067292e-05
000140 63 23 07 38 bf 88 75 b8 5d 9d 78 38 b7 fd 0b b7
       3.2219465e-05 -5.8539907e-05 5.9274364e-05 -8.344118e-06
000150 46 42 5a 39 c6 68 96 37 65 05 8f 37 2e 0f 1e 38
       0.00020814789 1.7930182e-05 1.704944e-05 3.7684273e-05
000160 05 bf 97 37 9d 7b 17 36 6e 2e 92 b8 20 9e 0b b8
       1.8089553e-05 2.2572706e-06 -6.970471e-05 -3.3287448e-05
000170 28 1f 3b 36 7f ba 29 37 28 8c b5 37 fe 1d b1 b8
       2.7883307e-06 1.0116607e-05 2.1642147e-05 -8.445604e-05
000180 78 c9 9f b7 23 1c 31 39 4d 3f ce 37 2d 66 82 38
       -1.9048093e-05 0.00016890517 2.458659e-05 6.217915e-05
000190 84 10 1d b7 f1 9b d7 38 57 52 29 38 dd 88 47 b7
       -9.361775e-06 0.00010281045 4.0369425e-05 -1.189319e-05
0001a0 5b 77 be 38 2d 10 7f b8 46 2a ef b7 f7 61 8e b9
       9.082138e-05 -6.0811803e-05 -2.8510705e-05 -0.0002715734
0001b0 ec e8 fe b7 2f 73 30 37 39 41 f1 b8 0e 2f a2 b8
       -3.0387622e-05 1.0517236e-05 -0.00011503924 -7.7335266e-05
0001c0 63 f0 82 38 d9 0f 41 b9 90 48 57 38 e3 8f d7 b8
       6.2436586e-05 -0.00018411818 5.1327574e-05 -0.000102788
0001d0 1b c8 53 38 4d 0d bb b7 5d 85 07 b8 57 89 76 38
       5.0492683e-05 -2.229833e-05 -3.2310712e-05 5.8778878e-05
0001e0 aa 40 05 b8 0e 48 d3 38 4f a6 43 b9 23 2d 0a 39
       -3.1769894e-05 0.00010074685 -0.00018658604 0.0001317752
0001f0 35 61 50 b9 d1 c6 04 b8 c5 b6 8b 38 ba 5f 0d 38
       -0.00019872638 -3.1656415e-05 6.66208e-05 3.3706172e-05
000200 6f e5 da 37 6c 2b 1e 39 14 00 f8 37 12 c5 09 38
       2.6094463e-05 0.0001508423 2.956394e-05 3.284688e-05
000210 0b 62 57 b8 aa 69 e2 38 03 e2 22 39 6d 73 f8 b7
       -5.1351304e-05 0.00010796201 0.0001553372 -2.9617653e-05
000220 5d 79 39 38 62 19 56 38 ef 2c 46 37 05 ff de 38
       4.4220465e-05 5.1045216e-05 1.1812182e-05 0.00010633286
000230 aa 59 e4 b7 37 06 aa b8 03 a3 f3 37 0d 71 bc b7
       -2.7221471e-05 -8.107389e-05 2.9043766e-05 -2.246399e-05
000240 69 2a a7 b8 88 70 be b7 0e 33 10 b9 74 be 2f b8
       -7.97108e-05 -2.2702166e-05 -0.0001375193 -4.1900625e-05
000250 76 c8 2e b9 c0 62 04 38 a5 e5 c4 38 ad d0 97 38
       -0.0001666861 3.156322e-05 9.388783e-05 7.23911e-05
000260 47 30 a6 38 48 fd a9 b8 46 3a 88 b8 54 34 52 b8
       7.924489e-05 -8.105725e-05 -6.4958396e-05 -5.0116636e-05
000270 31 9b 39 b9 7a d6 15 39 61 e4 af 37 b7 bf be 35
       -0.00017700788 0.00014289646 2.0967973e-05 1.42119e-06
000280 d4 cc 04 39 23 61 bb 36 4b b6 00 b8 40 e9 6a b9
       0.00012664805 5.5843425e-06 -3.068735e-05 -0.00022402871
000290 43 f9 92 38 d4 f8 5e 37 4c 4b e4 b8 50 ef 37 37
       7.008251e-05 1.3290166e-05 -0.00010885912 1.0963369e-05
0002a0 87 16 5a b6 fb fd 0c 39 d0 db 51 38 90 25 63 b8
       -3.2497644e-06 0.00013446056 5.00342e-05 -5.4156e-05
0002b0 9e 56 c0 b8 2b a1 9d 37 45 25 0d 39 f7 19 35 38
       -9.171407e-05 1.8790908e-05 0.00013460692 4.3177944e-05
0002c0 0f db 92 38 73 bf 4a 38 cd cf b2 b8 22 0e a6 b8
       7.002625e-05 4.8338854e-05 -8.526407e-05 -7.918129e-05
0002d0 c9 2e ad 38 58 5d 38 37 40 bd 1a 38 d9 2e a3 b5
       8.257997e-05 1.0988988e-05 3.6892714e-05 -1.2158081e-06
0002e0 1b 49 b4 b8 7b 0b 44 b8 94 f7 72 b9 bc e2 09 39
       -8.596686e-05 -4.6740734e-05 -0.00023171148 0.00013149803
0002f0 9a 84 6c 38 d6 1c 5c b7 89 dd 52 38 98 02 49 b8
       5.639028e-05 -1.3119736e-05 5.0274222e-05 -4.792455e-05
000300 7c dc 52 36 6c 64 4a 37 bd 3f a8 38 a9 22 f7 37
       3.1420777e-06 1.20635195e-05 8.0227364e-05 2.9460834e-05
000310 66 38 5b b8 c4 fd 0c b6 15 a7 bf 37 af ee f1 b7
       -5.2266194e-05 -2.1009337e-06 2.2846778e-05 -2.8840584e-05
000320 57 9d 2c b8 35 e8 62 b8 d0 e0 de 38 8c fd 46 b8
       -4.115453e-05 -5.409886e-05 0.000106276595 -4.7443013e-05
000330 53 f8 de 38 8a 6a c3 b8 55 16 68 b6 85 59 44 37
       0.00010632039 -9.318169e-05 -3.4583693e-06 1.1703353e-05
000340 2a a2 08 37 25 f7 ba 38 c5 e2 4e b8 28 89 5f 38
       8.143988e-06 8.9152054e-05 -4.9325423e-05 5.329508e-05
000350 77 96 53 37 e6 2b 46 38 fb 05 bf b7 d8 a3 b9 37
       1.2611613e-05 4.7247762e-05 -2.277176e-05 2.2130014e-05
000360 ee e0 56 b8 ec 6a 09 39 1e 5a c1 b7 bd c9 be b8
       -5.1231058e-05 0.0001310517 -2.3049357e-05 -9.097483e-05
000370 13 be aa 37 a4 a9 20 b8 2f d6 00 b8 af d9 5c b8
       2.035409e-05 -3.8304963e-05 -3.0717052e-05 -5.265482e-05
000380 74 10 a7 b8 69 f1 9e b8 96 61 cc b7 aa fa 8a 38
       -7.966245e-05 -7.578993e-05 -2.4364137e-05 6.6270426e-05
000390 e1 0f 4f 38 38 ba 96 b8 a1 ea 66 b7 52 f6 ee 37
       4.9367434e-05 -7.187243e-05 -1.3763697e-05 2.8486513e-05
0003a0 98 f9 28 38 22 f9 b0 b8 99 5a 1f 38 43 e8 f3 b7
       4.0286774e-05 -8.4387386e-05 3.799293e-05 -2.9076013e-05
0003b0 19 5f 88 b8 17 fc 93 b7 35 6a 17 38 8b db d2 b7
       -6.502699e-05 -1.7641154e-05 3.610012e-05 -2.5136183e-05
0003c0 9c d7 cf b8 c8 91 e6 b7 77 ac c8 b8 43 15 9e b8
       -9.9106896e-05 -2.7486021e-05 -9.568867e-05 -7.5379874e-05
0003d0 a6 58 41 37 86 b6 3c b8 a6 b6 b1 b7 c4 93 89 38
       1.15243365e-05 -4.499268e-05 -2.1185097e-05 6.5601926e-05
0003e0 e9 6c 8e b8 e9 97 ab b7 87 f8 0e b8 53 df 9f 38
       -6.791374e-05 -2.0455527e-05 -3.4086897e-05 7.623308e-05
0003f0 11 d6 be b7 0a fb ac b7 8e cc 0a 39 b0 1b 6f 38
       -2.2749447e-05 -2.0620897e-05 0.00013236908 5.7007826e-05

exp_avg_sq f4 [64, 284]
000000 7b fc 07 37 0a 49 ea 36 cb a4 98 36 3d 19 03 37
       8.105412e-06 6.9822463e-06 4.5491374e-06 7.814085e-06
000010 64 fd 48 36 7d 4b 2b 36 f0 89 40 36 fa 94 21 36
       2.9949815e-06 2.5524926e-06 2.869052e-06 2.4077585e-06
000020 78 03 04 36 d1 b7 01 36 4d bd 19 36 67 b0 e9 35
       1.9671552e-06 1.9329493e-06 2.2908964e-06 1.7411193e-06
000030 a1 9b a8 35 28 81 87 35 f4 68 94 35 09 ec 6e 35
       1.2562269e-06 1.0095873e-06 1.1057405e-06 8.9005385e-07
000040 2c 14 9a 35 cc 12 1d 35 21 b9 27 35 65 2e 6c 35
       1.1479765e-06 5.851441e-07 6.2481746e-07 8.7984364e-07
000050 b5 eb 88 35 3b e0 33 35 94 88 01 35 ff 76 81 35
       1.0201389e-06 6.7008995e-07 4.825499e-07 9.645881e-07
000060 f4 a6 2f 35 53 14 22 35 16 46 89 35 69 bd 0c 35
       6.543553e-07 6.037928e-07 1.0227693e-06 5.242969e-07
000070 ae cb 0d 35 ea 08 ec 34 2c 37 16 35 07 a3 19 35
       5.2822986e-07 4.396491e-07 5.595964e-07 5.723418e-07
000080 b8 fa da 34 fa c0 28 35 0d b1 f4 34 8a c4 ad 34
       4.0788086e-07 6.2865695e-07 4.5577363e-07 3.2366762e-07
000090 01 0d 1b 35 74 f1 da 34 3c fb c7 34 78 7d d6 34
       5.776092e-07 4.0781345e-07 3.7249436e-07 3.9951897e-07
0000a0 d9 a8 c0 34 da 10 80 34 f8 ed a8 34 2b 49 19 35
       3.588564e-07 2.385412e-07 3.1465584e-07 5.7103415e-07
0000b0 18 fa bb 34 4f 10 85 34 39 5f 7b 34 cf 35 82 34
       3.5013431e-07 2.4785047e-07 2.3410838e-07 2.4253538e-07
0000c0 c1 56 b3 34 ef 2d 9f 34 a5 ae a1 34 fd 0a 87 34
       3.340447e-07 2.964948e-07 3.0115658e-07 2.5153705e-07
0000d0 08 c6 82 34 1a 0d 82 34 ac 95 7a 34 ff 6b 47 34
       2.4358474e-07 2.422392e-07 2.3337515e-07 1.8572608e-07
0000e0 ac 91 40 34 c4 e1 57 34 11 4c 50 34 ae 37 53 34
       1.7934389e-07 2.0105568e-07 1.9399182e-07 1.9671162e-07
0000f0 69 3c 56 34 e7 57 51 34 34 77 92 34 73 d7 42 34
       1.995228e-07 1.949662e-07 2.728135e-07 1.8146038e-07
000100 65 5c 4a 34 a7 16 18 34 ec f0 29 34 5a a9 41 34
       1.8846329e-07 1.4164344e-07 1.5826998e-07 1.8036135e-07
000110 ed 20 34 34 2b ba 40 34 ad 0c 04 34 09 8f 1c 34
       1.6775785e-07 1.7949121e-07 1.229807e-07 1.4580668e-07
000120 03 fc 2d 34 40 7a 13 34 28 fd 4d 34 73 78 12 34
       1.6203562e-07 1.3734916e-07 1.918421e-07 1.3641129e-07
000130 72 da 21 34 54 8f 01 34 07 ac 03 34 17 36 24 34
       1.5073763e-07 1.2066204e-07 1.2262909e-07 1.5293368e-07
000140 00 57 3f 34 5a 9f 15 34 08 9d ee 33 bd 5c 0a 34
       1.7819912e-07 1.3934678e-07 1.11113025e-07 1.288599e-07
000150 89 e7 08 34 14 38 0b 34 08 79 ed 33 27 1c 0e 34
       1.2750219e-07 1.2965785e-07 1.1058188e-07 1.3235022e-07
000160 fe 2c f9 33 f8 d6 d1 33 63 2a 0a 34 f8 01 19 34
       1.160315e-07 9.7714235e-08 1.2867672e-07 1.4249952e-07
000170 7f c5 f7 33 dd 1f f8 33 94 97 d8 33 85 7d cc 33
       1.1537758e-07 1.1554196e-07 1.0085856e-07 9.522322e-08
000180 2b 38 e9 33 e4 5d c1 33 41 29 c2 33 6f b7 bc 33
       1.0860125e-07 9.0043415e-08 9.041333e-08 8.7877986e-08
000190 ce b3 e5 33 53 a6 03 34 57 75 dc 33 28 cd f7 33
       1.069635e-07 1.2260834e-07 1.0265892e-07 1.15391515e-07
0001a0 2b a1 de 33 ce 40 df 33 d6 d1 c0 33 16 28 ce 33
       1.0366997e-07 1.03960346e-07 8.978866e-08 9.599914e-08
0001b0 87 8c d9 33 89 0f a9 33 34 d0 c3 33 9f 75 c9 33
       1.0130412e-07 7.8725016e-08 9.118267e-08 9.381187e-08
0001c0 49 11 aa 33 e8 b7 a6 33 cc b2 cb 33 d3 c5 cd 33
       7.919386e-08 7.76343e-08 9.485447e-08 9.5820404e-08
0001d0 5a 1b d6 33 4f ef cb 33 8b 66 a6 33 cf 56 ba 33
       9.970127e-08 9.496454e-08 7.74863e-08 8.67709e-08
0001e0 30 d6 bb 33 50 c7 97 33 e4 eb cb 33 82 ab bb 33
       8.7468266e-08 7.06774e-08 9.4958324e-08 8.739063e-08
0001f0 85 23 d3 33 82 9e 86 33 28 78 c3 33 4c 00 e6 33
       9.831914e-08 6.268694e-08 9.1022514e-08 1.07102636e-07
000200 9d 20 97 33 8e 24 9e 33 58 35 98 33 72 04 a3 33
       7.037418e-08 7.3640976e-08 7.087755e-08 7.5910876e-08
000210 b1 96 82 33 a3 66 9e 33 c4 d1 99 33 16 a0 98 33
       6.081007e-08 7.376118e-08 7.162774e-08 7.107171e-08
000220 1d 23 7d 33 e3 aa a6 33 81 23 82 33 8b ec c2 33
       5.8938088e-08 7.7610615e-08 6.060055e-08 9.076856e-08
000230 ac fe 83 33 5d 79 98 33 fe fb a5 33 d0 f6 73 33
       6.1464874e-08 7.1001274e-08 7.729248e-08 5.680232e-08
000240 31 1b 6e 33 c0 12 67 33 51 a7 84 33 c4 c1 86 33
       5.5438424e-08 5.380093e-08 6.177164e-08 6.275107e-08
000250 cc a1 80 33 a5 c4 83 33 90 7f 69 33 1c 50 39 33
       5.989895e-08 6.135932e-08 5.4365557e-08 4.3146528e-08
000260 f9 58 83 33 cf 96 a1 33 f5 6b 88 33 45 3a 79 33
       6.116347e-08 7.524579e-08 6.352631e-08 5.8027826e-08
000270 dc bc 3d 33 a3 9a 90 33 94 ae 59 33 7e da 5d 33
       4.417676e-08 6.733651e-08 5.0683028e-08 5.165429e-08
000280 06 74 6f 33 e2 96 6e 33 49 ed 84 33 f1 34 6a 33
       5.5752047e-08 5.555092e-08 6.189891e-08 5.453052e-08
000290 28 0c 49 33 0d 72 67 33 bb 9f 7f 33 48 58 77 33
       4.6810015e-08 5.3887607e-08 5.9517088e-08 5.758946e-08
0002a0 5b a4 54 33 2b 99 5b 33 bb c5 46 33 f3 62 50 33
       4.9509577e-08 5.1129216e-08 4.6280302e-08 4.8518768e-08
0002b0 09 c3 5f 33 45 f3 7c 33 c1 10 81 33 ed 7f 6c 33
       5.2098617e-08 5.8894575e-08 6.010078e-08 5.506438e-08
0002c0 ae 83 62 33 42 83 77 33 88 36 32 33 1e 79 3f 33
       5.2739487e-08 5.7628547e-08 4.149345e-08 4.458081e-08
0002d0 46 95 21 33 59 99 68 33 ea 4e 4e 33 e6 24 58 33
       3.7621497e-08 5.4156178e-08 4.8034885e-08 5.0324978e-08
0002e0 52 19 41 33 7c d0 52 33 42 8c 5e 33 66 20 49 33
       4.4959343e-08 4.908405e-08 5.1815967e-08 4.6828426e-08
0002f0 1a 97 3d 33 4a 60 47 33 7b 58 41 33 18 4b 4f 33
       4.4142418e-08 4.6420872e-08 4.5016787e-08 4.826424e-08
000300 16 4c 5b 33 04 fd 49 33 37 b0 18 33 c8 6b 4f 33
       5.105911e-08 4.7029076e-08 3.5550524e-08 4.829397e-08
000310 e6 30 47 33 ce 6a 3b 33 1f c8 2a 33 8a d3 47 33
       4.637777e-08 4.363647e-08 3.976322e-08 4.652569e-08
000320 e8 a1 44 33 cf 08 0f 33 1e ae 67 33 7c fb 7d 33
       4.578206e-08 3.3302793e-08 5.3942237e-08 5.9134877e-08
000330 e6 0c 3e 33 a5 c7 4c 33 85 46 1d 33 b9 99 05 33
       4.4249553e-08 4.7679027e-08 3.6618548e-08 3.1106286e-08
000340 c6 a9 25 33 5f af 3c 33 0b e8 71 33 d4 9d 1d 33
       3.8571464e-08 4.393166e-08 5.6323227e-08 3.6697955e-08
000350 1c 0f 17 33 c5 4b 00 33 ba 51 21 33 62 53 2e 33
       3.517117e-08 2.9871234e-08 3.7560064e-08 4.0588368e-08
000360 4d 5d 24 33 5c a8 23 33 a7 fd 31 33 a5 9a 29 33
       3.8269082e-08 3.8104517e-08 4.144172e-08 3.9489027e-08
000370 3f 64 02 33 62 9d 17 33 64 12 f3 32 82 df 22 33
       3.0359157e-08 3.5300566e-08 2.8297286e-08 3.7921843e-08
000380 9b 67 02 33 e9 9f 02 33 1d cb 2d 33 f5 6a 2d 33
       3.0362212e-08 3.041342e-08 4.0464432e-08 4.0376978e-08
000390 54 99 3d 33 41 b0 0b 33 2b 8f 05 33 b2 b7 01 33
       4.4144443e-08 3.252376e-08 3.1096686e-08 3.0202223e-08
0003a0 b9 56 15 33 79 62 41 33 e6 1f ef 32 f0 22 f6 32
       3.477064e-08 4.5025875e-08 2.7837768e-08 2.8654057e-08
0003b0 ab f5 f5 32 84 90 0f 33 74 57 0c 33 84 14 19 33
       2.863347e-08 3.342622e-08 3.267583e-08 3.5641747e-08
0003c0 ba ae 14 33 8a 92 30 33 45 b9 11 33 f6 de 15 33
       3.4617848e-08 4.111147e-08 3.3928945e-08 3.4894548e-08
0003d0 69 ad 0e 33 63 82 0d 33 90 6c b6 32 ca 65 ee 32
       3.3219667e-08 3.2947707e-08 2.1236957e-08 2.7753135e-08
0003e0 69 da ea 32 db ac 0c 33 b6 4a 02 33 2d 4f 0c 33
       2.7340507e-08 3.27535e-08 3.0335933e-08 3.26683e-08
0003f0 3f 11 04 33 7d 69 04 33 1c 23 10 33 ed 41 0b 33
       3.074933e-08 3.0829586e-08 3.3559544e-08 3.242342e-08

exp_avg f4 [64]
000000 48 26 06 39 4a 3f 83 b9 eb ba 84 b8 51 38 0c 38
       0.00012793497 -0.0002503342 -6.329067e-05 3.343105e-05
000010 32 1d 31 39 23 78 1a b8 57 ee c8 b5 bd c9 03 39
       0.00016890912 -3.6828347e-05 -1.4970527e-06 0.00012568287
000020 18 6a 13 39 cc 8c 70 39 6b 24 d9 b8 35 1c ea 38
       0.00014058535 0.00022940635 -0.0001035415 0.000111632435
000030 3d 67 7a b8 e7 51 d2 b7 0d 50 12 b9 6c f2 4f 39
       -5.9700793e-05 -2.507209e-05 -0.00013953466 0.00019831368
000040 5b d7 f1 38 93 13 77 39 95 8a 8c b9 3e 2a 91 38
       0.000115318886 0.00023563048 -0.00026806133 6.922007e-05
000050 df e4 77 b6 56 ac b4 38 d2 f5 a7 b8 73 62 f1 b7
       -3.6939089e-06 8.615169e-05 -8.008968e-05 -2.8775283e-05
000060 78 eb 7c 38 4f 4d d1 38 99 e7 84 b9 2c 80 78 b8
       6.030078e-05 9.9802965e-05 -0.00025349556 -5.9247177e-05
000070 4b 1a e7 b9 59 11 b9 b9 37 7d 8a 38 3d f6 17 38
       -0.00044079343 -0.00035298875 6.603676e-05 3.6230533e-05
000080 3c 35 3f 38 61 15 d8 b8 40 b3 db b8 b5 03 99 38
       4.5587527e-05 -0.00010303665 -0.00010476122 7.296299e-05
000090 dc 0a ef 38 32 6a 49 b9 96 4c 15 39 86 a3 6c 39
       0.00011398431 -0.00019208415 0.00014238278 0.00022567631
0000a0 2e 25 b9 38 97 6c de 36 ac d8 52 39 1f 67 44 b8
       8.828413e-05 6.628757e-06 0.00020107877 -4.682608e-05
0000b0 ff bf 66 39 60 15 a7 b9 a4 4c c5 b8 e9 72 2d b8
       0.00022006033 -0.00031868648 -9.4079674e-05 -4.1353433e-05
0000c0 d0 90 e0 38 f3 48 95 38 e6 75 43 b7 95 a0 89 39
       0.00010708126 7.1184615e-05 -1.1650356e-05 0.0002625032
0000d0 4d 26 8b 39 f3 f8 02 b9 fa 36 ba b8 86 ce 4f b9
       0.00026540682 -0.00012490507 -8.879411e-05 -0.00019817994
0000e0 21 a9 6b 39 4a 10 35 b8 b2 bc 01 b8 1c 81 94 39
       0.00022474352 -4.3168933e-05 -3.0931733e-05 0.00028324954
0000f0 58 81 66 38 a3 3e c0 37 78 47 b6 b8 65 71 1f 38
       5.4956734e-05 2.2917351e-05 -8.6917484e-05 3.801416e-05

exp_avg_sq f4 [64]
000000 d9 c3 9c 34 9a 28 bb 34 63 61 a6 34 1f 49 13 35
       2.9199762e-07 3.4861006e-07 3.0990768e-07 5.486817e-07
000010 d4 42 e5 34 8d 92 03 35 80 d3 84 34 12 6c 8b 34
       4.2703198e-07 4.901456e-07 2.4740802e-07 2.59694e-07
000020 87 f1 9a 34 59 1d ab 34 ba 8c 13 35 43 99 9a 34
       2.886047e-07 3.1872585e-07 5.496655e-07 2.8796248e-07
000030 91 6c 96 34 91 5a f2 34 8e 9c e2 34 1e 80 80 34
       2.801867e-07 4.5141908e-07 4.220969e-07 2.3935075e-07
000040 4e e2 cc 34 60 81 80 34 ed 57 8c 34 e3 32 ce 34
       3.816262e-07 2.393599e-07 2.6141007e-07 3.8407515e-07
000050 34 3a ae 34 98 e3 bd 34 24 5d e7 34 24 bf 94 34
       3.2452374e-07 3.536959e-07 4.3094872e-07 2.770622e-07
000060 97 4d 32 35 6e 57 ce 34 b8 f3 2c 35 6b 60 0f 35
       6.6423075e-07 3.8434104e-07 6.442965e-07 5.341196e-07
000070 eb 9a 10 35 05 2e cf 34 b9 c2 05 35 2d e9 6d 34
       5.3869616e-07 3.8590238e-07 4.982972e-07 2.2157174e-07
000080 ba db ac 34 60 42 b5 34 d1 a4 11 35 70 1c a0 34
       3.219737e-07 3.376217e-07 5.425655e-07 2.9823013e-07
000090 63 a2 be 34 3b 28 fd 34 ce 73 d5 34 6d 15 bd 34
       3.550841e-07 4.7154194e-07 3.97586e-07 3.5219583e-07
0000a0 3c 57 ae 34 bd 79 bc 34 c0 c1 b0 34 6d 4a bd 34
       3.2473497e-07 3.5106305e-07 3.2923526e-07 3.5258145e-07
0000b0 7a 56 8f 34 00 e9 b3 34 74 0a 31 34 bb 73 b0 34
       2.6698746e-07 3.3510878e-07 1.6488212e-07 3.286676e-07
0000c0 48 e1 5d 34 1f bf 84 34 e5 ef 9c 34 15 6c 91 34
       2.0664186e-07 2.4725975e-07 2.923181e-07 2.7086995e-07
0000d0 40 bf c9 34 36 16 02 35 c1 1c 36 34 d3 0c aa 34
       3.757832e-07 4.8461095e-07 1.6960531e-07 3.1674298e-07
0000e0 70 c7 aa 34 83 d8 dc 34 45 a8 e9 34 12 56 a9 34
       3.1810077e-07 4.1135726e-07 4.3522064e-07 3.1541327e-07
0000f0 2f fd 61 34 e0 fe cd 34 86 53 94 34 2d 53 bf 34
       2.1046866e-07 3.8369672e-07 2.762792e-07 3.563704e-07

exp_avg f4 [28, 64]
000000 87 ba 93 39 5f 00 cf 36 87 b1 97 b9 d9 77 8b b7
       0.00028177 6.169124e-06 -0.00028933233 -1.66259e-05
000010 fb c3 a6 b8 0c 76 38 b7 4c 09 b9 39 b8 1b 2c b9
       -7.952001e-05 -1.099474e-05 0.00035292876 -0.00016413524
000020 df 06 9a b8 0e 91 b3 39 05 46 8e b8 69 c5 e1 b8
       -7.344572e-05 0.00034249615 -6.78413e-05 -0.000107656066
000030 9f aa 2e 38 06 cd 5a 39 82 be 29 b9 e2 5f 58 b9
       4.1643736e-05 0.00020866477 -0.00016188066 -0.00020635084
000040 c8 1e 3a b9 cd a2 04 3a 6f d7 88 b9 e8 05 fe b8
       -0.00017749809 0.00050596596 -0.00026100452 -0.00012112764
000050 0a 3b 8d 39 2c 1e 93 35 3f c8 43 b8 99 f0 9c 37
       0.00026937603 1.0961135e-06 -4.6678117e-05 1.8708686e-05
000060 16 b6 03 b9 e2 8a c3 b8 1c 52 a3 37 76 a6 9d b8
       -0.00012560966 -9.3241935e-05 1.946935e-05 -7.517349e-05
000070 21 c2 b2 b8 e0 20 64 b9 79 6d 45 b9 33 0d 50 37
       -8.523861e-05 -0.00021756021 -0.00018828166 1.2400839e-05
000080 80 d6 d4 36 8c b6 a8 39 2b 9a 92 35 06 bc 4b b8
       6.3430634e-06 0.00032179465 1.0922716e-06 -4.8574082e-05
000090 18 23 a3 b8 35 0e e3 37 3b 98 e2 b9 0d 6d a6 b8
       -7.7789824e-05 2.7067124e-05 -0.000432195 -7.935809e-05
0000a0 8f 7d a7 37 50 a8 4d 39 bb bd 96 b8 0e fd 46 b9
       1.996642e-05 0.00019613025 -7.1878974e-05 -0.00018977022
0000b0 ec ec 04 b8 52 6e a4 39 f8 54 a8 b9 05 02 65 b9
       -3.1691903e-05 0.00031362713 -0.00032106764 -0.00021839894
0000c0 b3 1f a6 b7 fa 0a 17 39 ac b0 a4 b9 0c 0a c4 39
       -1.9803503e-05 0.00014404571 -0.00031412148 0.0003739152
0000d0 82 8a 7a b9 dc 8b c7 b8 ca 47 2c b9 7d 33 df b8
       -0.00023893456 -9.51511e-05 -0.00016429942 -0.00010643059
0000e0 22 2d e9 b9 f5 f3 0b 39 c9 35 ce 38 58 7e 01 b8
       -0.0004447485 0.00013346954 9.832864e-05 -3.0873663e-05
0000f0 2f 20 4f b9 a1 5c a8 39 76 71 3b 38 18 48 1a b7
       -0.00019753048 0.0003211247 4.4689943e-05 -9.195901e-06
000100 ee 19 69 b9 f2 e6 a3 b9 d7 67 c0 b8 84 b9 88 b9
       -0.00022230271 -0.0003126185 -9.174615e-05 -0.0002607816
000110 1a 2f d4 b8 0f 72 50 b9 4f 54 f3 37 f6 6d 29 b8
       -0.00010117721 -0.00019878916 2.9007117e-05 -4.039515e-05
000120 f0 6e ba b8 a7 da 04 b9 64 eb 65 b9 5a c3 ea b8
       -8.889835e-05 -0.00012669955 -0.00021926832 -0.000111943766
000130 4f 09 ca b8 61 8a 4e b9 0e 76 79 b8 0b 0f d1 b8
       -9.6338445e-05 -0.00019697241 -5.9476173e-05 -9.9686986e-05
000140 14 ab 91 37 e3 48 3d b5 5d 2c 1c b9 c4 df d3 b8
       1.7365011e-05 -7.051405e-07 -0.00014893846 -0.000101029436
000150 e0 05 8f b9 e3 ee b3 b9 9a 5f 44 b9 99 86 b4 b9
       -0.00027279463 -0.00034319525 -0.00018727631 -0.00034432558
000160 86 4f 71 b8 79 18 03 ba 8f fb 2c b9 79 da 1e b7
       -5.753294e-05 -0.00050009 -0.00016496911 -9.468401e-06
000170 00 f3 75 38 7a 20 00 ba 80 ef da 38 25 59 d1 b8
       5.8638863e-05 -0.0004887652 0.000104396604 -9.982501e-05
000180 ee dc e0 b9 3c a2 af b8 28 9f a6 b8 4c 16 60 b9
       -0.00042889215 -8.374869e-05 -7.945142e-05 -0.00021370611
000190 c1 7e 87 b9 be 94 d0 b9 c5 4a 1b ba cd 3c 75 b9
       -0.00025843646 -0.00039783673 -0.0005923922 -0.00023387671
0001a0 1e 01 13 ba f0 06 59 b9 e4 a2 37 b9 77 21 b8 b9
       -0.00056077715 -0.00020697317 -0.00017512921 -0.00035120148
0001b0 2f 1f 07 ba cc dc e7 b9 b3 f4 d8 36 05 56 54 b7
       -0.0005154488 -0.0004422426 6.4657884e-06 -1.2656213e-05
0001c0 c6 ef b5 b7 fe fe 9c 38 73 11 60 b9 e6 f7 ea b8
       -2.1688535e-05 7.486156e-05 -0.00021368805 -0.00011204164
0001d0 91 59 b6 b9 8f b1 c7 b9 60 65 df b9 cf 13 91 b8
       -0.00034780477 -0.0003808853 -0.00042609405 -6.9178284e-05
0001e0 5e 94 66 b9 83 4c 31 b8 e3 71 1f b8 1c c2 2f b8
       -0.0002198978 -4.2271346e-05 -3.801462e-05 -4.190403e-05
0001f0 26 3f 92 b9 35 30 cd b9 8d 7b 93 b7 e1 98 63 37
       -0.0002789434 -0.00039136564 -1.7581298e-05 1.3565849e-05
000200 7c 45 9b b9 0f 75 8f b9 8c 0f 26 b7 75 19 4c 3a
       -0.00029615674 -0.000273623 -9.897991e-06 0.0007785776
000210 85 1a e3 b5 32 ee 29 b9 71 45 0a 39 8f 5b da b8
       -1.6920536e-06 -0.0001620583 0.00013186575 -0.00010412104
000220 19 e1 8d 39 03 29 17 3a 22 55 95 39 cd 3d 27 b9
       0.00027061327 0.0005766304 0.00028482924 -0.00015949384
000230 6d 80 50 3a 8f 2f a1 3a 5e a9 a9 b9 f0 56 e3 b8
       0.0007953707 0.0012297499 -0.0003236038 -0.00010840397
000240 f4 84 31 3a 31 99 38 39 4f 6a 59 39 92 f7 be 3a
       0.0006771826 0.00017604676 0.00020734336 0.0014569631
000250 e2 0e 83 b9 7a e0 0c b7 8d 06 84 b9 2d 51 87 39
       -0.00024997356 -8.396915e-06 -0.00025181883 0.00025809687
000260 5e 9e d5 38 19 84 6c 3a b5 39 4f b9 cf 0a 75 b9
       0.0001018613 0.00090223696 -0.00019762556 -0.00023369047
000270 a9 d3 1f 3a 15 f7 fd 37 6f ea fc b8 fa bc 59 b8
       0.00060969085 3.0275007e-05 -0.00012059963 -5.191283e-05
000280 5d c7 1d b8 de 8b cf 37 ec c8 0e 3a 55 83 71 3a
       -3.761739e-05 2.4741454e-05 0.000544681 0.00092129904
000290 d5 1d 4b 39 62 9b 95 b7 a5 1f ab 39 48 2e 57 3a
       0.00019370702 -1.783454e-05 0.0003263924 0.00082084956
0002a0 3e 5b 0b b8 b3 89 f7 b8 9b ba 10 3a ff 6d d4 39
       -3.322516e-05 -0.00011803526 0.00055209704 0.00040517744
0002b0 58 37 e1 b8 af 63 79 39 d8 73 bb b6 cb 13 3f 3a
       -0.00010739145 0.00023783626 -5.5865203e-06 0.0007289021
0002c0 f0 39 a8 37 d8 f1 16 ba e0 23 24 3a f2 99 35 37
       2.005414e-05 -0.00057580834 0.00062614493 1.0824284e-05
0002d0 84 bb 8b 3a 20 8c 8a 37 90 a7 0f b7 a5 b9 d9 36
       0.0010660742 1.6516133e-05 -8.562478e-06 6.488716e-06
0002e0 c5 7c 04 b9 32 28 7e 3a fc 2e 49 37 09 de 7a 39
       -0.00012634981 0.00096953206 1.1991473e-05 0.00023924572
0002f0 7c ae c7 37 d9 49 a8 39 c0 7b cb b9 7d 2b 22 37
       2.38039e-05 0.00032098478 -0.00038811378 9.666078e-06
000300 cc d8 33 37 58 2b d5 b7 d6 84 7b 39 b0 c1 82 b8
       1.0719708e-05 -2.5411762e-05 0.0002398671 -6.23496e-05
000310 80 71 f2 38 51 c7 19 b8 65 c8 ad 38 69 86 42 b6
       0.000115606 -3.666367e-05 8.286609e-05 -2.898649e-06
000320 9a 7b a8 38 e6 f9 6c b7 72 ec 1f 38 66 a6 80 b6
       8.033887e-05 -1.412488e-05 3.812876e-05 -3.8340686e-06
000330 d9 56 93 b9 aa f2 1e 39 b1 be b6 38 09 fb 95 38
       -0.0002810273 0.00015158454 8.713955e-05 7.1516326e-05
000340 7c 17 58 b7 89 51 7c b7 e7 d4 4d b7 c9 7b 5f b5
       -1.2880071e-05 -1.5039354e-05 -1.2268522e-05 -8.3254105e-07
000350 ad 3c 27 39 f7 77 26 b7 4f 6e c2 b7 b2 fa 12 b8
       0.00015948965 -9.9223025e-06 -2.3177969e-05 -3.504259e-05
000360 a6 55 78 39 f2 c5 5f 37 40 75 08 39 e3 e7 81 33
       0.0002368303 1.33379235e-05 0.0001301365 6.0492106e-08
000370 a4 ab e2 b6 c6 15 25 38 d7 61 dc 38 98 3f 14 b7
       -6.7553065e-06 3.9359344e-05 0.000105086416 -8.836294e-06
000380 b1 5e cd 37 17 d3 f0 38 9d a6 ed b7 e9 24 a7 38
       2.4481998e-05 0.0001148341 -2.8330187e-05 7.9700556e-05
000390 d2 40 d4 b7 ab 90 e9 34 65 45 2f 39 4a 6d 94 38
       -2.5302554e-05 4.3504892e-07 0.00016715152 7.0775466e-05
0003a0 f7 c4 bd b7 fa d0 4e b7 42 0c d5 b7 1c 1d c7 b6
       -2.2622275e-05 -1.2327213e-05 -2.5397287e-05 -5.934051e-06
0003b0 7b e9 fe 37 57 4c 56 39 86 68 df b5 b4 2d eb b8
       3.0387882e-05 0.00020437069 -1.6645215e-06 -0.00011214186
0003c0 71 92 0c 39 e5 3c da b7 c6 99 c3 37 b6 fa 01 39
       0.00013405994 -2.6015981e-05 2.3317418e-05 0.00012395796
0003d0 67 eb 82 b6 ef 04 f3 36 cb 29 34 b5 d0 d9 52 b8
       -3.9017064e-06 7.2425387e-06 -6.711604e-07 -5.0270755e-05
0003e0 27 0b 5a b8 4c b0 2a b8 c2 2f d8 37 79 24 d6 b5
       -5.1985637e-05 -4.0695348e-05 2.5771446e-05 -1.5954857e-06
0003f0 6f 5f 02 37 56 02 b8 b7 6a 4e a2 b8 76 a0 30 b8
       7.770824e-06 -2.1935597e-05 -7.739368e-05 -4.211111e-05

exp_avg_sq f4 [28, 64]
000000 75 ed 0c 35 b2 d3 15 34 63 cc c3 34 08 0b 1c 34
       5.249961e-07 1.395372e-07 3.647029e-07 1.4532645e-07
000010 a0 d9 80 34 4f fc d9 33 62 e3 11 35 6b 87 cb 34
       2.40002e-07 1.01507446e-07 5.4347595e-07 3.7910226e-07
000020 ef 21 9e 35 00 2e 8e 34 bd ef f3 33 84 94 8a 34
       1.1781793e-06 2.648303e-07 1.13591774e-07 2.5812562e-07
000030 d9 22 81 34 54 29 3b 35 53 0a a7 35 1f eb 81 34
       2.4053477e-07 6.972307e-07 1.2445474e-06 2.4199196e-07
000040 50 62 7f 34 e6 63 e9 34 2f da 08 35 b7 b6 35 34
       2.3784492e-07 4.3472318e-07 5.0981447e-07 1.692341e-07
000050 24 d6 be 34 2e c6 05 34 1a 2d 1e 34 b5 fd 99 34
       3.5546066e-07 1.2458688e-07 1.4731305e-07 2.8683067e-07
000060 bf 85 dc 33 6a 2d 27 35 ae 9e 71 34 3b 1d 02 35
       1.02688766e-07 6.2278434e-07 2.2502601e-07 4.847131e-07
000070 0c fc 1a 34 a2 55 53 34 f0 b5 82 35 36 e0 89 33
       1.4434062e-07 1.968206e-07 9.738706e-07 6.4203434e-08
000080 e1 97 c7 33 40 98 8a 35 23 dd 07 34 bc 43 5b 35
       9.294286e-08 1.0326112e-06 1.2653304e-07 8.1682424e-07
000090 3b 10 5a 34 70 83 64 34 e9 c4 88 35 e4 48 34 34
       2.0308737e-07 2.1281971e-07 1.0190098e-06 1.6790324e-07
0000a0 f9 2a 48 34 b5 9f f5 33 71 0b ab 33 cc a5 28 33
       1.8642085e-07 1.1437752e-07 7.964889e-08 3.926634e-08
0000b0 d3 01 37 35 7b 11 08 35 93 24 c8 34 cf c2 24 34
       6.8175467e-07 5.0689385e-07 3.7279514e-07 1.5344561e-07
0000c0 e1 b1 17 34 5a a6 17 35 eb 00 13 35 ef 5f 0e 35
       1.4127683e-07 5.6493957e-07 5.4763103e-07 5.3038724e-07
0000d0 f7 6a 40 34 1d 45 5f 34 a0 a0 66 34 b4 39 f5 33
       1.7920307e-07 2.0793637e-07 2.1478854e-07 1.1419198e-07
0000e0 88 dd e6 34 81 48 b4 35 e5 53 3c 35 76 f7 0a 34
       4.3002024e-07 1.3432146e-06 7.015754e-07 1.2942277e-07
0000f0 47 13 54 34 45 d4 c6 34 6f 2e 98 34 35 5a 72 35
       1.9751052e-07 3.703482e-07 2.834599e-07 9.0283294e-07
000100 c3 3f c1 33 c9 d5 0f 35 fa fb 63 34 43 71 6b 35
       8.998861e-08 5.358275e-07 2.1232691e-07 8.770914e-07
000110 79 5d e8 34 39 7b 00 34 c4 3e 16 36 15 0f fd 34
       4.3281378e-07 1.1965757e-07 2.2388276e-06 4.7135896e-07
000120 d9 26 09 35 9d 7a 05 35 75 09 80 34 d8 ec b9 34
       5.109301e-07 4.9724787e-07 2.384874e-07 3.4631262e-07
000130 56 b9 00 35 20 45 e8 34 59 9a 3d 34 ed 37 72 35
       4.7953415e-07 4.3263663e-07 1.7658148e-07 9.023341e-07
000140 2d da 71 34 46 d6 10 34 a5 43 c5 35 63 9d 81 35
       2.2524246e-07 1.3488997e-07 1.4697331e-06 9.657055e-07
000150 19 e2 e3 34 9d de d0 34 2f 3e 83 34 45 a4 c8 34
       4.2446553e-07 3.8904992e-07 2.4445896e-07 3.7372425e-07
000160 77 c2 ce 34 3f 87 9a 34 98 80 1c 35 1f 7f 9d 35
       3.8511982e-07 2.878314e-07 5.830166e-07 1.1734409e-06
000170 0d b7 c7 34 5a 8f f4 35 b7 3a a7 35 05 2b de 34
       3.7199825e-07 1.8221137e-06 1.2459558e-06 4.1382023e-07
000180 77 a5 48 35 26 7e ce 34 80 26 61 34 e4 77 15 35
       7.474659e-07 3.8462275e-07 2.0968764e-07 5.568129e-07
000190 70 d3 9f 34 7a ec 8e 35 24 ba 20 36 6b 92 39 34
       2.97699e-07 1.0648648e-06 2.3950206e-06 1.7282734e-07
0001a0 c5 ac 6f 35 a7 b0 7e 34 c2 39 13 34 77 38 2c 36
       8.928585e-07 2.3719859e-07 1.3711454e-07 2.5662864e-06
0001b0 20 60 22 36 87 d4 45 35 9e 4e c2 34 89 ba ce 34
       2.4195833e-06 7.3697487e-07 3.6192517e-07 3.8506212e-07
0001c0 30 88 d9 33 17 2c d1 34 fc bc 8a 34 1e 33 2a 34
       1.0129622e-07 3.8961363e-07 2.5842007e-07 1.585108e-07
0001d0 89 3c 81 35 d3 aa 54 35 6e 55 23 35 60 43 5f 34
       9.628867e-07 7.9224736e-07 6.084655e-07 2.0793004e-07
0001e0 69 75 87 34 9e 8d e3 35 b4 8d 00 34 1b 4c 9e 34
       2.5231137e-07 1.6954034e-06 1.197248e-07 2.9485167e-07
0001f0 5f dc 93 34 c5 94 34 35 68 94 84 34 f3 9e 9e 34
       2.7541225e-07 6.7271714e-07 2.4694896e-07 2.9545444e-07
000200 d4 fa f9 34 27 7c c8 34 97 c4 1d 35 bd a0 16 35
       4.6562366e-07 3.7343236e-07 5.8773134e-07 5.611326e-07
000210 21 b2 59 34 20 16 2f 35 8d 2b 57 35 af be e0 34
       2.0274503e-07 6.5224776e-07 8.0157116e-07 4.1861992e-07
000220 03 62 af 35 29 82 82 35 ad 48 8c 34 cb ab 31 35
       1.3067041e-06 9.723636e-07 2.612991e-07 6.618763e-07
000230 12 c7 28 36 11 2a ed 35 4c a3 56 35 f6 42 ea 34
       2.5149825e-06 1.7670119e-06 7.995884e-07 4.3634617e-07
000240 bf 52 a2 35 8c b2 ae 35 fe d7 00 35 a9 0d f0 35
       1.2094023e-06 1.3015974e-06 4.7998026e-07 1.7885369e-06
000250 a1 ca 22 35 de 95 44 34 fe 68 0c 35 df 14 46 35
       6.0644567e-07 1.8308444e-07 5.230685e-07 7.379112e-07
000260 3f 97 3d 34 cc 9c 9f 35 53 db 8a 34 c6 33 97 35
       1.765702e-07 1.1892057e-06 2.5864082e-07 1.1265445e-06
000270 58 30 7a 35 49 1f 0b 35 39 27 81 35 e6 5a 77 34
       9.3202607e-07 5.182706e-07 9.622664e-07 2.3036736e-07
000280 0a 37 91 34 da 2a 5f 36 8e 4c 3e 34 69 24 73 36
       2.70484e-07 3.3254532e-06 1.772298e-07 3.6231015e-06
000290 cc 4a b9 35 eb 7a 9e 34 fd 07 d9 35 28 cc 1e 35
       1.3805343e-06 2.9519228e-07 1.6170085e-06 5.9156673e-07
0002a0 75 93 d8 34 c1 c9 bc 34 a9 a1 b2 35 a0 c6 8e 34
       4.0340424e-07 3.5164524e-07 1.3309083e-06 2.659408e-07
0002b0 a4 b4 f6 34 ff da 9c 35 18 19 c9 34 65 f8 5d 35
       4.5952504e-07 1.1686642e-06 3.7457426e-07 8.269038e-07
0002c0 1d 52 08 35 3b 1d a6 35 14 02 5e 35 e0 65 37 36
       5.078344e-07 1.2376471e-06 8.270447e-07 2.7328424e-06
0002d0 e6 02 48 35 b9 9c 63 35 1e 32 35 34 a0 a7 48 34
       7.4510024e-07 8.479215e-07 1.6875171e-07 1.8687433e-07
0002e0 28 49 83 34 04 9f 14 36 b8 fc 30 35 97 33 8b 34
       2.445388e-07 2.2146278e-06 6.5932863e-07 2.5928304e-07
0002f0 98 02 b6 34 15 6a 57 35 ba f4 fa 34 88 5e 52 35
       3.390203e-07 8.024811e-07 4.674419e-07 7.836866e-07
000300 69 0f d5 33 11 d0 8a 33 e7 dd 0f 34 99 67 65 34
       9.9213885e-08 6.463973e-08 1.339864e-07 2.1364976e-07
000310 60 a1 a4 34 62 7e 90 33 6b 8c 64 32 08 32 55 34
       3.0664796e-07 6.7285114e-08 1.3303274e-08 1.9855372e-07
000320 11 5a a3 33 c6 80 21 33 b5 1f 4a 34 96 76 15 33
       7.606662e-08 3.7602852e-08 1.8824251e-07 3.479962e-08
000330 fb 93 5f 36 55 fe 3c 34 d3 25 2b 34 bf 49 99 32
       3.3315725e-06 1.760139e-07 1.5939376e-07 1.784508e-08
000340 57 46 8b 33 7a c2 94 32 08 25 a8 33 b4 c3 3c 33
       6.4854866e-08 1.7317905e-08 7.8298456e-08 4.3950152e-08
000350 ee de a7 33 6c a0 a5 33 0b c9 12 34 e0 a8 90 33
       7.817094e-08 7.712592e-08 1.3670449e-07 6.736241e-08
000360 3f b4 1d 33 41 97 34 31 85 2d 0f 33 b7 88 fa 32
       3.6718344e-08 2.6279425e-09 3.3336182e-08 2.9166001e-08
000370 2b a5 d2 34 11 3e da 32 6d df 99 33 8b 19 b6 31
       3.9235724e-07 2.5406765e-08 7.1652586e-08 5.299801e-09
000380 b3 c3 25 32 33 1b 0a 33 99 91 1d 34 41 f7 4e 32
       9.648761e-09 3.2155366e-08 1.4674733e-07 1.2046997e-08
000390 2d bd 1a 33 5e 3a 7a 32 c9 6f 8f 32 ea d9 f7 34
       3.6027973e-08 1.4565186e-08 1.6698225e-08 4.6165889e-07
0003a0 52 2e 8e 33 f6 ee 4d 34 6a 22 8d 33 00 23 ed 32
       6.620816e-08 1.9179046e-07 6.572084e-08 2.7606347e-08
0003b0 ab b1 a3 32 cd 32 c9 33 27 15 96 32 57 5c e5 35
       1.9056491e-08 9.3690325e-08 1.7471917e-08 1.7088704e-06
0003c0 50 9d 0e 34 9c 51 d4 33 d1 be dc 33 d3 ae b9 32
       1.328201e-07 9.886864e-08 1.02792576e-07 2.1616335e-08
0003d0 23 c8 83 32 26 9f 2e 33 40 41 88 31 61 95 c0 33
       1.5341419e-08 4.0657277e-08 3.965539e-09 8.9678686e-08
0003e0 76 dc b8 34 cd a2 96 34 0d 06 55 33 11 11 10 32
       3.4433077e-07 2.805813e-07 4.959843e-08 8.385784e-09
0003f0 3a c1 50 32 62 ad ff 33 c7 cd 84 34 58 b0 3c 34
       1.2151128e-08 1.1905901e-07 2.473664e-07 1.7573018e-07
