lightning_logs/version_15/checkpoints/epoch=29-step=38070.ckpt (torch, 247971 bytes, 12 tensors)

MLP.0.weight f4 [64, 284]
00000000: 022d b53e 1818 ad3d 1f32 a0bd 3322 6cbe
00000010: ba05 2cbe 1ece 57bc 65c2 9d3c ee83 f6bc
00000020: 6d0c 0dbe d843 98be 6a6b 273f ad46 ffbe
00000030: 987d ddbe 67e1 f43d fdfe dbbe 07cb 093f
00000040: b59a b93d b719 823e 6320 ab3e 4660 5c3e
00000050: 4a5f cdbe 6a4a b8be 410a 09be 115f f03e
00000060: 771a 42bc c857 fd3d 2695 cbbe c1a2 a6be
00000070: 42e1 9d3e a599 ea3c 3bad 38be a778 183f
00000080: 7599 b33c 5d78 3abb b37e 8bbd 708e 4abe
00000090: ef83 5c3c be12 9ebd aa9b cdbe 4284 6fbe
000000a0: cb2e b63e 415a 183e 6f80 773e 690c a3bd
000000b0: a14d a4bd 8df8 41bf 8b49 8cbd a7ba c8bd
000000c0: 908b fe3d 2ecc 9f3d ef1b e53e 532e 7abe
000000d0: e408 98be 1407 773d 0b22 80be 7572 63bf
000000e0: eb31 0fbe a99d 87be bbe7 883e 504d c9bd
000000f0: 87d3 8b3d 970a edbd f5e9 823e 2cf9 333f
00000100: 01c4 5b3e 5d95 963e 8b33 d13e faae 1dbe
00000110: 843e 77be 3ab1 0dbd e3b6 c1bd e849 723d
00000120: 7947 9d3d 9804 f63d 9cdd debe 382b e2bd
00000130: 45b3 99be 67f1 08bd 7dea 2d3e 34d0 31bf
00000140: fbfa c1bd 43c9 fc3e e0b0 36be bbb3 7bbe
00000150: 5c20 1f3e bd83 08bc a616 023e 7c04 c33e
00000160: f75e 673d f162 233f dbd5 87be 002d 0abc
00000170: 73fb b6be 14eb 2f3e 0f30 173f 49fb e73d
00000180: bc43 8dbd 72b6 c03e 83f4 4b3e c70a a6be
00000190: 2eb1 1d3e 4b99 813e 28fe 003e b646 103f
000001a0: 6314 1dbe 842a b3be cdbe c23d e284 a9be
000001b0: 8496 2e3f 0d52 303e 6358 16bf 6524 a6bc
000001c0: 24c6 c03e bd6a 7cbe ff1b 3b3e 8a10 5d3e
000001d0: c69f 9f3d ee96 3b3f 7e4c 0dbe 5392 db3e
000001e0: adb5 2fbe 9274 bebe 41a2 2bbf 0d29 713f
000001f0: cf1c 92be 4042 64bd 292f 69be 86a1 c63d
00000200: 486b c23e 6453 aa3e 66db cbbe 3770 153f
00000210: f0e3 04bf 82cd f83e 6599 d13e 4ba5 65be
00000220: 54c4 313f e9f8 e33e 197f bbbd 8ad2 b4be
00000230: 9dd9 c83e 9cdd e9be 3398 f5be 3341 e1be
00000240: 4f26 1a3f 7412 cd3e bf6b 34be 2d3e 70bd
00000250: 8642 283f afaa 1fbc 103b ee3e e5d0 d33e
00000260: b8db 40bd 2258 a73c 8a3f a83e 3b1a 6ebe
00000270: ce74 89be d0cd 13bf 4459 e3bd 2936 edbe
00000280: ac9d d93e 8cd0 d03e 8cd4 973e cc36 1b3e
00000290: 91a2 24bf 8ad6 18bd d516 f93e 0829 a53c
000002a0: 21f7 86be 58dd 69be 3d52 e7be ac7e 36bf
000002b0: 5794 dcbe e5d7 a3be 05aa 17be 0341 ea3e
000002c0: b821 e63e df34 8e3e e245 663d 68f7 363f
000002d0: 2e18 b8be 65b0 8ebe b05c 00be 6a2d ffbe
000002e0: f05d 2b3f 1989 98be bc9c 8fbe 46d4 43bc
000002f0: 7815 723d e3af 59be 649d 14bf ba68 bbbe
00000300: 6a4a 953e e821 48be bc77 c63e 8463 c2be
00000310: 3f1a 0f3f 81ad ad3b d32d 5fbe 3618 c0bc
00000320: 3a3e e9be 19ee 2c3f 2697 2a3e acb9 97be
00000330: bf59 c13e 8409 b63e 2357 453f a0e9 e53e
00000340: 763f 8ebd 321d bf3e ff00 9abc 260c 7f3e
00000350: ca09 27bf e6bd 4a3f 57b0 2fbd d07e c4bd
00000360: 5b9f 0bbf d99f 3a3f 415a f5be 5944 edbe
00000370: 7bd9 3dbe 43de 95be d3ab 19bd fff6 4cbf
00000380: 1179 203c cd0c 443e 11d5 b5be 7c7e 10bf
00000390: d95b 36bc 4a4c f93e 1896 63be 95ae c93e
000003a0: a8b4 96be a331 b83e d72e 853d db68 1c3c
000003b0: 4554 a83d 97d0 6e3f a5fa dbbe 282b 113e
000003c0: e6d5 04bf 5e0c b83d 2033 babe eb83 403e
000003d0: 8c2b f4be 8d94 d7bd 987c ddbe d8cd 20bf
000003e0: da0b 383e b737 c2bd be55 fc3d 46f4 c03e
000003f0: e666 303d 4c2d 5dbe 844a 2a3e 7c8d b5be
0.353859 0.08451861 -0.0782206 -0.23059921 -0.1679906 -0.013171701 0.019257734 -0.030092206
-0.13774271 -0.2973926 0.65398276 -0.4985861 -0.43259883 0.119570546 -0.42967978 0.5382542
0.09062711 0.25410244 0.33423147 0.215211 -0.40111762 -0.35994273 -0.13382818 0.4694753
-0.01184713 0.123702586 -0.3976223 -0.32546046 0.3083592 0.028637717 -0.18034832 0.595591
0.02192376 -0.002845309 -0.06811275 -0.19780898 0.01345919 -0.077184185 -0.40157825 -0.23390296
0.35582575 0.14878179 0.24170087 -0.079613514 -0.08022619 -0.75769883 -0.06849965 -0.09801226
0.12428963 0.07802616 0.44747874 -0.24431734 -0.29694283 0.060309485 -0.25025973 -0.8884652
-0.13983886 -0.26487473 0.26739296 -0.09829199 0.06827455 -0.115742855 0.2556912 0.7030208
0.21461488 0.2941083 0.40859637 -0.1539878 -0.24144942 -0.034592845 -0.09458711 0.059152514
0.07679648 0.12012595 -0.4352845 -0.110433996 -0.30019584 -0.033433344 0.16983981 -0.6945832
-0.09471699 0.493723 -0.1784091 -0.2458028 0.15539688 -0.00833219 0.12703952 0.3808936
0.05648705 0.6382285 -0.26530346 -0.00843358 -0.35738716 0.17179519 0.59057707 0.11327226
-0.06897685 0.37639195 0.19917493 -0.32430097 0.1539962 0.25312266 0.12596953 0.56357896
-0.15339808 -0.34993374 0.095090486 -0.33109194 0.6819842 0.172188 -0.5872862 -0.020281026
0.3765117 -0.24650092 0.18272398 0.2158834 0.07794146 0.73277175 -0.1379871 0.42885074
-0.17159148 -0.3719831 -0.67044455 0.94203264 -0.28537604 -0.055727243 -0.22771896 0.09698777
0.37972474 0.33266747 -0.39815825 0.5837435 -0.51910305 0.4859429 0.40937343 -0.22426336
0.694402 0.4452584 -0.09155101 -0.3531688 0.39228526 -0.45676887 -0.4796768 -0.43995056
0.60214704 0.4005314 -0.17619227 -0.058653045 0.65726507 -0.009745284 0.46529436 0.4137031
-0.04708454 0.020427767 0.32860976 -0.23252194 -0.26846927 -0.5773592 -0.111010104 -0.46330383
0.42503107 0.4078411 0.29654348 0.15157622 -0.64310557 -0.037313975 0.48650232 0.020161167
-0.2636042 -0.22838342 -0.4517993 -0.71287036 -0.43081924 -0.32000652 -0.14810951 0.45752725
0.449476 0.27774712 0.05621899 0.7147126 -0.35955948 -0.27868953 -0.12535357 -0.49839336
0.6694021 -0.29792097 -0.28049266 -0.011952465 0.059102505 -0.21258502 -0.5805266 -0.36603338
0.29158336 -0.19544184 0.38763225 -0.3796655 0.55899423 0.0053002243 -0.21794824 -0.023449045
-0.45555288 0.6755081 0.16659221 -0.29633844 0.37763783 0.35554135 0.77086085 0.44904804
-0.06945698 0.37326962 -0.018799303 0.24906978 -0.6524931 0.7919601 -0.04289278 -0.095945
-0.5454003 0.7290016 -0.4792042 -0.46341208 -0.18539993 -0.29271135 -0.03751738 -0.80064386
0.0097944895 0.19145508 -0.3551412 -0.56443 -0.011130297 0.48691016 -0.22225225 0.39391008
-0.29434705 0.3597537 0.065030746 0.009546484 0.08219198 0.9328703 -0.42964664 0.14176619
-0.51888883 0.08986734 -0.3636713 0.18800323 -0.47689474 -0.10526381 -0.4325912 -0.6281409
0.17973271 -0.09483283 0.123210415 0.37686366 0.04306688 -0.2159931 0.16629988 -0.35459507

MLP.0.bias f4 [64]
00000000: 1c89 013f ef58 123f 6c84 d63e 84cb 3b3f
00000010: f778 d43e 387a 263f 6bef d53d d033 db3e
00000020: 5283 003f 8a1e d13e 1214 103f 6e52 073f
00000030: 79e4 103e 9b1d 223f 8e81 e83e feb2 743e
00000040: 9a34 c23e a794 d43e f88f 013f 7a49 df3e
00000050: 67bc c13e c8d0 953e a8b3 c93e 5064 083f
00000060: 3e9a be3d 854b 303f 017c 9b3e 6f70 0a3e
00000070: 9cec 2d3f 103d 0e3f b294 813f 1b83 2f3f
00000080: 19ad 4d3f b0ef 983e f38e d63e 267f 9a3e
00000090: 51e2 563c 49c8 833f 818c 523f f52c 483f
000000a0: 7e69 273f 5298 e23e d797 373f bd16 043f
000000b0: c866 d53e 6c2f 0d3f 39d7 343e 7af3 3e3f
000000c0: 41a3 3c3f 3051 313f b76c a43e 86a1 063f
000000d0: 0aab 443f 168a 753e 3268 d63e 8ec1 b73e
000000e0: 8522 8d3e 7938 623e 7a38 fa3e 70cb 333f
000000f0: 4ae0 3c3f aee5 133f 5791 003f 244d d93e
0.5059984 0.5716695 0.41897905 0.73357415 0.4149854 0.6503024 0.10446056 0.42812967
0.5020038 0.40843612 0.56280625 0.5286015 0.14149655 0.63326424 0.45411342 0.23896405
0.37930757 0.41519663 0.50610304 0.43610746 0.37839052 0.2926085 0.3939488 0.53278065
0.09306763 0.68865234 0.30368045 0.13519453 0.6793916 0.55561924 1.0123503 0.68559426
0.8034225 0.29870367 0.41905937 0.30175132 0.0131154815 1.0295497 0.8224564 0.781936
0.65395343 0.44256836 0.71716064 0.51597196 0.41679978 0.55150485 0.17660226 0.74590266
0.73686606 0.6926451 0.32114193 0.52590215 0.76823485 0.23978457 0.4187637 0.35889858
0.275654 0.22091855 0.48871213 0.70232296 0.7377974 0.5777234 0.5022177 0.42441666

MLP.2.weight f4 [28, 64]
00000000: aed0 27bf 89c9 91be 467a 0c3f b059 093f
00000010: 2fa8 ef3e 2946 083e 9683 103d feb5 a13e
00000020: a3b8 3c3f 2977 bdbf f36a 473d 8755 97be
00000030: dd9c d2be 1cfe abbf 3c32 62bf fbbe 2ebf
00000040: 825a 85bf 42bf 17bf cc23 513e 75d8 4a3e
00000050: 71dd a2bf 5bd9 4dbf 0b76 f2be 1385 1fbf
00000060: 0071 90be 1220 703f 7392 ebbf 8d32 83bf
00000070: 77af 263f f328 48bf 7b65 eebf 2b20 72bd
00000080: dd6d 4d3f 3e84 2abf ab26 35bf a09e 78bf
00000090: 6918 a93e a5ce 2c3f e195 053e a298 6f3f
000000a0: 6339 20bf f228 a53e 79a5 20bf 0f9a 64bf
000000b0: 7f69 1c3e 1e04 85bd 9eca ef3e c57b 75bd
000000c0: 7c53 0e3f c2a8 47be 2930 16bf 7b02 ac3e
000000d0: 4a05 003f eed7 353e 0ea2 acbf 5a28 213e
000000e0: 01a2 debe b3c6 cf3e da2f c53c 4845 c0be
000000f0: 8cd3 303f f99e c6bd 4ce8 36bf 9ad6 d6bd
00000100: 1eda 8fbe 650f 73bf da43 12bf 736c c13e
00000110: 7f34 213f 0599 8fbf bbbb 3fbf 9ebb b63e
00000120: 63c0 b5be f09e 2ebf 537d 6ebf 3036 1c3f
00000130: 5d2d 263f 8f92 9cbf 11e0 0f3d 9de4 eb3e
00000140: 930b 4abf 573d 40bf 1428 383f c06c 2b3f
00000150: af3b 303f 26da 35bf faec 93bf cc93 1e3f
00000160: 22e1 0d3f 10fc fa3e 0a26 693c 13b5 9cbe
00000170: 0c2c 28bf 8f73 00be 5d75 3e3f c2ed a83e
00000180: 2950 78be a939 cfbf 2c8f a7bf d63d a3bf
00000190: f688 43bf 6697 ac3e 0e4b 1b3f 104d 983e
000001a0: 8e56 7abe 8a84 54be cea1 aabf 9731 59bf
000001b0: d4e5 743e 4fd5 e5be 7aca 573e 16aa f1bf
000001c0: f974 333e 5eac 41be 2a12 293f e89c bdbe
000001d0: 35fa 3a3d 6236 2a3f 76f3 f93e 1051 e83e
000001e0: e8ff 33bf adac b0bf 259e c6bf 541c 093f
000001f0: e36b 9e3e 8626 9cbf f1cf 6e3e 7237 ef3d
00000200: 6a10 1b3e ae20 453e 5f80 1ebf c0e0 75bf
00000210: 72a5 13be 73d7 f2be 674d d0be c1be e93e
00000220: 69b9 15bf 25a5 12be e80b 79bf b399 473e
00000230: 9533 91bf 3393 e9bc ee7a ba3d 0bd7 32bf
00000240: dbce 11bf 7f32 73bf 76c6 97be 6f32 193f
00000250: f869 013f a7fe bc3e f748 d1be 6637 f83e
00000260: 5a67 47be 3e68 16bf 5118 a63c 0a8d 02bf
00000270: 7aab fb3e 2c50 cc3e 4809 89bf ab9a c8be
00000280: 96f7 de3e 412f d6bd fabc 83bf eea7 4a3f
00000290: c371 debe 7491 803e 732d 163f 3cb5 7dbf
000002a0: 51ed bc3e d66d 51bf 5349 033f 08df c83e
000002b0: 7b5b 563f 3b95 11bf b9a8 8fbf 7d0f 933d
000002c0: c6c3 29be 9f4a 40bf 2c05 a1be f7b1 093f
000002d0: 0078 dd3e 2640 20bf 512c 06be afb5 92bf
000002e0: e764 9cbc 923b 9f3e 263a 30bf 07b0 203f
000002f0: 2e73 34bf 8363 943e 7f0b 58bf 5e2c 153f
00000300: e961 82bf 923c 263d 1e22 81bf 915a db3e
00000310: a839 15bf 44ea 283f f9a7 85bf 26f6 8bbe
00000320: 35d2 b33e 1ea5 673f 2d91 68bf 5dbd 8d3e
00000330: 380b 653f a968 49be e4a8 adbf a329 9e3f
00000340: 92a5 febe 6e1d acbf 6bc5 c03c 85de f6be
00000350: 10dc 06be 0564 213e 0b54 ebbf 62e9 a2bf
00000360: dc0d c1bf cf05 8cbf 7417 823f c1cb 75bf
00000370: 0391 d9be a0d3 7ebe ba13 093f 82af 49bb
00000380: c502 21bf 4c5d d7bf 93fa 8c3f b428 fabe
00000390: 4494 6fbf a319 ff3e 7375 8f3e 53a9 a3bf
000003a0: 4f5a e9be ea7a ffbe 0314 0a3e 38f9 543e
000003b0: dab0 323f f8db bfbf 51ae ebbf 3382 c33e
000003c0: 9b61 913f 2159 033f 570b e13e e027 c0be
000003d0: 9c27 8bbf 3658 eabf 518f e23b 5c88 8cbf
000003e0: 222d 0dc0 34e2 e93e ec37 ac3e f0c4 43bd
000003f0: 5f0b 71be 4749 aa3e 1bc3 f2bf 1062 ebbe
-0.65552795 -0.28474072 0.54874074 0.5365248 0.46808 0.13308014 0.03528174 0.31584162
0.73719233 -1.480199 0.04868598 -0.2955744 -0.41135302 -1.3436923 -0.883579 -0.68260163
-1.0418246 -0.5927621 0.20423812 0.19809134 -1.2723829 -0.80409783 -0.47355685 -0.6231243
-0.28211212 0.93798935 -1.8404068 -1.0249802 0.6511149 -0.78187484 -1.8624719 -0.05911271
0.80245763 -0.66608036 -0.7076213 -0.9711704 0.33026436 0.67502815 0.13045456 0.93592274
-0.62587565 0.322578 -0.6275249 -0.89297575 0.15274619 -0.06494926 0.46834272 -0.05993249
0.5559614 -0.1949797 -0.58667237 0.33595642 0.5000807 0.17758152 -1.3486955 0.15738049
-0.43482974 0.40581283 0.024070669 -0.37552857 0.69072795 -0.096982904 -0.71448207 -0.10490151
-0.28096098 -0.94945365 -0.57134783 0.37778053 0.6297073 -1.1218573 -0.7489583 0.35690016
-0.35498342 -0.6821127 -0.9315998 0.61020184 0.6491297 -1.2232226 0.035125796 0.46072856
-0.7892391 -0.750936 0.71936154 0.66962814 0.6884107 -0.71035993 -1.1556695 0.6194427
0.5542165 0.49020433 0.014230261 -0.306069 -0.6569221 -0.12544082 0.7439783 0.32993895
-0.24249329 -1.6189471 -1.3090568 -1.2753246 -0.7638086 0.33709258 0.606614 0.29746294
-0.2444708 -0.20753685 -1.3330629 -0.84841293 0.23915797 -0.44889304 0.21073332 -1.8880031
0.1752509 -0.18913409 0.6604334 -0.37033772 0.045648772 0.6648923 0.48818558 0.45374346
-0.70312357 -1.3802696 -1.5517012 0.5355885 0.30941686 -1.2199256 0.23321511 0.11680497
0.1514298 0.19250748 -0.6191463 -0.96046066 -0.14418581 -0.4743 -0.40684053 0.45653346
-0.5848604 -0.1432081 -0.9728379 0.19492225 -1.1343867 -0.028512573 0.09105478 -0.6985938
-0.5695626 -0.94998926 -0.296436 0.5984258 0.5055232 0.36913034 -0.4087598 0.48479766
-0.19473019 -0.5875281 0.020275267 -0.5099646 0.49154264 0.39904916 -1.0705957 -0.39180502
0.43548268 -0.10458232 -1.0292046 0.7916249 -0.43446168 0.25110972 0.586631 -0.99104667
0.36899808 -0.8180822 0.5128376 0.3923266 0.8373334 -0.5686833 -1.1223365 0.071806885
-0.16578588 -0.7511386 -0.31449258 0.5378718 0.43255615 -0.6259788 -0.13102843 -1.1461695
-0.019091083 0.31100136 -0.6883873 0.62768596 -0.7048825 0.2898217 -0.8439254 0.58270824
-1.018613 0.040585108 -1.0088537 0.42842534 -0.582911 0.6598246 -1.0441886 -0.27336234
0.35121313 0.90486324 -0.9084652 0.27683535 0.89470243 -0.19668831 -1.3567166 1.2356457
-0.49735695 -1.3446481 0.023531636 -0.48216644 -0.13169885 0.1576081 -1.8385023 -1.2727473
-1.5082355 -1.0939273 1.0163407 -0.9601403 -0.42493448 -0.24885416 0.53545725 -0.0030774777
-0.6289485 -1.6825347 1.1013969 -0.4885918 -0.9358561 0.49824247 0.28019294 -1.2786049
-0.45576712 -0.49898463 0.13484196 0.20798194 0.69801104 -1.4989004 -1.8412572 0.38185272
1.1357912 0.51307875 0.43953964 -0.37530422 -1.0871463 -1.830817 0.0069140573 -1.0979114
-2.2058797 0.45680392 0.33636415 -0.047795236 -0.23539494 0.3325903 -1.8965791 -0.45973253

MLP.2.bias f4 [28]
00000000: 3c25 813e 1a67 3c3e 67e4 5f3b 34f6 953d
00000010: cfa0 06be 7bf8 6abe 7a76 c43c c72b b4ba
00000020: a025 b9bd cceb dabd 4d60 2ebe b7e2 1b3e
00000030: 5774 fbbd 02e7 433e 79e9 76be f8dd fbbd
00000040: 4b32 bebd d29b 8cbe e286 2e3e aff6 af3d
00000050: 5ece 11bd ba32 e5be 2cf9 8e3e 8703 ecbe
00000060: b40a 4a3d a4d8 593e dd1b 703e c876 73be
0.2522372 0.18398705 0.0034163238 0.0732235 -0.13147281 -0.2294635 0.023982275 -0.0013745957
-0.090403795 -0.10689506 -0.17028923 0.15223204 -0.122780494 0.19131091 -0.241125 -0.122981966
-0.09286936 -0.2746263 0.17043641 0.08591973 -0.035597198 -0.44765264 0.27924478 -0.4609644
0.049326614 0.21274048 0.23448129 -0.2377578

exp_avg f4 [64, 284]
00000000: 9f0b 443a aa4a f7b9 7e83 01ba 28b1 cf3a
00000010: c129 88ba fe83 b13a 586d a6b8 776a d438
00000020: b373 3d3a b961 58ba c6eb 3a3a b4f6 6db8
00000030: 16dc 483a 169d 0139 43eb 5639 ebb4 3a38
00000040: b0ba 7539 d1ec 8bb9 4805 94b9 915c a539
00000050: fed2 f3b8 83ee 51b9 3dd4 7cb9 89e1 fb38
00000060: 4713 5fb8 2821 8e39 db5f 97b9 528b 30ba
00000070: 1985 e7b8 ec41 a639 301d 7bb9 74f4 a836
00000080: 6173 b9b8 2961 0eb8 579a 0739 77be 7335
00000090: 80de 1037 7814 2ab9 b723 3536 a8d4 d137
000000a0: 8746 adb9 c2f6 3a39 ee8f f938 c306 87b9
000000b0: 7ff4 f239 7614 2739 9a3b b139 028a 4a39
000000c0: dacc 7438 a3de 98b9 a65d 3eb8 3cbc 81b9
000000d0: 496c f237 ec1d 1f38 aaf6 9d39 e772 8b37
000000e0: fa96 df38 bbac b7b9 348e 50b9 5e1b 5539
000000f0: ba32 c5b8 1d70 2f39 38ac 5d39 9205 29b9
00000100: 23d9 78b9 32fa 0039 5928 7638 6de6 8938
00000110: 887b e039 dab8 68b8 3ec4 51b8 ded9 88b9
00000120: e3cb 9338 9cb9 9cb9 2256 8c39 d603 3d39
00000130: 4088 42b9 9356 a2b8 0d20 e435 ca79 9cb8
00000140: ea0d a538 0ba8 bf39 ee6a 7538 fb7b 8fb9
00000150: 510f 5039 f793 cc38 acf0 c3b9 56b2 6ab9
00000160: 58f1 63b9 399f 1ab9 b1a2 2339 7a3f 5f39
00000170: 81c6 40b9 3b3c 6db9 a063 46b9 c9f6 8738
00000180: 05c0 6239 c96e ccb9 7df4 9eb7 d471 ca36
00000190: eeb0 74b8 0fe1 8a38 dad5 dc38 a137 87b9
000001a0: 8d05 6b39 426e 81b8 71c5 6db7 6487 2739
000001b0: 3ef4 d9b8 8920 bc38 0d78 4437 69ab 0eb9
000001c0: c8bc 19b9 5b9d 1039 f675 86b9 959f 1bb9
000001d0: 3034 1237 ec61 4d39 7a7a 1739 f0bd f7b7
000001e0: 2f68 d7b7 b28d 2637 fa17 b238 9c4c 16b9
000001f0: a21b 9839 06b2 7eb7 e145 9239 d6c1 e038
00000200: 8b15 2d38 ead5 e2b7 ff11 5139 d76d 0a37
00000210: 35d1 4db6 010c a338 eedf 1ab9 95e4 fc37
00000220: b34a f9b7 3de1 9538 eb73 4f38 fce3 38b8
00000230: 555f 8039 0d63 96b9 0eb4 4139 a6a4 2539
00000240: 4700 a637 7f94 0e39 2e2e de38 7e74 4d36
00000250: 1e55 33b9 404c 63b9 1f93 9a39 9c7b a3b7
00000260: f98e aa38 fb74 3638 ca17 8ab9 239f a9b7
00000270: 5485 cdb6 957d 9cb9 0f77 9138 3b07 57b9
00000280: 037a 4739 b2af 9937 e5e4 e538 c165 e238
00000290: 4f97 06b9 548f b337 e14c 5cb9 1c8f c638
000002a0: adb4 56b9 c8fd d9b8 1e5b 23b8 cc55 5438
000002b0: 2250 6cb8 d9cf 3438 b0e5 eab8 3c16 1e39
000002c0: f87f 91b7 2fc6 7938 5d83 51b8 1c95 c338
000002d0: e8af 8cb8 9d12 37b8 93ae ac38 d56f 5e39
000002e0: c6c8 a0b8 be24 5638 030d 4139 9488 7939
000002f0: 7870 4938 975c 88b8 54a9 3137 c31a db38
00000300: 546f 3139 87d3 c8b7 a71c 95b8 1b17 e1b5
00000310: 8f0c 16b9 e052 bb37 7dc7 dcb8 1467 e238
00000320: 3b0a 9836 4cbe ab38 46c4 2238 90d6 ea37
00000330: 6922 96b8 b0a3 8ab8 1f40 e138 954f 0339
00000340: ea76 0138 1683 38b8 e3c7 1039 752f 6337
00000350: 6e29 bb38 0c2a ce38 1a62 9637 eec2 f338
00000360: 159a aa38 9474 0fb9 c298 6538 acb2 dbb7
00000370: ddca 9738 0de4 d0b8 2b6e 7438 bf71 c3b7
00000380: 991f e0b8 3ee1 ffb8 a486 64b9 4c1c 9ab8
00000390: f102 2938 03a1 bfb8 108b fdb8 d340 16b8
000003a0: d006 2837 b57b 1fb9 94d1 cc38 24b9 f7b7
000003b0: e1a6 89b8 095d 9a38 3961 cf38 2f68 4139
000003c0: a25e c4b8 08f7 f738 d3b5 fab8 b8f6 5db7
000003d0: b071 84b8 8302 91b8 6bd5 25b9 ec99 1139
000003e0: 2a1b 2339 1d57 4cb7 3046 f9b8 eba2 0ab7
000003f0: 3c51 46b8 6877 cb37 4a75 7738 b313 66b8
0.00074785383 -0.0004716714 -0.00049405533 0.0015845643 -0.001038842 0.0013543365 -7.935864e-05 0.000101287784
0.00072270184 -0.0008254308 0.000713047 -5.6734963e-05 0.000766219 0.00012360918 0.00020496272 4.451435e-05
0.00023434567 -0.00026688588 -0.00028232695 0.0003154022 -0.00011626443 -0.00020020646 -0.00024111658 0.00012010622
-5.3185297e-05 0.00027109054 -0.00028872382 -0.00067346275 -0.0001103973 0.00031711103 -0.00023948099 5.0352483e-06
-8.8429784e-05 -3.3945926e-05 0.000129321 9.0801717e-07 8.634874e-06 -0.00016220089 2.699189e-06 2.5013767e-05
-0.00033049678 0.00017830267 0.00011900054 -0.00025754244 0.0004634 0.00015933983 0.00033804477 0.00019315633
5.8364916e-05 -0.00029157577 -4.5386747e-05 -0.00024745043 2.8899072e-05 3.793642e-05 0.00030129153 1.6623597e-05
0.0001066159 -0.00035033174 -0.000198894 0.00020323458 -9.4031406e-05 0.00016731066 0.00021140359 -0.00016119171
-0.00023732013 0.00012300236 5.8688547e-05 6.575589e-05 0.00042816647 -5.5485267e-05 -5.0012248e-05 -0.00026102265
7.047483e-05 -0.00029892928 0.00026767055 0.00018025874 -0.00018552039 -7.740888e-05 1.6996652e-06 -7.461345e-05
7.870405e-05 0.0003655556 5.8512138e-05 -0.00027367458 0.00019842132 9.7550386e-05 -0.00037372613 -0.00022382414
-0.00021738315 -0.000147459 0.00015605499 0.00021290584 -0.00018384495 -0.00022624519 -0.00018919865 6.483269e-05
0.00021624572 -0.00038992453 -1.8948916e-05 6.0333205e-06 -5.8338912e-05 6.622273e-05 0.000105302504 -0.00025790653
0.00022413414 -6.1717365e-05 -1.4172271e-05 0.00015976798 -0.0001039286 8.970599e-05 1.1710462e-05 -0.0001360603
-0.00014661544 0.0001379153 -0.0002564636 -0.00014841401 8.714429e-06 0.00019586802 0.00014446108 -2.9533141e-05
-2.5678512e-05 9.927362e-06 8.4921674e-05 -0.00014333654 0.00029012287 -1.5181029e-05 0.00027899354 0.00010717257
4.1266478e-05 -2.7040911e-05 0.00019938497 8.251015e-06 -3.0669155e-06 7.7746816e-05 -0.00014770005 3.0147183e-05
-2.9717898e-05 7.1468276e-05 4.9460603e-05 -4.4081346e-05 0.0002448509 -0.00028684028 0.0001847299 0.00015796963
1.9788871e-05 0.00013597494 0.000105943865 3.0615188e-06 -0.00017102479 -0.00021676812 0.00029482783 -1.9488674e-05
8.1328624e-05 4.3501128e-05 -0.00026339135 -2.0220474e-05 -6.1249975e-06 -0.00029848205 6.936315e-05 -0.00020506691
0.00019023572 1.8320836e-05 0.00010962206 0.00010795473 -0.00012835603 2.1405205e-05 -0.00021009475 9.468032e-05
-0.00020475937 -0.00010394637 -3.8947088e-05 5.0624643e-05 -5.6341414e-05 4.3108917e-05 -0.00011200772 0.00015076337
-1.7344937e-05 5.95508e-05 -4.9951825e-05 9.3260984e-05 -6.708485e-05 -4.3647935e-05 8.234116e-05 0.0002121323
-7.6667915e-05 5.1055795e-05 0.00018410762 0.0002379737 4.802688e-05 -6.5022316e-05 1.0589447e-05 0.000104477185
0.00016921508 -2.3940358e-05 -7.1102106e-05 -1.6770531e-06 -0.00014309793 2.2330729e-05 -0.00010527575 0.000107957196
4.531144e-06 8.189361e-05 3.8806604e-05 2.7994887e-05 -7.158967e-05 -6.610842e-05 0.000107407795 0.0001252278
3.0866744e-05 -4.3991102e-05 0.00013807374 1.3541304e-05 8.924572e-05 9.830677e-05 1.7927076e-05 0.000116234514
8.134932e-05 -0.00013680971 5.474012e-05 -2.6190035e-05 7.238027e-05 -9.960691e-05 5.8276735e-05 -2.3298779e-05
-0.00010687038 -0.00012201302 -0.00021793932 -7.348563e-05 4.029548e-05 -9.1375805e-05 -0.000120898825 -3.582316e-05
1.00151665e-05 -0.00015209506 9.766515e-05 -2.9530907e-05 -6.563753e-05 7.3606214e-05 9.888638e-05 0.00018444726
-9.363635e-05 0.00011823891 -0.00011954796 -1.323007e-05 -6.3154264e-05 -6.914607e-05 -0.0001581513 0.00013885618
0.00015555011 -1.217963e-05 -0.00011886319 -8.263373e-06 -4.7282534e-05 2.4255089e-05 5.8998623e-05 -5.485462e-05

exp_avg_sq f4 [64, 284]
00000000: cc71 1037 aff0 3037 85d7 a936 925b 1937
00000010: 6e97 9136 33aa 5736 4e1e 2036 eb0a 3136
00000020: f38b 5636 a1dc 2236 6480 1c36 aba8 c335
00000030: a695 e235 7b59 9335 d560 a035 ce51 5735
00000040: 1166 9235 29b0 6835 e3a8 7835 a63e 4135
00000050: 22e2 8335 370a 6535 3bab 4635 6227 a235
00000060: 0064 7b35 419e 2b35 0d5b 8535 ea6f f434
00000070: 7c09 1835 8b9f 0335 65e1 0d35 fa7a 0b35
00000080: 7f69 c334 e5ab 1235 0824 dd34 a9a4 9c34
00000090: ab56 0d35 94db a334 7d3f df34 21de d534
000000a0: 6f62 ca34 a1dd ad34 995c bc34 984a f934
000000b0: 18cd b034 8a58 9334 5413 a034 aabb 8434
000000c0: d378 8634 6db5 9534 1bbf 8a34 84ed 9f34
000000d0: a8cf a334 f3b8 9434 7bd3 bf34 0df6 4c34
000000e0: 22da 8934 9246 6634 b8fa 3234 38fb 4b34
000000f0: 5625 6334 6cec 8434 24f6 2f34 56b6 4034
00000100: 71cf 3934 6555 3934 6cfc 5834 8cda 2934
00000110: df29 5634 aa35 2534 a6ca 4734 64a2 1d34
00000120: 86d0 4b34 eb5f 1f34 d9e0 6134 4985 1534
00000130: 348f 1834 e8dc 1434 83eb 0d34 e931 0c34
00000140: ea4b f733 95f3 1d34 1437 0534 6e2e 1334
00000150: cf8d 3334 ab69 0834 4433 3a34 d06f 2034
00000160: 2ddb 0534 d83b 1934 2b6c d633 4e98 e933
00000170: b682 3e34 d13e 1e34 3a0d 1a34 43d0 1f34
00000180: d939 cd33 7943 4034 3a75 d433 2e65 db33
00000190: eac0 ec33 31a9 0534 15a0 f633 2c09 bd33
000001a0: e651 c533 e18d 2a34 3cf3 b633 7da2 0a34
000001b0: e320 ba33 a33f eb33 9695 f833 6bb4 dc33
000001c0: 7ddd a133 16f7 0234 3358 1334 cdec c933
000001d0: 58b0 a733 0a73 b333 456b c933 4762 de33
000001e0: 86ec b333 cb80 0134 7657 9933 5e12 e133
000001f0: c98e d833 2de4 da33 42bd ce33 1466 df33
00000200: d96b d933 1ca9 b033 26b1 c133 a0a5 8f33
00000210: 3067 a933 2254 cb33 4671 8333 5958 bc33
00000220: d8e2 9d33 9592 9b33 ac50 b433 bb57 9633
00000230: 2915 a033 a000 a333 705e ac33 649b f933
00000240: 72a1 a933 75aa 6333 c362 df33 a2ec 9c33
00000250: e71d ab33 93cf 9833 d97a c333 831e c333
00000260: 41a9 0234 cbab 9b33 c603 6533 581b 9733
00000270: 4c83 8933 011c 9433 5691 7c33 8bae 8733
00000280: 9ed1 8133 0c5d 7a33 4f7a 9f33 23aa 8933
00000290: dda9 5733 d475 7033 595d 8e33 304e 5f33
000002a0: 66b7 8833 06e6 6e33 4b0e 8233 bdb2 4233
000002b0: b92e 9333 cc43 6d33 165c 9f33 c7ff 4633
000002c0: 7a2c 7333 36d8 7333 e06b 7733 501e 3a33
000002d0: 952b 2e33 ffe1 2a33 fe05 a333 ce2e 8433
000002e0: ef42 4b33 fac9 5a33 50da 8333 23d0 5b33
000002f0: 1b51 3033 f814 7233 6941 4c33 1c95 3533
00000300: d229 8533 214a 7733 373d 2e33 83d1 3933
00000310: 27f6 8133 41c5 3c33 481f 5733 04dd 0133
00000320: faf6 2933 e3cd 6733 129d 4533 a8cd 5433
00000330: 1734 3133 8c8f 2b33 dea8 3333 4f6c 4f33
00000340: 8017 2433 d167 2833 b826 4d33 44a2 4533
00000350: faa8 2533 5e4e 2d33 dbb9 4a33 6257 2c33
00000360: 09e8 4133 2978 5f33 861e 2733 4a29 2133
00000370: b4aa 1a33 7fd3 3233 94aa 6b33 3282 4f33
00000380: c32f 2f33 a4bd 4133 e413 3c33 46d6 e932
00000390: f487 2e33 8035 0533 5480 3633 fe42 4b33
000003a0: 9b5f 2833 19da 2633 14c3 3133 2aea fe32
000003b0: 1309 3033 5f2c 1c33 f5ba 0d33 a848 3c33
000003c0: dd02 1a33 31fd 0c33 341d 3933 28b0 2433
000003d0: be24 1133 7e3b f432 611e 1c33 90b8 0d33
000003e0: ce90 2d33 29ab f832 1729 3833 a445 1f33
000003f0: 499d 0033 0fb7 ff32 1f1d 6833 7d14 e032
8.609564e-06 1.0546456e-05 5.0616823e-06 9.140831e-06 4.3389655e-06 3.2136566e-06 2.3859498e-06 2.638141e-06
3.1969946e-06 2.4268304e-06 2.3320545e-06 1.4577721e-06 1.6881866e-06 1.0978396e-06 1.1949111e-06 8.0212783e-07
1.0907553e-06 8.668308e-07 9.263296e-07 7.198927e-07 9.826074e-07 8.532401e-07 7.400992e-07 1.2081402e-06
9.3650306e-07 6.3932754e-07 9.935771e-07 4.552997e-07 5.6638214e-07 4.903347e-07 5.2854585e-07 5.196049e-07
3.639834e-07 5.463938e-07 4.1190674e-07 2.917707e-07 5.265271e-07 3.052088e-07 4.158318e-07 3.9835962e-07
3.7697052e-07 3.2385017e-07 3.5085102e-07 4.6434138e-07 3.293178e-07 2.7445304e-07 2.9816385e-07 2.472346e-07
2.5047356e-07 2.7885417e-07 2.584355e-07 2.9788873e-07 3.0512206e-07 2.7701716e-07 3.5730395e-07 1.9088493e-07
2.567695e-07 2.1446093e-07 1.6668753e-07 1.8997241e-07 2.1154605e-07 2.4758936e-07 1.638769e-07 1.7947727e-07
1.7304934e-07 1.7260534e-07 2.0208398e-07 1.5818858e-07 1.9945536e-07 1.5386345e-07 1.8607042e-07 1.4680842e-07
1.8981709e-07 1.4842924e-07 2.1036557e-07 1.3925195e-07 1.42082e-07 1.386394e-07 1.3217327e-07 1.3056673e-07
1.15156425e-07 1.4710379e-07 1.2406628e-07 1.3707333e-07 1.6722264e-07 1.2704429e-07 1.734125e-07 1.4941838e-07
1.2466326e-07 1.4271006e-07 9.984827e-08 1.0877612e-07 1.7742681e-07 1.4737749e-07 1.434718e-07 1.4883794e-07
9.556579e-08 1.790594e-07 9.893343e-08 1.0216387e-07 1.1024697e-07 1.2448142e-07 1.14843864e-07 8.802667e-08
9.1884246e-08 1.5884099e-07 8.5192795e-08 1.2911364e-07 8.667282e-08 1.0954616e-07 1.15756094e-07 1.0277366e-07
7.537435e-08 1.2197083e-07 1.3722529e-07 9.402866e-08 7.80862e-08 8.3562625e-08 9.379304e-08 1.0355557e-07
8.3783604e-08 1.2060916e-07 7.140527e-08 1.048072e-07 1.0084256e-07 1.0192921e-07 9.627048e-08 1.04028146e-07
1.0124467e-07 8.2263995e-08 9.019486e-08 6.6890834e-08 7.8884455e-08 9.468228e-08 6.120767e-08 8.7705025e-08
7.352145e-08 7.244413e-08 8.396577e-08 7.0008774e-08 7.4544296e-08 7.590393e-08 8.026552e-08 1.16232314e-07
7.8990425e-08 5.3007586e-08 1.04022114e-07 7.307359e-08 7.968247e-08 7.115809e-08 9.102741e-08 9.085945e-08
1.2168768e-07 7.248999e-08 5.332165e-08 7.036459e-08 6.4034424e-08 6.896881e-08 5.8805504e-08 6.3181766e-08
6.04516e-08 5.8292287e-08 7.426262e-08 6.410507e-08 5.0213078e-08 5.598652e-08 6.62937e-08 5.1992345e-08
6.3663535e-08 5.56229e-08 6.0561966e-08 4.5331706e-08 6.85372e-08 5.5242523e-08 7.420765e-08 4.6333096e-08
5.6618298e-08 5.677449e-08 5.760728e-08 4.333407e-08 4.055217e-08 3.978675e-08 7.591369e-08 6.155243e-08
4.7325496e-08 5.0940777e-08 6.139874e-08 5.117921e-08 4.105196e-08 5.6364087e-08 4.755694e-08 4.227796e-08
6.200902e-08 5.757659e-08 4.0568207e-08 4.326422e-08 6.0518055e-08 4.3951562e-08 5.008704e-08 3.0236166e-08
3.9573003e-08 5.397113e-08 4.601049e-08 4.954714e-08 4.12584e-08 3.9944595e-08 4.183027e-08 4.829445e-08
3.82056e-08 3.920997e-08 4.7765496e-08 4.6015217e-08 3.857074e-08 4.0350976e-08 4.7200825e-08 4.0126345e-08
4.514735e-08 5.203052e-08 3.891048e-08 3.7523286e-08 3.6011173e-08 4.163621e-08 5.487034e-08 4.8314355e-08
4.07888e-08 4.510879e-08 4.379025e-08 2.722221e-08 4.063618e-08 3.1015134e-08 4.249189e-08 4.732555e-08
3.92025e-08 3.8848246e-08 4.1388446e-08 2.9675977e-08 4.0986446e-08 3.6361936e-08 3.2999157e-08 4.383824e-08
3.5858523e-08 3.2826566e-08 4.310023e-08 3.834444e-08 3.379386e-08 2.8432392e-08 3.634921e-08 3.299698e-08
4.04114e-08 2.8948834e-08 4.287821e-08 3.708341e-08 2.9945372e-08 2.9769152e-08 5.4043195e-08 2.6086349e-08

exp_avg f4 [64]
00000000: fea5 40b9 6c24 7b38 429a 26b9 b4ce 17b8
00000010: 1213 e335 64ca c538 a283 5639 f936 b839
00000020: 4707 9bb6 5d53 2f38 d559 34b8 c1ce b137
00000030: b710 2cb7 432c e738 005a 3039 2eb1 e239
00000040: 4a56 47b9 8713 3cb9 f037 3038 b920 a3b8
00000050: 6858 ca35 2eaa 8ab7 80af 54b8 651e 88b8
00000060: 5e5f eeb8 0344 44b8 c3bf 6f38 a31f 1639
00000070: f959 6fb8 ddbd 2ab8 9aaf 2e36 1d4f b1b8
00000080: cc60 2cb9 1549 d937 983e d537 e34f 4bb9
00000090: 21d4 07b9 7052 aeb8 88c3 7637 8a0a 00b9
000000a0: a9cf c8b7 2ed4 9d39 ebda 11b8 82d8 5538
000000b0: 0e9c f539 1796 e3b7 e569 16b7 34f2 8bb6
000000c0: c071 4638 4183 0d38 bf70 1139 fc0f a335
000000d0: 9ed4 b439 5d27 7839 c9a9 3d39 0ebc 6d36
000000e0: bc64 37b9 5f4c 8c39 fa9b 5337 ff0c ed37
000000f0: f5b6 dc36 d448 90b9 d797 db36 f0c8 7037
-0.00018372384 5.9876984e-05 -0.00015888459 -3.6193713e-05 1.6918368e-06 9.43139e-05 0.00020457667 0.00035136173
-4.620207e-06 4.180089e-05 -4.2999007e-05 2.1196322e-05 -1.0255891e-05 0.00011023183 0.00016818196 0.00043238088
-0.00019010264 -0.00017936352 4.2013766e-05 -7.778541e-05 1.5075902e-06 -1.6530128e-05 -5.0708186e-05 -6.490647e-05
-0.00011366488 -4.6793382e-05 5.7160632e-05 0.000143169 -5.7065834e-05 -4.0707982e-05 2.6030234e-06 -8.454754e-05
-0.00016439258 2.5902447e-05 2.5420726e-05 -0.00019389349 -0.00012953627 -8.312322e-05 1.4708268e-05 -0.00012210957
-2.3938557e-05 0.0003010346 -3.4774577e-05 5.0984796e-05 0.0004684631 -2.71304e-05 -8.965352e-06 -4.170719e-06
4.7312817e-05 3.373926e-05 0.00013870279 1.2149098e-06 0.00034490688 0.00023665787 0.00018087694 3.5425214e-06
-0.00017489766 0.00026759782 1.2612896e-05 2.8258653e-05 6.57781e-06 -0.00027520081 6.544385e-06 1.4351899e-05

exp_avg_sq f4 [64]
00000000: 27ff b034 48df 3035 e64e f834 5b1d 4a34
00000010: 62cf 2934 fdec 8b34 b223 6e34 72c0 ee34
00000020: 0ce3 8334 c489 7c34 2403 e734 fe98 6934
00000030: 0bf6 d534 2340 8534 166e 0235 ee9c 6834
00000040: 341f 9334 e756 9a34 a368 6634 97d8 9e34
00000050: 9bfa 9434 5d8f d534 f145 6234 e155 a234
00000060: 0798 9d34 092e 7734 fd17 9134 b923 4734
00000070: c356 7e34 f481 8d34 c59c 6234 7b94 0435
00000080: 3cbd cd34 485f 9234 2226 7634 f2c3 cf34
00000090: fea1 bf34 0866 1234 e9c9 9e34 4878 ec34
000000a0: 76a1 d634 fa88 f734 bb20 4734 0d11 9d34
000000b0: f481 0635 b5d0 ad34 548b 6334 ab86 a334
000000c0: c29b c834 0550 8c34 4044 b434 e2ec 9834
000000d0: b3f7 ab34 8fe7 ad34 fffb ad34 c651 b434
000000e0: d943 ab34 ac63 a434 98fc 9f34 028a ac34
000000f0: 1508 aa34 f852 b934 190e 4334 f3d1 ac34
3.2968202e-07 6.5890026e-07 4.6251006e-07 1.8823395e-07 1.5814797e-07 2.60632e-07 2.2178463e-07 4.4470977e-07
2.456585e-07 2.3519448e-07 4.3029388e-07 2.1755474e-07 3.9853361e-07 2.4819846e-07 4.858897e-07 2.1663774e-07
2.7403587e-07 2.8747965e-07 2.1458486e-07 2.9587383e-07 2.7749488e-07 3.9778652e-07 2.1073335e-07 3.0237337e-07
2.9354143e-07 2.3020415e-07 2.7025808e-07 1.8546315e-07 2.3687157e-07 2.635785e-07 2.1104923e-07 4.93899e-07
3.8321912e-07 2.7263945e-07 2.2924408e-07 3.8699324e-07 3.5694387e-07 1.3634428e-07 2.9576702e-07 4.4045942e-07
3.9978084e-07 4.6107e-07 1.8545227e-07 2.9255935e-07 5.0107997e-07 3.2375615e-07 2.119171e-07 3.04591e-07
3.7366232e-07 2.6135254e-07 3.357727e-07 2.848456e-07 3.2031457e-07 3.2392242e-07 3.2407112e-07 3.358711e-07
3.1900598e-07 3.06199e-07 2.9799844e-07 3.213791e-07 3.1670848e-07 3.4519303e-07 1.8165919e-07 3.2190255e-07

exp_avg f4 [28, 64]
00000000: 81ca 4db7 7309 e736 2089 6037 2750 bab7
00000010: 5e02 acb6 ce26 1037 5718 e9b6 624e 3938
00000020: b126 8236 d580 a9b7 1662 0138 4af2 1437
00000030: 77ef 0938 b038 b036 70d9 1ab7 04a2 d537
00000040: 26bd ea37 1381 9fb5 eeb0 6638 a5ad 4eb7
00000050: ee01 89b4 5f55 1cb8 3d36 37b7 9a50 1038
00000060: 54fe 4ab7 5ca9 0db8 3bbe a935 fb15 b037
00000070: 8842 0ab8 2d0f 02b7 6149 e9b5 9e37 6537
00000080: 9817 7db7 d5cf 0eb8 5403 ac36 85d8 f436
00000090: 76ab f837 a53d b6b7 24b0 ccb7 4d41 4a37
000000a0: b6ab 2138 10ee fdb6 8a14 3d37 d560 9037
000000b0: 9c70 1bb8 cc7d 3c35 123c c736 ce37 c438
000000c0: 4e05 6b36 97f9 8fb7 c6a0 0eb6 6fa4 adb7
000000d0: e6e1 ffb6 cddb 0037 3c6d 8737 d5b9 f2b7
000000e0: bc1d 2437 f7c5 95b7 b3f8 dbb6 943f efb7
000000f0: a00c 2537 4e4a 8a37 111e 1838 f1a6 dcb7
00000100: 3b50 fdb6 f73b b836 8869 d9b7 b8e3 c9b7
00000110: 814b d137 2bc6 3bb7 11e8 75b8 600d a937
00000120: 40a0 cfb7 5652 42b7 1745 c5b6 d721 2ab8
00000130: abb6 c3b7 b36a 97b6 8b4a afb7 47dd cb37
00000140: 1a11 b438 df3b 4138 ff99 cf35 ced7 c5b8
00000150: 252b d2b6 b1de c7b7 cffb a7b7 5e8e 2438
00000160: ef4d c6b7 ed3e a2b6 2a61 0bb7 cd22 17b8
00000170: cf61 4e38 3637 29b8 0f29 8c38 4cbd 71b8
00000180: 7ce2 1938 50b5 2db7 a60f 2236 2198 12b6
00000190: ffdd 1ab8 2741 8cb7 40cb 6f38 e536 eab8
000001a0: 0d1f 0fb7 3591 e3b7 373c f9b7 5dc5 c437
000001b0: 6400 bab7 ffb0 22b7 4c54 a6b7 8401 8837
000001c0: 5735 f7b4 e51b 9c34 3235 d9b7 69d5 16b8
000001d0: d4ea 3bb8 22b1 e1b6 3dee d0b7 26c9 b2b8
000001e0: 7801 6ab7 a8a5 0e36 fdac 7636 708d b9b8
000001f0: e882 0cb6 8bb0 4a37 a13b c5b7 bb98 82b7
00000200: fa7b 4038 1613 8038 1f1f f836 c453 a238
00000210: c4cb 8638 3c46 f6b6 faba 7837 56a6 5a39
00000220: 52e3 8938 17de 8437 0ee7 0b38 e03e 3d38
00000230: b709 0537 195c c037 156b d937 1a4e b337
00000240: 648d 90b6 f4b8 d038 fa0f 05b8 d3e2 ce38
00000250: 5265 5639 3296 dc38 bd46 f634 d625 0e39
00000260: 08e0 1638 a5f8 1539 175e 1938 a43e 9c38
00000270: 01f9 8439 006a 4cb6 8600 1d38 2578 5037
00000280: 9b8e 5539 4bee fc37 4dda 0e38 74e0 4339
00000290: 6e73 b738 7ffb dd38 a5ae 4139 0eb7 d438
000002a0: c819 bb35 c579 2538 e992 b838 80aa 49b6
000002b0: b268 5439 cde1 ba38 c265 d237 5ed3 0638
000002c0: 265a 9138 0e48 1938 8be4 e738 ed02 5739
000002d0: fc40 3939 b244 f5b6 82ee fd36 4706 a438
000002e0: 9502 b238 b897 ec37 d667 6bb5 826e c638
000002f0: 8751 4737 7778 5939 d7f6 7d36 2c76 1c39
00000300: 6dd5 8038 9fbf ef37 5357 3338 feb4 4e38
00000310: f736 82b3 e7c8 bc37 dc29 e434 2690 6b37
00000320: 2493 2838 4401 8137 6e03 7db6 e82e 9a38
00000330: 7634 7738 11f9 8138 a811 a737 b36b 0fb6
00000340: b8d4 28b5 4612 9d34 917c a1b6 64cb 03b5
00000350: 0b02 1838 2aa4 e737 8deb 5537 17ed 50b6
00000360: c226 de38 285d de38 f087 1438 697e 15b7
00000370: 92a5 e9b6 27b1 04b6 e890 af38 e042 0938
00000380: da92 b9b6 34ab 5f36 0601 3538 2e48 85b6
00000390: de75 b835 ab68 6638 c797 8538 7622 d837
000003a0: 5ab2 af37 8b46 3336 72e4 c038 6ee0 b4b6
000003b0: 1469 2538 2fac 77b6 e211 af35 06f7 ebb6
000003c0: e74a ce36 24e2 0f39 74a9 e9b6 0ab8 8038
000003d0: a6c1 dbb6 d8af b336 916c e037 5050 75b5
000003e0: b6a6 5a37 83c1 2ab4 a635 8238 c997 be35
000003f0: 0b2f cdb6 cb64 9838 5524 7eb5 8aa9 a0b3
-1.2266101e-05 6.8854365e-06 1.3383367e-05 -2.2210252e-05 -5.126275e-06 8.592104e-06 -6.9467746e-06 4.4180437e-05
3.878806e-06 -2.0206362e-05 3.0847346e-05 8.8779e-06 3.2886364e-05 5.251808e-06 -9.229741e-06 2.5467023e-05
2.7983053e-05 -1.1883989e-06 5.500105e-05 -1.2318987e-05 -2.5519643e-07 -3.7272806e-05 -1.0920278e-05 3.440734e-05
-1.2099354e-05 -3.3774748e-05 1.2646846e-06 2.099107e-05 -3.2963726e-05 -7.752137e-06 -1.7381209e-06 1.3662413e-05
-1.50854685e-05 -3.4048997e-05 5.126387e-06 7.296973e-06 2.9643747e-05 -2.1724796e-05 -2.4400717e-05 1.2055342e-05
3.854531e-05 -7.5677017e-06 1.127006e-05 1.7211229e-05 -3.7059755e-05 7.0218516e-07 5.9376553e-06 9.356403e-05
3.5020817e-06 -1.7163153e-05 -2.1253231e-06 -2.0699777e-05 -7.6258902e-06 7.680571e-06 1.614412e-05 -2.8935183e-05
9.782085e-06 -1.7854369e-05 -6.555661e-06 -2.8520626e-05 9.837706e-06 1.6485483e-05 3.6267626e-05 -2.6303782e-05
-7.5493276e-06 5.490608e-06 -2.5917558e-05 -2.4067107e-05 2.49499e-05 -1.1192208e-05 -5.862868e-05 2.0152598e-05
-2.4750945e-05 -1.1582471e-05 -5.8791006e-06 -4.0562674e-05 -2.3330873e-05 -4.512572e-06 -2.0896337e-05 2.4302526e-05
8.586254e-05 4.6070545e-05 1.5467521e-06 -9.433889e-05 -6.2635104e-06 -2.3826347e-05 -2.0025209e-05 3.9233237e-05
-2.363973e-05 -4.8353018e-06 -8.307668e-06 -3.6033616e-05 4.920532e-05 -4.034416e-05 6.683368e-05 -5.7635174e-05
3.6688973e-05 -1.0353819e-05 2.414899e-06 -2.1844246e-06 -3.692321e-05 -1.671964e-05 5.717133e-05 -0.000111682144
-8.530694e-06 -2.7128126e-05 -2.9711153e-05 2.3456925e-05 -2.217311e-05 -9.697163e-06 -1.9827996e-05 1.621317e-05
-4.6046145e-07 2.907756e-07 -2.5893187e-05 -3.596154e-05 -4.4802975e-05 -6.7261435e-06 -2.490647e-05 -8.525168e-05
-1.3947829e-05 2.1256074e-06 3.675755e-06 -8.847832e-05 -2.0937823e-06 1.2081243e-05 -2.3511997e-05 -1.5568328e-05
4.589183e-05 6.107071e-05 7.394599e-06 7.7403645e-05 6.427572e-05 -7.3395477e-06 1.4825486e-05 0.00020852065
6.575011e-05 1.5839045e-05 3.335537e-05 4.511967e-05 7.92968e-06 2.293107e-05 2.591828e-05 2.1374832e-05
-4.3079945e-06 9.952663e-05 -3.172455e-05 9.865095e-05 0.00020446375 0.000105183935 4.587254e-07 0.0001355627
3.5971432e-05 0.00014302375 3.656567e-05 7.4503274e-05 0.00025362524 -3.046007e-06 3.7432204e-05 1.2425739e-05
0.00020366388 3.0151705e-05 3.4058747e-05 0.00018680264 8.7476204e-05 0.00010584946 0.00018470974 0.00010143044
1.3940089e-06 3.9452472e-05 8.801168e-05 -3.0050578e-06 0.00020256898 8.91123e-05 2.5081335e-05 3.214494e-05
6.93093e-05 3.654515e-05 0.00011057508 0.00020505088 0.00017667183 -7.309566e-06 7.5677535e-06 7.821299e-05
8.488182e-05 2.8204042e-05 -8.7695423e-07 9.4619594e-05 1.1880306e-05 0.0002073961 3.7843618e-06 0.00014921342
6.143269e-05 2.858025e-05 4.2758253e-05 4.928279e-05 -6.063595e-08 2.2504899e-05 4.2498766e-07 1.4040654e-05
4.0191357e-05 1.5378588e-05 -3.7701934e-06 7.352029e-05 5.8938247e-05 6.1975916e-05 1.9916173e-05 -2.137135e-06
-6.2894424e-07 2.9256825e-07 -4.8126753e-06 -4.9097275e-07 3.6241527e-05 2.761379e-05 1.2750633e-05 -3.113242e-06
0.00010593004 0.000106031366 3.541255e-05 -8.910524e-06 -6.963216e-06 -1.977265e-06 8.371641e-05 3.2725628e-05
-5.5305254e-06 3.3329243e-06 4.3154716e-05 -3.9721117e-06 1.3743372e-06 5.4933753e-05 6.370205e-05 2.5765254e-05
2.0944677e-05 2.671414e-06 9.197825e-05 -5.390545e-06 3.9436927e-05 -3.6906092e-06 1.3043721e-06 -7.032303e-06
6.147998e-06 0.00013721787 -6.963668e-06 6.1377956e-05 -6.5492522e-06 5.3550866e-06 2.6753436e-05 -9.138648e-07
1.3032628e-05 -1.5902883e-07 6.208876e-05 1.4200278e-06 -6.1149526e-06 7.266699e-05 -9.4675244e-07 -7.4814196e-08

exp_avg_sq f4 [28, 64]
00000000: 4084 8f34 c2a8 c633 f194 0734 5c35 8a34
00000010: ca3b 8535 c1a8 f434 2d98 2235 6b40 e434
00000020: 0ad5 3035 4ecb 9734 e2c1 e234 7ffa 7534
00000030: 1a2d 8134 00cf 6733 8baf 0134 b653 1034
00000040: 770e 3434 6753 8533 69ec 5835 d49f 9f34
00000050: 9d55 4c33 535b 5534 71f6 f433 4288 4f34
00000060: 7f3d 9f34 4d8f 0035 03df f933 618f a133
00000070: 0389 a735 fabc 9734 06e2 aa33 ce74 1f35
00000080: b6fc 0436 fc9f 4a34 b268 7f34 fc04 3635
00000090: 8ad0 b234 34b8 2435 cbf6 4a35 fc66 2235
000000a0: 775d a834 b66a 5735 c399 a734 a512 0a34
000000b0: 9fd7 3835 2970 5f34 03c6 2335 8567 8935
000000c0: fbe7 0535 8da6 9d34 1696 c233 e2e3 0c35
000000d0: 24b1 8535 21dd 0d35 43ff 3c34 2d11 a234
000000e0: da5c 2134 8461 9334 97ae a334 b372 1535
000000f0: e2a6 0135 62d6 1235 2296 8b34 d653 5535
00000100: ccef ad33 bf3a 2e33 9bbf 2234 3376 b234
00000110: 6761 0536 2ce8 e033 fbba 1735 c19c 4835
00000120: 997a 6834 6306 ad34 6865 0d35 db17 0335
00000130: 6268 0a35 1809 6b34 6b39 b733 2fe3 c034
00000140: 5367 ed34 0066 7a34 735e 4335 91c5 8335
00000150: b1bb d534 d86f ed34 b8cc 4534 1782 a735
00000160: ece6 2c35 5c7e 2035 3a45 1134 3173 3435
00000170: f083 5134 cfc7 5734 140b 0e35 9583 ac35
00000180: a1ec 8435 9b53 2a35 1974 9834 31a5 a733
00000190: 4f20 8e34 2e61 ad34 4f10 5235 e61c 4b35
000001a0: a05b ac34 7ddb 1935 6802 7234 10d6 c034
000001b0: 7f53 d234 53d9 7634 8668 9c34 9f16 0834
000001c0: e81f cb34 2e73 bd33 8e84 9535 65e0 d334
000001d0: b012 2435 5268 0335 bc65 6d35 c713 c135
000001e0: 6f11 8234 463d 3b34 b506 3a33 5ced aa35
000001f0: f7e9 2c34 f4b6 a333 efc0 1935 610e 1435
00000200: a3db 4635 3c74 9134 3380 4a34 5ef0 cd34
00000210: 22e3 e835 0a83 e134 6e0f 8335 42ed dc35
00000220: 4ee8 3235 780c 0735 09c4 b234 55c9 bf34
00000230: 4ecf 4934 a7fd 5435 b767 e534 9bc8 7435
00000240: 0a88 0c35 365b 4534 6b42 6335 b059 1735
00000250: 9a2c 7835 f24a aa35 4c1d 5934 00bf 4e35
00000260: bfc5 0f35 18fd 2235 6203 8634 9a74 1c35
00000270: 6653 3236 eb73 2035 f8ee e534 2b6b e834
00000280: 54bb 4136 4fd0 2735 c5e7 da34 0387 4836
00000290: 8ab5 5935 e51b a635 b81c 4236 9af7 af34
000002a0: 3d55 3c35 a958 3d35 c8b5 1e35 dc0e fd34
000002b0: 0ba1 4536 a70a 1135 4ffe 1a35 22f1 cc35
000002c0: 570b 3d35 5d8c 3235 f64e 7d34 f7e0 d635
000002d0: 49d9 1436 f698 c234 363f 1735 3423 7a34
000002e0: 9af3 2b35 bca5 4335 1696 0235 f163 9235
000002f0: 42ec 0b35 58cc 2836 0aa1 9434 0563 f535
00000300: b1fe 3c34 306f 8533 b40c 8934 78fa 5935
00000310: b70e fb32 742c 5e34 0c37 ed32 3f34 8434
00000320: 652c 0935 11e5 5b35 ef20 3433 63d6 3b34
00000330: 956c c633 be7b de34 7e20 e033 9208 0635
00000340: 53e2 ae33 8aee 3633 6b92 3e33 7ea7 3933
00000350: 80e3 8e34 1312 a433 d269 a033 eac0 a133
00000360: 81c0 2834 d2cb 4c35 c4b3 8035 efb8 a431
00000370: a2b1 ea33 293a d633 8d85 9735 c86c 4c34
00000380: 29c5 6b34 11cf 4633 086b 7c34 81ca c534
00000390: 9b58 1833 d588 cd35 d3c3 8134 4dea d033
000003a0: 172b a334 d873 0e34 8a01 5135 81c4 4b35
000003b0: 2ba2 0d35 70f0 6933 e168 b733 a75e 9a34
000003c0: 1000 9434 289a 8f35 e748 e233 acd0 8834
000003d0: 7252 d033 8ba2 a933 4ada 5933 005d 2a33
000003e0: 8ea0 8b32 82e6 2f34 5753 1735 9692 2633
000003f0: a66e d533 557f df34 b36d 3033 e758 f732
2.673205e-07 9.2507904e-08 1.262704e-07 2.5743327e-07 9.926673e-07 4.5571326e-07 6.057115e-07 4.251518e-07
6.587512e-07 2.8273865e-07 4.223685e-07 2.2908533e-07 2.4060938e-07 5.3972144e-08 1.2077923e-07 1.3441499e-07
1.6769069e-07 6.208466e-08 8.081029e-07 2.9732348e-07 4.7575316e-08 1.9870394e-07 1.1406963e-07 1.9327948e-07
2.9660802e-07 4.7892246e-07 1.1635532e-07 7.523227e-08 1.2482345e-06 2.826344e-07 7.957355e-08 5.940209e-07
1.981663e-06 1.8870918e-07 2.3786814e-07 6.7807537e-07 3.3306816e-07 6.136281e-07 7.5609995e-07 6.0499565e-07
3.1360443e-07 8.0249026e-07 3.121805e-07 1.2859034e-07 6.885911e-07 2.0809297e-07 6.1010377e-07 1.0237424e-06
4.9883937e-07 2.936471e-07 9.0611294e-08 5.248568e-07 9.960827e-07 5.284838e-07 1.7601728e-07 3.0187348e-07
1.5028073e-07 2.7451836e-07 3.0488147e-07 5.5673735e-07 4.829909e-07 5.4701206e-07 2.6000004e-07 7.947068e-07
8.099559e-08 4.056596e-08 1.5157131e-07 3.3241085e-07 1.987524e-06 1.0473045e-07 5.6523976e-07 7.4733913e-07
2.1651284e-07 3.2228408e-07 5.267416e-07 4.883602e-07 5.1560903e-07 2.1889389e-07 8.532046e-08 3.5928085e-07
4.4219868e-07 2.3320172e-07 7.27806e-07 9.81776e-07 3.9810905e-07 4.4226067e-07 1.8421531e-07 1.2480331e-06
6.441103e-07 5.978852e-07 1.3529362e-07 6.722285e-07 1.951264e-07 2.0096125e-07 5.2915243e-07 1.2853294e-06
9.903634e-07 6.3451597e-07 2.8396678e-07 7.8065916e-08 2.647307e-07 3.229447e-07 7.825483e-07 7.5665446e-07
3.2104163e-07 5.731634e-07 2.2538882e-07 3.5918538e-07 3.91763e-07 2.2989597e-07 2.9133315e-07 1.2674217e-07
3.783491e-07 8.8219494e-08 1.1139944e-06 3.946508e-07 6.1121955e-07 4.895311e-07 8.8437423e-07 1.4385377e-06
2.4227072e-07 1.7438023e-07 4.33126e-08 1.2735068e-06 1.6103864e-07 7.623558e-08 5.7277697e-07 5.515522e-07
7.408036e-07 2.7092926e-07 1.8859355e-07 3.8359116e-07 1.7351451e-06 4.200486e-07 9.764751e-07 1.6460328e-06
6.6648215e-07 5.0309563e-07 3.3297718e-07 3.572301e-07 1.8795001e-07 7.9345267e-07 4.2730036e-07 9.1189e-07
5.2352027e-07 1.8380237e-07 8.466074e-07 5.6382396e-07 9.2452103e-07 1.2687799e-06 2.0220358e-07 7.701892e-07
5.355941e-07 6.0718e-07 2.4961906e-07 5.8284206e-07 2.6572611e-06 5.977333e-07 4.2828447e-07 4.3291342e-07
2.886828e-06 6.2515477e-07 4.07743e-07 2.988091e-06 8.1102974e-07 1.2376082e-06 2.892497e-06 3.2776444e-07
7.0159496e-07 7.0537004e-07 5.9124113e-07 4.7135734e-07 2.9449027e-06 5.403221e-07 5.773954e-07 1.5269363e-06
7.042449e-07 6.651442e-07 2.3591187e-07 1.6009716e-06 2.2180195e-06 3.624661e-07 5.634387e-07 2.3295871e-07
6.405695e-07 7.2884336e-07 4.864718e-07 1.0906934e-06 5.2125336e-07 2.5152895e-06 2.768432e-07 1.8282741e-06
1.760152e-07 6.21352e-08 2.552748e-07 8.120328e-07 2.9226937e-08 2.0691533e-07 2.7615464e-08 2.462493e-07
5.110108e-07 8.1917193e-07 4.193947e-08 1.7493726e-07 9.2398444e-08 4.1440757e-07 1.0436723e-07 4.993136e-07
8.1436745e-08 4.2592127e-08 4.437099e-08 4.3226002e-08 2.661509e-07 7.640133e-08 7.469829e-08 7.5322376e-08
1.5716252e-07 7.629252e-07 9.589062e-07 4.7940527e-09 1.0928785e-07 9.975731e-08 1.1289245e-06 1.9038555e-07
2.1957807e-07 4.6288793e-08 2.3508267e-07 3.684145e-07 3.5470844e-08 1.5313514e-06 2.4170603e-07 9.728374e-08
3.0392468e-07 1.3266924e-07 7.7860807e-07 7.5909344e-07 5.276258e-07 5.4468217e-08 8.540679e-08 2.8753604e-07
2.7567194e-07 1.0699196e-06 1.0537206e-07 2.5483803e-07 9.7007515e-08 7.899242e-08 5.0722782e-08 3.9665792e-08
1.6254742e-08 1.6382003e-07 5.637316e-07 3.8783206e-08 9.938712e-08 4.1629633e-07 4.1077964e-08 2.8795013e-08

exp_avg f4 [28]
00000000: 50f6 0b35 c395 f8b5 2fec 1d38 0ccd 7937
00000010: a6f2 7037 dec8 9934 6db0 75b7 96b4 0fb7
00000020: 0a1d fbb7 f94d bbb7 48d0 5034 671e a937
00000030: 0163 15b6 c26a 3ab8 1135 1eb6 58ef a7b7
00000040: eb7b c838 2f37 7936 3f02 1936 fc00 ec38
00000050: 7f75 8bb7 3def dab7 efea b8b8 e9c9 1b34
00000060: 89e8 70b7 e01c 6db8 a2f5 2238 9617 ea36
5.2139967e-07 -1.8521026e-06 3.765168e-05 1.4889298e-05 1.4361611e-05 2.864462e-07 -1.4644215e-05 -8.56551e-06
-2.9935054e-05 -2.2328446e-05 1.9447282e-07 2.0160527e-05 -2.2260358e-06 -4.444528e-05 -2.3574723e-06 -2.0019404e-05
9.559825e-05 3.7136012e-06 2.2800084e-06 0.0001125354 -1.6624805e-05 -2.609903e-05 -8.8175635e-05 1.4508954e-07
-1.4359256e-05 -5.6532095e-05 3.8852573e-05 6.976489e-06

exp_avg_sq f4 [28]
00000000: 73e3 1133 fbe2 2433 4b16 a533 b775 e232
00000010: b836 6332 346d 0e32 8d00 3833 1a36 9a31
00000020: 9fb1 9031 ecf3 9732 831f 7a30 2de9 b333
00000030: 466d ce32 dbf5 0334 88b3 bd32 195d 0632
00000040: d0f1 6632 4438 ad30 a9ae 4133 9c1a 5234
00000050: cf19 1033 1992 3e34 da2e e233 babf c230
00000060: 7705 ed32 48bf dd33 cc99 fd33 3597 3631
3.3967307e-08 3.8390663e-08 7.687466e-08 2.6363393e-08 1.3225581e-08 8.290318e-09 4.284134e-08 4.4881405e-09
4.2111448e-09 1.7689636e-08 9.099425e-10 8.3777515e-08 2.4031248e-08 1.2289767e-07 2.2084137e-08 7.8209945e-09
1.3442744e-08 1.2603398e-09 4.5095167e-08 1.9567455e-07 3.3551085e-08 1.7748279e-07 1.0532467e-07 1.416985e-09
2.7592916e-08 1.0325908e-07 1.1809206e-07 2.6570437e-09
