mlruns/0/17390d13861d4e4180cd9ac316154133/artifacts/model/data/model.pth (torch, 340456 bytes, 8 tensors)

weight f4 [200, 284]
0.13723959 0.17029937 0.03688215 -0.12266044 0.039317537 -0.21711381 0.19455904 0.072956406
0.17452808 -0.1694624 -0.12685503 -0.024848938 -0.16017234 0.08704493 0.1761351 -0.050423577
0.2584611 0.12912816 -0.025952864 -0.039773963 -0.060801078 -0.16116126 0.0016409795 -0.19961378
0.06619316 0.053127702 -0.17667037 0.034320947 -0.26970312 -0.11333959 -0.051622756 -0.057142355
0.03146474 -0.06556567 0.13341342 0.21898605 0.035153877 -0.060041383 0.19059905 0.01523345
-0.24116725 -0.36313492 0.12117884 -0.09447296 -0.25329378 0.16329627 0.050481416 0.11413752
-0.0148677565 0.060876884 -0.12634155 0.10288787 -0.07453729 -0.0446106 -0.015469739 0.014544878
-0.098330095 -0.019708894 -0.14406542 -0.12870122 0.29574743 0.1802942 0.1746306 0.27698138
0.30878863 -0.16349815 0.17561233 0.10611269 0.097270064 0.014160831 -0.1970713 0.35677984
-0.23227693 -0.061381646 -0.008947998 -0.021008188 -0.009685585 0.1237842 0.07870154 0.012737544
0.12491021 -0.3141067 -0.06517782 0.20762363 0.05804937 -0.057922468 -0.27958754 -0.02965325
0.03195059 -0.22297664 -0.0033160774 -0.0040848246 0.2295962 -0.1391153 -0.044970926 0.023149483
0.18066818 -0.067376904 0.108930804 0.16080691 -0.0045814184 -0.122015715 0.020149764 0.02151241
0.07307765 0.20682073 0.009474022 0.20770836 0.08336895 0.023121905 0.28240243 -0.10818636
0.15558945 -0.12364167 -0.09463227 0.09538265 -0.20251699 -0.065107614 0.17181715 0.19555527
-0.030729802 -0.13402577 0.020665165 -0.052699145 0.17380075 0.140743 -0.06663389 -0.07633139
0.4345704 0.015118209 -0.16501373 0.220424 0.22044307 -0.078349225 0.0339774 0.119316705
0.04569613 0.16998528 0.33856335 0.28442168 0.010347483 -0.17359807 0.07781935 0.083312124
0.07390824 0.23042312 -0.08999722 -0.22393014 0.4646303 -0.029018106 0.17541501 0.0061394316
0.11951823 0.04483005 0.3224991 0.07527056 -0.049762703 0.08863008 -0.019088916 -0.084376164
0.14417891 0.17991124 -0.2762999 -0.22699416 -0.046162985 0.20019744 0.074533865 -0.15481986
0.13530713 0.112533376 -0.1812061 0.10145247 0.120496206 -0.19841829 0.07216591 0.0423613
-0.13433304 -0.2277859 0.15844461 0.11146495 -0.2871629 0.1928971 0.14247404 -0.041875925
-0.05156907 -0.034459293 0.08442978 0.02423889 -0.06108861 -0.0063386485 -0.056485467 0.2907437
-0.16367495 0.1379875 -0.31440133 -0.2217791 0.23038751 -0.060332242 0.09175512 0.019993039
0.11279895 -0.13024348 -0.06987249 0.13238731 0.11537001 -0.3008836 0.06666851 0.005869782
0.08712778 0.079087436 -0.10528836 -0.036700767 0.09173304 -0.14562106 0.14637859 -0.2716655
-0.29855388 -0.18486778 0.026180793 0.08396458 0.116827 -0.14793745 -0.14900693 -0.104591355
0.12623163 -0.0051036244 0.0818005 -0.045782305 -0.06809921 0.09409038 0.013758084 0.16968922
0.033303242 -0.09164704 0.06902454 0.13845792 -0.025171336 -0.106403895 -0.0016265407 -0.13534968
0.04025447 -0.11786772 -0.033664364 0.23356709 -0.12515467 0.26030168 -0.1862857 0.06435414
0.1115203 0.37543872 0.011794033 -0.03126749 0.016782416 0.17378089 -0.07522223 -0.18230496
00000000: 8988 0c3e f562 2e3e bd11 173d 6635 fbbd
00000010: 6d0b 213d 1553 5ebe 7c3a 473e 2b6a 953d
00000020: 7db7 323e 8d87 2dbe 49e6 01be 0090 cbbc
00000030: 3804 24be 9d44 b23d c25c 343e f488 4ebd
00000040: 0355 843e 2c3a 043e 1a9b d4bc 06ea 22bd
00000050: 8d0a 79bd 7507 25be 2316 d73a 8e67 4cbe
00000060: 4890 873d 6f9c 593d 14e9 34be 1f94 0c3d
00000070: 8716 8abe 961e e8bd 6272 53bd 1a0e 6abd
00000080: 2ce1 003d 4b47 86bd 879d 083e e13d 603e
00000090: 83fd 0f3d f4ed 75bd 662c 433e b895 793c
000000a0: 8cf4 76be d2ec b9be 9d2c f83d 0a7b c1bd
000000b0: b9af 81be 2337 273e 9ac5 4e3d efc0 e93d
000000c0: e497 73bc 0a5a 793d ae5f 01be e0b6 d23d
000000d0: 02a7 98bd 9bb9 36bd ca74 7dbc a44d 6e3c
000000e0: 4a61 c9bd 8c74 a1bc e385 13be 41ca 03be
000000f0: 356c 973e 0b9f 383e 5dd2 323e 81d0 8d3e
00000100: 8b19 9e3e 0f6c 27be b8d3 333e 9c51 d93d
00000110: 8735 c73d d502 683c 0fcd 49be d9ab b63e
00000120: 01da 6dbe 526b 7bbd a09a 12bc 5d19 acbc
00000130: 4ab0 1ebc 9282 fd3d 462e a13d 22b1 503c
00000140: edd0 ff3d 98d2 a0be f37b 85bd 4a9b 543e
00000150: 2dc5 6d3d 1c40 6dbd 1926 8fbe 5feb f2bc
00000160: 9fde 023d fd53 64be 8c52 59bb fed9 85bb
00000170: 441b 6b3e 3e74 0ebe 6f33 38bd fca3 bd3c
00000180: 1401 393e e7fc 89bd 1d17 df3d 91aa 243e
00000190: b91f 96bb 60e3 f9bd 1e11 a53c cb3a b03c
000001a0: bca9 953d d0c8 533e ee38 1b3c 80b1 543e
000001b0: 57bd aa3d 266a bd3c 0d97 903e cf90 ddbd
000001c0: d752 1f3e d837 fdbd 90ce c1bd fb57 c33d
000001d0: 9d60 4fbe 2457 85bd d6f0 2f3e a43f 483e
000001e0: 11bd fbbc 0d3e 09be fe49 a93c 0fdb 57bd
000001f0: d3f8 313e ef1e 103e 5977 88bd a253 9cbd
00000200: 0380 de3e 5db2 773c 5cf9 28be d4b6 613e
00000210: d4bb 613e 8f75 a0bd e32b 0b3d 515c f43d
00000220: dd2b 3b3d 9f10 2e3e 2d58 ad3e b89f 913e
00000230: 7d88 293c b1c3 31be c05f 9f3d 8c9f aa3d
00000240: 345d 973d 0af4 6b3e 7650 b8bd f14d 65be
00000250: 06e4 ed3e 61b7 edbc fe9f 333e 492d c93b
00000260: f9c5 f43d b79f 373d 9a1e a53e 7427 9a3d
00000270: fad3 4bbd b083 b53d 5c60 9cbc 69cd acbd
00000280: a3a3 133e a73a 383e 2e77 8dbe 2871 68be
00000290: 6615 3dbd 8f00 4d3e 36a5 983d 1989 1ebe
000002a0: f48d 0a3e e677 e63d 188e 39be 50c6 cf3d
000002b0: b7c6 f63d 2a2e 4bbe b8cb 933d 0b83 2d3d
000002c0: 9a8e 09be b540 69be 4e3f 223e bc47 e43d
000002d0: 0407 93be d186 453e b7e4 113e 1786 2bbd
000002e0: 173a 53bd 3025 0dbd 85e9 ac3d a390 c63c
000002f0: 0d38 7abd 70b4 cfbb 4e5d 67bd 5cdc 943e
00000300: 689a 27be 984c 0d3e 36f9 a0be 0f1a 63be
00000310: b4ea 6b3e f11e 77bd 1cea bb3d 71c8 a33c
00000320: 2303 e73d 8c5e 05be 4f19 8fbd 8a90 073e
00000330: 1d47 ec3d 6a0d 9abe 8089 883d 4d57 c03b
00000340: 0d70 b23d 98f8 a13d 6ca1 d7bd 8b53 16bd
00000350: 88de bb3d b01d 15be 45e4 153e be17 8bbe
00000360: 0edc 98be fb4d 3dbe 1a79 d63c 9ff5 ab3d
00000370: ff42 ef3d ea7c 17be 4695 18be fe33 d6bd
00000380: dd42 013e 4e3c a7bb 0587 a73d 3a86 3bbd
00000390: 9977 8bbd 75b2 c03d 9669 613c 03c3 2d3e
000003a0: fb68 083d 71b1 bbbd bd5c 8d3d eac7 0d3e
000003b0: 1e34 cebc 49ea d9bd a631 d5ba 1b99 0abe
000003c0: dfe1 243d a264 f1bd a5e3 09bd 362c 6f3e
000003d0: 8c28 00be 4346 853e aec1 3ebe 1acc 833d
000003e0: c164 e43d 8139 c03e c33b 413c 5712 00bd
000003f0: 477b 893c 9ef3 313e 1d0e 9abd 27ae 3abe

bias f4 [200]
-0.21675885 0.15182433 0.17869273 0.17553146 0.018252706 -0.37541485 -0.2365802 -0.2490978
-0.11231077 -0.4366466 -0.4953713 0.11126216 -0.24872303 -0.3291856 -0.24302681 -0.11188246
-0.20366925 -0.40466264 0.01338876 -0.08815006 0.14672844 -0.006389762 -0.26227704 -0.051427666
0.12296612 -0.076799735 0.054873902 -0.36892262 0.1242865 -0.2153372 0.048716832 -0.060887896
-0.39591265 0.18669476 0.040478427 0.037527107 -0.31036276 -0.38103113 -0.094443634 0.055578426
0.30903116 -0.036561698 0.099918984 -0.048700448 -0.25777924 0.23218007 -0.13098799 -0.389901
0.06844527 0.4774384 0.0024996484 0.06848117 -0.15201879 -0.20341632 -0.02686766 -0.13989955
-0.16539247 -0.17149837 0.14256775 0.5864815 -0.27609476 0.38690618 0.117834926 -0.39390126
-0.13451084 0.37258768 0.2701286 0.1642598 0.082927704 0.41780838 0.10956514 0.012454099
0.023051139 0.082127884 0.26093087 -0.36240894 -0.4523897 -0.085698485 0.050945166 0.1285267
-0.06525433 -0.34298924 -0.10324791 -0.35605186 0.13279028 0.28621417 0.46534246 -0.058482934
0.16845992 -0.25476313 0.12454095 0.1358021 -0.448414 -0.043283653 0.15566444 -0.16371319
0.20233367 0.28860185 -0.2572973 -0.30399036 0.34303266 0.19295332 0.16999985 -0.13896564
-0.32456294 0.36432406 0.10407155 0.1546987 0.20738417 0.16265418 -0.109656215 0.08398875
0.2481719 0.14636981 -0.22500263 0.37839827 0.035132214 -0.41666454 0.5566964 -0.18461709
-0.29095933 -0.34226903 0.20829189 -0.027163845 -0.05304872 -0.39577425 -0.17199707 -0.1554887
-0.08559648 0.18330966 0.031248229 -0.2592661 -0.057790432 -0.0026053034 -0.29738164 -0.07886806
0.19690458 0.034159068 -0.20257996 -0.012217382 0.14827862 -0.03480522 -0.07109643 -0.15513453
-0.042955704 0.17050937 -0.21268573 0.16188435 -0.0721787 -0.2750508 -0.043744132 -0.015257519
-0.05918808 0.29153523 0.07826731 -0.4349379 -0.033335283 -0.05647918 0.061328784 -0.3829691
-0.121153444 0.049892224 0.096449636 -0.05501489 0.11034883 -0.20012161 0.12010796 -0.3948636
-0.10345477 0.36468977 0.05400243 -0.5054748 -0.36848482 0.18090321 -0.21701398 0.06701253
0.12787549 -0.26013908 0.1713199 0.11677172 -0.30627984 -0.37928715 -0.10310807 -0.05386446
-0.39685476 -0.18997978 -0.34003565 -0.12902303 0.38129446 -0.0011068289 -0.14103206 -0.14841138
-0.48104715 0.05722908 -0.114343345 -0.45878214 0.1213598 0.16323747 0.041936584 0.21106656
00000000: 08f6 5dbe d677 1b3e 3afb 363e 85be 333e
00000010: b386 953c 6036 c0be 1442 72be 7e13 7fbe
00000020: 3003 e6bd 2590 dfbe 4fa1 fdbe 6add e33d
00000030: 40b1 7ebe 048b a8be 05dc 78be a222 e5bd
00000040: ac8e 50be f12f cfbe 885c 5b3c 0588 b4bd
00000050: fb3f 163e 3561 d1bb 2d49 86be d1a5 52bd
00000060: a9d5 fb3d 2e49 9dbd 75c3 603d 6de3 bcbe
00000070: ec89 fe3d 5b81 5cbe 4d8b 473d 9665 79bd
00000080: 10b5 cabe e92c 3f3e b5cc 253d 06b6 193d
00000090: dee7 9ebe 8316 c3be aa6b c1bd 34a6 633d
000000a0: 5539 9e3e b8c1 15bd 53a2 cc3d 1f7a 47bd
000000b0: a4fb 83be 9dc0 6d3e b721 06be 1ba1 c7be
000000c0: 092d 8c3d ce72 f43e 24d1 233b db3f 8c3d
000000d0: d0aa 1bbe 5e4c 50be 9119 dcbc d441 0fbe
000000e0: a55c 29be 459d 2fbe 48fd 113e a723 163f
000000f0: 4b5c 8dbe 9118 c63e 7053 f13d 6dad c9be
00000100: 36bd 09be d0c3 be3e 4c4e 8a3e b933 283e
00000110: 00d6 a93d fbea d53e b063 e03d 470c 4c3c
00000120: bed5 bc3c aa32 a83d bb98 853e aa8d b9be
00000130: 9f9f e7be b082 afbd e1ab 503d 819c 033e
00000140: 10a4 85bd 499c afbe a473 d3bd 6e4c b6be
00000150: 2dfa 073e aa8a 923e 5e41 ee3e cd8b 6fbd
00000160: c280 2c3e 5070 82be 530f ff3d b50f 0b3e
00000170: 8596 e5be 334a 31bd 8066 1f3e 6ea4 27be
00000180: 8f30 4f3e 9fc3 933e 79bc 83be a0a4 9bbe
00000190: faa1 af3e 8e95 453e 7114 2e3e 024d 0ebe
000001a0: 1d2d a6be af88 ba3e 7723 d53d 5669 1e3e
000001b0: 845c 543e d18e 263e 7093 e0bd 4b02 ac3d
000001c0: c620 7e3e f8e1 153e 1767 66be 6bbd c13e
000001d0: cce6 0f3d 0e55 d5be a883 0e3f 430c 3dbe
000001e0: 9ff8 94be e33d afbe 784a 553e b686 debc
000001f0: 9d49 59bd eca2 cabe 0020 30be 6e38 1fbe
00000200: 354d afbd 87b5 3b3e 49fc ff3c 87be 84be
00000210: a9b5 6cbd bdbd 2abb 6842 98be 9485 a1bd
00000220: 5ba1 493e 61ea 0b3d 1f71 4fbe 6a2b 48bc
00000230: 5ad6 173e eb8f 0ebd 019b 91bd 96db 1ebe
00000240: 52f2 2fbd 029a 2e3e 4aca 59be 03c5 253e
00000250: 6dd2 93bd 75d3 8cbe 0c2d 33bd acfa 79bc
00000260: 336f 72bd 1b44 953e 9d4a a03d 2eb0 debe
00000270: 948a 08bd b656 67bd e433 7b3d 8714 c4be
00000280: 4c1f f8bd ca5b 4c3d 6387 c53d 4b57 61bd
00000290: 91fe e13d aeec 4cbe 2afb f53d 902b cabe
000002a0: 18e0 d3bd 9eb8 ba3e a731 5d3d cc66 01bf
000002b0: 0baa bcbe b13e 393e ea38 5ebe de3d 893d
000002c0: cbf1 023e f330 85be 7c6e 2f3e 0326 ef3d
000002d0: b6d0 9cbe ed31 c2be 532a d3bd fba0 5cbd
000002e0: 8c30 cbbe 0f8a 42be 2719 aebe 9d1e 04be
000002f0: 0739 c33e 0413 91ba b56a 10be 27f9 17be
00000300: d04b f6be 0a69 6a3d d82c eabd 7ee5 eabe
00000310: 7d8b f83d b927 273e b2c5 2b3d d521 583e

weight f4 [100, 200]
-0.028916694 -0.012087888 -0.04835306 -0.026244016 -0.09250376 0.005764445 -0.040018085 0.0057808864
-0.014245182 -0.10471672 -0.027376713 -0.021230888 -0.10864326 -0.08194835 -0.06993074 -0.006298674
-0.11998086 -0.0428392 -0.123814374 0.0057517397 -0.12129268 -0.060372904 -0.07007965 -0.017627059
-0.08492762 0.0077945353 -0.1221988 -0.091897175 -0.08564414 0.105531 -0.03488181 0.0066033453
-0.04878565 0.05923594 -0.061394826 0.007441747 -0.056824256 -0.098667204 -0.01587323 -0.016099697
-0.060519215 -0.019191792 -0.1304372 -0.05071393 -0.086037435 -0.00986528 -0.0023423096 -0.09281259
-0.08194986 -0.119378224 -0.118596904 -0.123361185 -0.029729424 -0.057431955 0.009082943 -0.06093669
-0.032391407 -0.04584391 -0.0013981358 -0.105919905 -0.037009176 -0.12826376 -0.0675837 -0.10317824
0.0035033878 -0.09656669 -0.071435474 -0.065845616 -0.042859837 -0.0067575667 -0.07059811 -0.029404923
-0.038982563 -0.035461623 -0.061572302 -0.01228951 -0.073806636 -0.012860321 -0.074240796 -0.07305761
0.07404486 -0.028947415 0.013496745 -0.07788929 -0.0652297 -0.043778434 -0.115271166 -0.060261562
-0.06612882 0.0013067884 0.0040668515 -0.0010220143 -0.122187614 0.0059206462 -0.1023073 -0.06904731
-0.09440899 -0.117017075 -0.07265654 -0.009167311 -0.10599508 -0.071150005 -0.06760775 -0.12667161
-0.08874196 -0.053606134 -0.10831727 -0.0778931 -0.040183105 -0.03641632 -0.10287757 -0.043000445
-0.022251952 -0.04993536 -0.0015522516 -0.028705807 -0.09440022 -0.12603311 -0.055991404 -0.041816294
-0.037064884 -0.10940548 -0.105733156 -0.1178052 -0.08887958 -0.09018069 -0.015830774 -0.1259546
-0.09334496 -0.094192594 0.009837836 -0.014659209 -0.12891926 -0.023125157 -0.060361374 0.007453443
-0.12539145 -0.004233777 -0.05391759 -0.06917683 -0.08485705 -0.11663706 -0.022360008 -0.010155916
-0.047157798 -0.008735039 -0.04045435 -0.0766264 -0.028788205 -0.005752964 -0.013232358 -0.11951649
0.006025929 -0.07137774 -0.089157686 -0.058645457 0.0011037299 -0.018263873 -0.005604741 -0.12640905
0.003466254 -0.042718947 -0.08091216 -0.10796957 -0.09797021 -0.06926589 -0.061883032 -0.11657239
-0.11604325 -0.04710259 -0.078295566 -0.11587793 -0.06410049 -0.0070916484 -0.035785526 0.009947534
-0.083715074 -0.038523644 -0.111801974 -0.05320464 -0.03450856 -0.08051998 -0.020065887 -0.08824487
-0.07717149 -0.08205501 0.0023168032 -0.089398585 -0.042004846 -0.012317098 -0.02944827 -0.10389981
-0.11263203 -0.04578276 -0.02748684 -0.04147926 -0.10949536 -0.040634293 -0.007441509 -0.052070554
0.026055185 0.086318135 0.029885454 0.058972202 -0.04121107 -0.21344696 0.030902997 -0.106014
-0.042094477 0.025544526 0.08698626 -0.08055277 -0.26916096 -0.07915834 0.0073949783 0.010184563
0.1295177 -0.090356655 -0.02157827 -0.221281 0.06766309 -0.3476178 -0.0856097 0.0034833415
-0.1569714 0.01625472 -0.10708795 -0.15495977 -0.01708598 0.033955984 -0.055482816 -0.044581007
-0.016657675 0.066873506 0.037459366 0.011753784 -0.11018683 -0.073740125 0.058286853 -0.008160755
-0.077186905 -0.118791625 0.024304932 -0.008171229 -0.06748158 0.02343267 -0.05654285 -0.0611363
-0.09290892 -0.34267065 -0.20148255 -0.1902199 -0.17648198 0.002381821 -0.032853626 -0.15818715
00000000: b4e2 ecbc 470c 46bc dc0d 46bd b1fd d6bc
00000010: 9c72 bdbd abe3 bc3b 01ea 23bd 976d bd3b
00000020: a064 69bc b875 d6bd 2145 e0bc 66ec adbc
00000030: 5c80 debd 89d4 a7bd d937 8fbd 1b65 cebb
00000040: 86b8 f5bd 2878 2fbd 6492 fdbd 1779 bc3b
00000050: 4c68 f8bd 9449 77bd eb85 8fbd 9f66 90bc
00000060: 88ee adbd 4d69 ff3b 5d43 fabd 9634 bcbd
00000070: 3266 afbd a320 d83d 3be0 0ebd e060 d83b
00000080: 76d3 47bd 63a1 723d 2479 7bbd e6d9 f33b
00000090: 8dc0 68bd 0812 cabd 9308 82bc 83e3 83bc
000000a0: ffe2 77bd 1b38 9dbc 5491 05be 69b9 4fbd
000000b0: 6534 b0bd fca1 21bc 6f81 19bb 8714 bebd
000000c0: 54d5 a7bd 927c f4bd efe2 f2bd caa4 fcbd
000000d0: 1f8b f3bc c53d 6bbd a0d0 143c c098 79bd
000000e0: daac 04bd d3c6 3bbd a741 b7ba 89ec d8bd
000000f0: ef96 17bd 9357 03be 5369 8abd 1d4f d3bd
00000100: 1899 653b c2c4 c5bd c34c 92bd 11da 86bd
00000110: cc8d 2fbd 946e ddbb be95 90bd 98e2 f0bc
00000120: 2eac 1fbd 3540 11bd 3d33 7cbd f159 49bc
00000130: ef27 97bd 19b4 52bc 8f0b 98bd 3a9f 95bd
00000140: d5a4 973d 2123 edbc 7421 5d3c 6c84 9fbd
00000150: 2697 85bd 0451 33bd 4a13 ecbd d4d4 76bd
00000160: 8c6e 87bd 8b48 ab3a 3943 853b 1cf5 85ba
00000170: 803d fabd fb01 c23b 7d86 d1bd ad68 8dbd
00000180: 8059 c1bd a6a6 efbd f4cc 94bd 7d32 16bc
00000190: f313 d9bd 18b7 91bd ef75 8abd 34b6 01be
000001a0: 58be b5bd 1b92 5bbd 72d5 ddbd 6b86 9fbd
000001b0: 0a97 24bd 4729 15bd 7ab1 d2bd 3c21 30bd
000001c0: ba49 b6bc 0589 4cbd ec74 cbba 7128 ebbc
000001d0: e754 c1bd d30e 01be 3e57 65bd 9047 2bbd
000001e0: 59d1 17bd fb0f e0bd a08a d8bd da43 f1bd
000001f0: 7f06 b6bd a7b0 b8bd 8aaf 81bc 3efa 00be
00000200: a42b bfbd 0ce8 c0bd e02e 213c 2e2d 70bc
00000210: 6903 04be f870 bdbc 7d3d 77bd 033c f43b
00000220: 9e66 00be 7fbb 8abb b1d8 5cbd 95ac 8dbd
00000230: 88c9 adbd 69df eebd 562c b7bc 0065 26bc
00000240: 8928 41bd 691d 0fbc 76b3 25bd 4dee 9cbd
00000250: 3ed5 ebbc 5c83 bcbb 88cc 58bc 10c5 f4bd
00000260: 2875 c53b 7e2e 92bd 4e98 b6bd 3836 70bd
00000270: 08ab 903a 1e9e 95bc faa7 b7bb 6071 01be
00000280: 182a 633b 10fa 2ebd 46b5 a5bd 261f ddbd
00000290: 9ba4 c8bd 46db 8dbd 1079 7dbd 81bd eebd
000002a0: 15a8 edbd a5ee 40bd 6d59 a0bd 6851 edbd
000002b0: 1e47 83bd 0f61 e8bb d893 12bd fbfa 223c
000002c0: cf72 abbd f8ca 1dbd 6ff8 e4bd 1ced 59bd
000002d0: d958 0dbd a9e7 a4bd 3761 a4bc bab9 b4bd
000002e0: 160c 9ebd 750c a8bd 82d5 173b 9b16 b7bd
000002f0: 460d 2cbd a7cd 49bc 803d f1bc 6cc9 d4bd
00000300: 9fab e6bd b486 3bbd 152c e1bc 28e6 29bd
00000310: 1a3f e0bd 2570 26bd e7d7 f3bb ef47 55bd
00000320: af71 d53c 90c7 b03d 57d2 f43c d68c 713d
00000330: f0cc 28bd d791 5abe 4828 fd3c de1d d9bd
00000340: 426b 2cbd c142 d13c da25 b23d daf8 a4bd
00000350: 77cf 89be c51d a2bd 9351 f23b 27dd 263c
00000360: 4aa0 043e e90c b9bd e9c4 b0bc 7d97 62be
00000370: f292 8a3d f6fa b1be 2354 afbd c648 643b
00000380: 1cbd 20be 9e28 853c ed50 dbbd c6ad 1ebe
00000390: e6f7 8bbc 6e15 0b3d f341 63bd 939a 36bd
000003a0: ad75 88bc faf4 883d fe6e 193d f192 403c
000003b0: a2a9 e1bd 1005 97bd 32be 6e3d b0b4 05bc
000003c0: 2b14 9ebd 0649 f3bd 231b c73c 9ee0 05bc
000003d0: c833 8abd dff5 bf3c 7a99 67bd 0f6a 7abd
000003e0: 0847 bebd 8772 afbe 7151 4ebe 01c9 42be
000003f0: b1b7 34be 5318 1c3b 8691 06bd d0fb 21be

bias f4 [100]
-0.09412049 -0.053530365 0.08815761 -0.08652557 -0.085328564 0.1047893 -0.1517555 -0.11885018
-0.023351151 -0.053568598 -0.09792691 0.25798094 -0.11713502 -0.11349865 -0.034718536 -0.14373553
-0.081473246 0.37664443 -0.12354291 -0.01507627 -0.11904099 0.23143277 -0.07496567 -0.13149707
-0.04508404 -0.121017784 -0.28201595 -0.02186673 -0.187172 0.4023773 0.059354767 -0.18736109
-0.29523936 0.413341 -0.0009313514 -0.0039502615 -0.13604522 0.27485487 -0.08428693 -0.24968034
-0.12764987 -0.08026764 -0.035931315 0.005106538 0.03407245 -0.15540649 -0.031877745 -0.06456079
-0.038796052 0.33828667 -0.062415745 -0.0013918253 0.28904188 -0.01105715 0.19024661 -0.0085075125
0.04428466 -0.012240241 -0.11005772 -0.030896826 -0.015853558 -0.10561663 -0.12185278 -0.18658957
-0.100409426 -0.13403042 0.057734832 -0.0058615 -0.15281114 -0.017898086 -0.06269289 -0.062982924
0.06162333 -0.07627144 -0.0803285 0.25340042 -0.11826831 0.0050370693 -0.19800171 -0.1292392
0.17578751 -0.1614913 -0.023123287 -0.0809513 0.01667728 -0.10411762 -0.07072227 0.039930146
-0.014229113 -0.10460721 -0.003955233 -0.109864 -0.09236899 -0.16519354 -0.20387422 -0.009105129
0.03505953 0.14655568 0.0047547347 -0.051070716
00000000: 3ec2 c0bd a842 5bbd fa8b b43d 5134 b1bd
00000010: bec0 aebd c69b d63d cb65 1bbe b967 f3bd
00000020: ea4a bfbc bf6a 5bbd e78d c8bd 1416 843e
00000030: 7ce4 efbd fb71 e8bd 0635 0ebd 682f 13be
00000040: 72db a6bd 8ad7 c03e 1104 fdbd 7602 77bc
00000050: c3cb f3bd b6fc 6c3e 9a87 99bd 2ba7 06be
00000060: 0baa 38bd 2cd8 f7bd 6564 90be db21 b3bc
00000070: 04aa 3fbe 6604 ce3e fc1d 733d 96db 3fbe
00000080: 9d29 97be 6ea1 d33e ef25 74ba 3271 81bb
00000090: 704f 0bbe c7b9 8c3e a09e acbd 34ac 7fbe
000000a0: a6b6 02be 5c63 a4bd b72c 13bd bf54 a73b
000000b0: 8e8f 0b3d e122 1fbe 3d92 02bd 7338 84bd
000000c0: 9ce8 1ebd e933 ad3e a7a7 7fbd e86d b6ba
000000d0: 4cfd 933e 0c29 35bc 02d0 423e 1863 0bbc
000000e0: d563 353d 4b8b 48bc f165 e1bd 571b fdbc
000000f0: 52df 81bc 884d d8bd f38d f9bd 5611 3fbe
00000100: 75a3 cdbd 453f 09be 5c7b 6c3d d311 c0bb
00000110: 867a 1cbe 029f 92bc 2165 80bd 31fd 80bd
00000120: bf68 7c3d 3334 9cbd 4583 a4bd b3bd 813e
00000130: a836 f2bd 000e a53b f6c0 4abe 4857 04be
00000140: a401 343e fa5d 25be 0c6d bdbc ccc9 a5bd
00000150: cb9e 883c 9e3b d5bd d6d6 90bd cb8d 233d
00000160: 3a21 69bc 4e3c d6bd e69a 81bb 6000 e1bd
00000170: f42b bdbd 7f28 29be 67c4 50be ae2d 15bc
00000180: 959a 0f3d b112 163e 9bcd 9b3b 872f 51bd

weight f4 [50, 100]
0.14446439 -0.06986637 -0.0027349328 0.07793587 -0.05492421 -0.070026614 0.032228377 -0.050228816
-0.07874682 -0.12220098 -0.10958936 0.01064868 0.023098996 0.025044743 -0.12178054 0.06528454
-0.072090924 -0.20710976 0.006087197 -0.1588266 -0.12540616 -0.033367995 0.009525027 -0.02827705
-0.020674514 -0.09660989 -0.1375554 -0.19536531 -0.20860557 -0.2433375 -0.22766048 -0.14202711
-0.065239035 0.026368825 -0.1638116 -0.048358195 -0.049272966 0.0047230492 -0.05568663 -0.004921472
-0.13196613 -0.044991005 -0.20550051 -0.04824742 -0.019197883 -0.08680839 -0.123104945 -0.060824104
-0.14353274 -0.23155886 -0.08561283 -0.033411145 0.06803835 -0.07403453 -0.054099143 -0.046004068
-0.10778399 0.0671959 -0.13929145 0.024159217 -0.037764475 -0.11243201 -0.080806345 -0.013241903
-0.06541626 -0.029753378 -0.02582928 -0.089752235 -0.1294831 0.005805075 -0.07835845 0.01469196
-0.07093312 -0.0050734165 -0.05539676 -0.13391785 0.012717771 0.051242158 -0.03684236 0.014668382
-0.10314281 -0.13649596 -0.020323819 0.0061689946 -0.028674332 -0.026645806 -0.004036714 -0.17710455
-0.054717466 -0.06420493 0.10922342 -0.017030064 -0.0067764404 -0.027640773 -0.027360436 0.039806303
-0.05684076 -0.085387275 -0.051083215 -0.022300176 -0.08804077 -0.17295139 0.18749781 -0.07945872
-0.15888263 -0.06756195 -0.18884936 -0.12001209 0.080995075 -0.10776991 -0.11453041 -0.42169482
-0.14417475 -0.1351071 -0.15926442 0.02541681 -0.020095026 -0.6492969 0.025216794 -0.2605104
-0.025608772 0.14480868 -0.3350715 0.11980223 0.021603016 0.07004672 0.058749594 0.18469146
-0.022329304 -0.7185406 0.27401343 -0.10348827 -0.09645675 -0.6000426 0.11411864 -0.12569061
-0.025353275 -0.62667197 -0.11819994 0.28876433 -0.25338846 -0.039411843 0.042554796 0.15035854
-0.550095 -0.39288434 -0.105030976 -0.3977554 -0.0121923955 -0.4747553 0.07768385 -0.119351335
-0.27237898 0.07334824 -0.19723961 0.14837071 -0.33437297 -0.00074221817 -0.113908924 -0.050753653
-0.05808277 -0.45049396 -0.16888526 -0.2577523 0.17764369 -0.44638368 -0.2726194 -0.031197602
-0.45565116 -0.0443201 -0.0068553737 0.004163989 -0.15411016 -0.01996102 0.039580856 -0.22807652
-0.092770904 0.02005882 0.05891898 -0.061738 -0.50409025 0.16996211 0.15911028 0.027806234
-0.29249522 -0.19672376 0.023054464 -0.07330009 -0.1585501 -0.3754267 0.12036399 -0.2505096
-0.03389552 -0.36456951 0.09283533 0.02879211 -0.58074784 -0.15483478 0.044661786 -0.011837173
0.07743468 0.017604126 -0.45613694 0.019573556 -0.10663075 -0.036312602 0.1452482 -0.03733558
-0.27866715 -0.12545717 0.28180188 -0.07685798 0.2226109 -0.2003724 -0.016038151 -0.025511239
-0.015145226 0.100049846 0.07316183 0.17385322 0.0074462797 0.06191873 -0.16024026 -0.022874976
0.02567759 0.09500375 0.06331571 0.23324575 -0.14112364 0.15653518 -0.20069662 -0.063311905
0.06791576 0.080647506 -0.043691438 -0.033475988 -0.043480214 0.12115546 0.054683678 -0.12099961
0.15423681 -0.008905435 -0.42588925 -0.15934926 0.14388914 0.18010631 0.25156364 0.21779875
0.043982413 0.1334028 0.027220024 0.11650461 -0.042443566 0.03082217 -0.37308255 -0.111143805
00000000: 79ee 133e 1916 8fbd 8f3c 33bb d79c 9f3d
00000010: 35f8 60bd 1d6a 8fbd e701 043d bbbc 4dbd
00000020: 0346 a1bd 8244 fabd 6370 e0bd cd77 2e3c
00000030: 1b3a bd3c a22a cd3c 1368 f9bd e7b3 853d
00000040: 68a4 93bd 9514 54be 1c77 c73b 71a3 22be
00000050: 796a 00be e1ac 08bd dc0e 1c3c 46a5 e7bc
00000060: 995d a9bc 68db c5bd 53db 0cbe d80d 48be
00000070: b39c 55be 772d 79be d41f 69be 8e6f 11be
00000080: 0b9c 85bd 6f03 d83c 3abe 27be 3e13 46bd
00000090: 73d2 49bd cfc3 9a3b aa17 64bd 4d44 a1bb
000000a0: 2122 07be 7d48 38bd ba6e 52be 169f 45bd
000000b0: e144 9dbc 99c8 b1bd 721e fcbd b222 79bd
000000c0: 3ffa 12be c41d 6dbe c855 afbd 20da 08bd
000000d0: b157 8b3d 6a9f 97bd 1097 5dbd c36e 3cbd
000000e0: dabd dcbd 019e 893d 6ba2 0ebe 8de9 c53c
000000f0: ecae 1abd c142 e6bd cc7d a5bd 91f4 58bc
00000100: f6f8 85bd 5bbd f3bc ed97 d3bc 05d0 b7bd
00000110: 3897 04be 8038 be3b 657a a0bd 8cb6 703c
00000120: 6245 91bd e73e a6bb b7e7 62bd c321 09be
00000130: 335e 503c 4ce3 513d 04e8 16bd a753 703c
00000140: 8a3c d3bd 99c5 0bbe 237e a6bc 4725 ca3b
00000150: 6fe6 eabc 4e48 dabc 6946 84bb e55a 35be
00000160: 6c1f 60bd e07d 83bd 87b0 df3d a282 8bbc
00000170: e70c debb e76e e2bc fe22 e0bc ef0b 233d
00000180: dbd1 68bd 86df aebd a23c 51bd dcae b6bc
00000190: b84e b4bd 2b1a 31be 6dff 3f3e 41bb a2bd
000001a0: 21b2 22be eb5d 8abd ba61 41be e6c8 f5bd
000001b0: bfe0 a53d 78b6 dcbd eb8e eabd 62e8 d7be
000001c0: 8ca2 13be 8459 0abe 3616 23be ea36 d03c
000001d0: 539e a4bc 5238 26bf 7393 ce3c 9f61 85be
000001e0: 7dc9 d1bc ba48 143e 7e8e abbe df5a f53d
000001f0: cff8 b03c a874 8f3d 6aa3 703d c21f 3d3e
00000200: f2eb b6bc 47f2 37bf 7d4b 8c3e a8f1 d3bd
00000210: 1e8b c5bd 649c 19bf 09b7 e93d 0ab5 00be
00000220: acb1 cfbc 936d 20bf cf12 f2bd ebd8 933e
00000230: 22bc 81be 506e 21bd f04d 2e3d 97f7 193e
00000240: 07d3 0cbf 2328 c9be 7b1a d7bd 99a6 cbbe
00000250: 9dc2 47bc 2013 f3be b618 9f3d 796e f4bd
00000260: 4275 8bbe 9a37 963d 2ef9 49be 7eee 173e
00000270: ef32 abbe 6b91 42ba 1549 e9bd 10e3 4fbd
00000280: 33e8 6dbd 25a7 e6be 42f0 2cbe 1cf8 83be
00000290: 3ae8 353e 678c e4be c594 8bbe 1d92 ffbc
000002a0: 1c4b e9be fe88 35bd 0ba3 e0bb 1272 883b
000002b0: 0ecf 1dbe 4b85 a3bc 891f 223d e48c 69be
000002c0: acfe bdbd 6552 a43c 0755 713d fce0 7cbd
000002d0: 0f0c 01bf 8c0a 2e3e ceed 223e e6c9 e33c
000002e0: efc1 95be f471 49be b7dc bc3c 5c1e 96bd
000002f0: f55a 22be ee37 c0be 6581 f63d cb42 80be
00000300: 07d6 0abd dba8 babe 7320 be3d 6edd eb3c
00000310: e4ab 14bf 028d 1ebe 47ef 363d b4f0 41bc
00000320: 1396 9e3d 8736 903c c88a e9be b958 a03c
00000330: 3961 dabd 86bc 14bd f2bb 143e 31ed 18bd
00000340: 76ad 8ebe d877 00be 5648 903e b767 9dbd
00000350: 1df4 633e 6c2e 4dbe 7162 83bc f2fc d0bc
00000360: af23 78bc efe6 cc3d dfd5 953d 9406 323e
00000370: ecff f33b 7f9e 7d3d 0616 24be 4d64 bbbc
00000380: cf59 d23c 5391 c23d abab 813d f9d7 6e3e
00000390: b782 10be c24a 203e 6a83 4dbe aca9 81bd
000003a0: 6b17 8b3d 852a a53d cbf5 32bd 1e1e 09bd
000003b0: 4f18 32bd 5b20 f83d fefb 5f3d a5ce f7bd
000003c0: 41f0 1d3e 1ae8 11bc 280e dabe 742c 23be
000003d0: ad57 133e ca6d 383e f3cc 803e a306 5f3e
000003e0: e726 343d be9a 083e 87fc de3c f899 ee3d
000003f0: 4ed9 2dbd c77e fc3c ad04 bfbe 5d9f e3bd

bias f4 [50]
-0.22202823 0.15646666 -0.010048009 -0.08108415 -0.22880293 -0.080335855 -0.08932123 0.089439824
0.18153062 -0.0116535565 -0.106782414 -0.092441425 0.015918104 -0.14849763 0.025903858 -0.084332936
0.26406956 -0.13702232 0.021831805 -0.13338259 0.13963032 -0.19242117 -0.12477476 0.080572136
0.031011062 0.020575956 -0.20150523 -0.102632046 -0.03796084 0.007392158 -0.07363336 0.1668375
0.034228753 -0.15028408 0.02645645 -0.05388973 -0.13179448 0.20414616 0.33215442 0.11239431
-0.08656477 0.03878163 -0.1846013 -0.17308855 0.010893375 -0.16816972 0.025756266 -0.06480993
-0.11672586 -0.030216988
00000000: 5e5b 63be cc38 203e 68a0 24bc 720f a6bd
00000010: 514b 6abe 2087 a4bd 0dee b6bd 3a2c b73d
00000020: 2ae3 393e 8fee 3ebc bdb0 dabd ee51 bdbd
00000030: af66 823c c30f 18be 5434 d43c bfb6 acbd
00000040: 2034 873e 944f 0cbe 9dd8 b23c 7295 08be
00000050: 40fb 0e3e 0e0a 45be e989 ffbd 0103 a53d
00000060: e90a fe3c e88e a83c 6357 4ebe c030 d2bd
00000070: d37c 1bbd ea39 f23b 16cd 96bd 73d7 2a3e
00000080: 7333 0c3d 12e4 19be 32bb d83c 7abb 5cbd
00000090: 22f5 06be b10b 513e 2510 aa3e fd2e e63d
000000a0: df48 b1bd 7dd9 1e3d 2008 3dbe 203e 31be
000000b0: 207a 323c af34 2cbe cefe d23c 12bb 84bd
000000c0: f80d efbd 9e89 f7bc

weight f4 [28, 50]
-0.08633053 0.007291323 -0.03506069 0.10214217 0.11739527 0.053191535 0.070966475 -0.2595202
0.020793108 -0.09941446 -0.065282926 0.12639171 -0.2372204 -0.2829711 0.09708411 -0.026371932
-0.05370438 0.035944 0.06457418 0.09397003 -0.26836538 -0.09920705 -0.033386156 -0.24843241
-0.07241905 -0.080829084 -0.20461261 0.08513816 -0.03298156 -0.046259847 -0.112171024 -0.028309466
-0.010690097 -0.18311723 -0.057046544 0.023244547 -0.11030835 -0.25218582 -0.23737961 0.010990448
-0.096627146 0.111169204 0.02982163 -0.096075274 -0.19564971 -0.002540918 0.12517671 -0.04046936
-0.04223381 -0.0067029814 -0.1168466 -0.12392643 -0.17584708 -0.3905524 -0.069932394 -0.25059435
-0.0601989 0.026315184 -0.090063535 -0.118304804 -0.017830072 -0.02832269 -0.15374199 -0.032109424
-0.16292346 -0.2051646 -0.056928847 -0.13319135 -0.25068733 -0.09320131 -0.33369118 -0.021976652
-0.14799175 -0.21910626 -0.19619526 -0.034962013 -0.28417403 -0.10703412 -0.17696978 -0.12563093
0.17094423 -0.18158184 -0.2842083 -0.04750302 -0.01673768 -0.02201866 -0.011420618 -0.3482412
-0.18586038 -0.23033737 0.080599 -0.328093 -0.28894338 0.0062328056 -0.24833265 -0.003357525
-0.12068388 -0.0965424 0.046804033 -0.046495184 0.00611697 0.008987766 -0.4720608 0.2125228
0.15744942 0.009601539 -0.04831047 -0.53261566 0.20446731 -0.32165197 -0.113111995 0.011862223
-0.06311006 -0.52732843 0.21217965 -0.31725398 -0.14540437 -0.19150949 0.14133492 0.42785195
-0.2637649 0.21330804 -0.047283992 -0.015550422 -0.1530331 0.0040793433 -0.09456775 0.32737613
-0.15797713 -0.08959214 0.08148019 -0.57215667 -0.31601813 -0.06069725 -0.1650916 0.3785129
-0.18352357 -0.5759234 -0.48003224 -0.25115895 0.07671201 0.227395 0.32128778 -0.18934207
-0.2740948 -0.09910938 0.16315211 0.06294345 -0.13710882 0.006662199 -0.19378574 0.30271
-0.30349487 0.22514081 -0.12663801 -0.076700054 0.03752558 -0.30407125 0.25413436 -0.14402717
-0.17891274 -0.031795785 -0.60639906 -0.20050617 -0.16896798 0.02615612 -0.16154838 0.04214805
-0.5079291 -0.15800573 0.094361 -0.12484765 -0.014202687 0.3264613 -0.08031 -0.16491868
0.002102814 0.14391741 -0.20325667 -0.50706875 -0.07972625 -0.25063908 0.050995056 -0.034775015
-0.1958937 0.2989432 0.004852216 -0.6017708 -0.76438934 -0.4378137 -0.120046966 -0.10533225
-0.015277301 -0.12947825 -0.42670557 0.056711085 -0.06959312 0.033989254 -0.1899779 -0.0044767684
-0.20921044 -0.39595753 -0.07590816 -0.13582551 -0.16891803 0.014501292 0.08187823 0.10145982
0.10678631 -0.18353185 0.000598355 -0.11652788 0.07844289 -0.097261496 0.015512695 -0.15625156
-0.05463991 -0.18969701 -0.13384075 0.09338579 -0.025011616 -0.12760295 -0.0556137 -0.21990998
-0.011436824 0.08315139 -0.1255778 0.0801406 -0.0283954 -0.04835259 0.28982022 0.10784332
0.024624135 -0.073386885 -0.035276584 0.09846774 -0.19393535 -0.21879514 -0.16228925 0.025646083
0.07527282 -0.050677583 -0.13760056 0.015164793 0.081405915 0.061427247 0.019747641 0.047579493
-0.07443293 0.022993907 0.0097632315 0.012806286 -0.12570763 -0.28582132 0.07206003 -0.031460863
00000000: 10ce b0bd 0dec ee3b cc9b 0fbd ea2f d13d
00000010: ee6c f03d 5edf 593d df56 913d d5df 84be
00000020: 4f56 aa3c cf99 cbbd 0eb3 85bd d46c 013e
00000030: e8e9 72be 97e1 90be 09d4 c63d f309 d8bc
00000040: 20f9 5bbd 043a 133d 783f 843d 5c73 c03d
00000050: 3067 89be 112d cbbd ecbf 08bd 1165 7ebe
00000060: 7050 94bd b889 a5bd f885 51be ea5c ae3d
00000070: ac17 07bd f77a 3dbd ecb9 e5bd 41e9 e7bc
00000080: 8425 2fbc 1583 3bbe a3a9 69bd 596b be3c
00000090: 58e9 e1bd 801e 81be a413 73be 4811 343c
000000a0: 74e4 c5bd aeac e33d 7e4c f43c 1dc3 c4bd
000000b0: 6658 48be 8885 26bb 532e 003e 33c3 25bd
000000c0: 5cfd 2cbd afa4 dbbb 454d efbd 24cd fdbd
000000d0: 4211 34be 7cf6 c7be b738 8fbd e74d 80be
000000e0: 1f93 76bd f192 d73c 3b73 b8bd ca49 f2bd
000000f0: 5f10 92bc fc04 e8bc 8a6e 1dbe 2c85 03bd
00000100: 68d5 26be ab16 52be 392e 69bd 5063 08be
00000110: 175a 80be 54e0 bebd 92d9 aabe 6108 b4bc
00000120: 268b 17be 645d 60be 69e7 48be 5434 0fbd
00000130: 427f 91be b434 dbbd 9137 35be 65a5 00be
00000140: 010c 2f3e 97f0 39be c083 91be 8792 42bd
00000150: 761d 89bc 7a60 b4bc 8b1d 3bbc ac4c b2be
00000160: 2f52 3ebe 8fdd 6bbe 1711 a53d cefb a7be
00000170: 63f0 93be 903c cc3b ea4a 7ebe ec09 5cbb
00000180: 1c29 f7bd 06b8 c5bd 96b5 3f3d bc71 3ebd
00000190: dd70 c83b 6c41 133c f4b1 f1be 949f 593e
000001a0: 6c3a 213e c64f 1d3c 33e1 45bd 8059 08bf
000001b0: e15f 513e 91af a4be 43a7 e7bd c559 423c
000001c0: d93f 81bd fffe 06bf 9f45 593e 1d6f a2be
000001d0: e2e4 14be 101b 44be 1aba 103e 690f db3e
000001e0: 310c 87be 6c6d 5a3e dcac 41bd 32c7 7ebc
000001f0: b5b4 1cbe 03ac 853b bdac c1bd d89d a73e
00000200: c2c4 21be 157c b7bd 16df a63d dc78 12bf
00000210: 21cd a1be ae9d 78bd c60d 29be 71cc c13e
00000220: 9aed 3bbe b76f 13bf c9c6 f5be e897 80be
00000230: 301b 9d3d 3cda 683e d57f a43e e3e2 41be
00000240: 2756 8cbe dcf9 cabd 5911 273e 7fe8 803d
00000250: 4166 0cbe 934e da3b c56f 46be cefc 9a3e
00000260: ae63 9bbe 508b 663e 65ad 01be eb14 9dbd
00000270: 6cb4 193d 3aaf 9bbe e61d 823e dc7b 13be
00000280: e734 37be 4c3c 02bd f83c 1bbf 7d51 4dbe
00000290: f105 2dbe 5c45 d63c f06c 25be 6fa3 2c3d
000002a0: a407 02bf 41cc 21be 5740 c13d 20b0 ffbd
000002b0: 63b2 68bc ef25 a73e 9279 a4bd 71e0 28be
000002c0: 5dcf 093b 165f 133e 8422 50be 42cf 01bf
000002d0: 8447 a3bd c453 80be 31e0 503d 3f70 0ebd
000002e0: 5c98 48be 150f 993e 57ff 9e3b a70d 1abf
000002f0: 05af 43bf 1e29 e0be 2fdb f5bd 6fb8 d7bd
00000300: a54d 7abc f295 04be 2779 dabe e249 683d
00000310: d686 8ebd 5138 0b3d 9189 42be dbb1 92bb
00000320: 433b 56be f2ba cabe bd75 9bbd d815 0bbe
00000330: d9f8 2cbe d496 6d3c c6af a73d 2bca cf3d
00000340: c8b2 da3d c6ef 3bbe edda 1c3a 2ba6 eebd
00000350: aaa6 a03d 0931 c7bd f528 7e3c 6900 20be
00000360: 19ce 5fbd ef3f 42be 8d0d 09be 0d41 bf3d
00000370: 29e5 ccbc 59aa 02be 31cb 63bd 1530 61be
00000380: 8461 3bbc 474b aa3d 7897 00be c120 a43d
00000390: 789d e8bc 5e0d 46bd 5163 943e f5dc dc3d
000003a0: 8eb8 c93c dd4b 96bd 2e7e 10bd 74a9 c93d
000003b0: fd96 46be d50b 60be 272f 26be bc17 d23c
000003c0: a328 9a3d 4c93 4fbd 29e7 0cbe c075 783c
000003d0: 25b8 a63d 239b 7b3d cec5 a13c b7e2 423d
000003e0: 4b70 98bd b85d bc3c f6f5 1f3c 75d1 513c
000003f0: 80b9 00be 2c57 92be 3694 933d 1bdd 00bd

bias f4 [28]
-0.0866505 -0.09828183 -0.0800645 0.09188609 -0.08966847 0.026744356 -0.046466656 -0.25411487
-0.046355933 -0.29243138 0.04939602 -0.17840154 0.09533164 0.01254306 0.022768673 -0.16541609
0.2653411 0.060320158 -0.23484501 0.10428728 -0.18371132 -0.09947679 -0.08578208 -0.06524468
0.0635156 0.02886464 0.05273043 -0.13210735
00000000: d175 b1bd fc47 c9bd dbf8 a3bd c62e bc3d
00000010: 1aa4 b7bd fb16 db3c d253 3ebd 581b 82be
00000020: b8df 3dbd 91b9 95be 7b53 4a3d e5ae 36be
00000030: 3c3d c33d 6881 4d3c 5e85 ba3c d662 29be
00000040: cada 873e 4512 773d 367b 70be 9294 d53d
00000050: d21e 3cbe 7dba cbbd 84ae afbd 019f 85bd
00000060: 7814 823d 8a75 ec3c ddfb 573d 2647 07be
