lightning_logs/version_10/checkpoints/epoch=29-step=76140.ckpt (torch, 568267 bytes, 18 tensors)

MLP.0.weight f4 [128, 284]
00000000: a452 ddbf 087c 4d3f 0eab 0440 8274 48bf
00000010: 3af5 86bf 5e82 423e 4763 65be 6678 303f
00000020: 47de 4abf 48ed 943f 0688 05c0 ee39 37c0
00000030: 39c5 e03f 32c9 10bf 89a3 4540 9c88 363f
00000040: b630 6c40 8d69 e8bf 3ff3 fb3c 1129 2fc0
00000050: 1db5 653d 325f b53e ae95 6440 a207 b23f
00000060: 29b2 2640 b294 98c0 6011 acc0 0611 3b40
00000070: 0d66 983f f741 d73f ddfd aa3e 883b b03f
00000080: da31 0240 8e43 3bc0 81f1 b53f 3562 8cbd
00000090: b778 91be aba7 213f 5cca b13f b60c 1540
000000a0: 54ed 4c40 e5e8 8bbf 0765 513f 978e eebf
000000b0: 7acf 50bf b2b9 3ac0 b50e e33f b72d 1bc0
000000c0: ccf2 a93f af2a bfbf 5b3d cbbf bee4 053f
000000d0: dd6d a93f 9ac8 de40 7a97 bf3f 40df 5340
000000e0: 01a1 1f3e d29c 183e fd5b 28bf 8950 8640
000000f0: f124 c53f 0f41 1fbf aec9 80bf 0c46 06bf
00000100: fab4 e33e 35ad b2c0 3dc6 703f 3322 bb3e
00000110: 9ee8 71be ec36 abbf 38bd 08bf 9ebf d7be
00000120: 15a4 ba3f b2f0 f8be 18eb 8a40 9f2c 8b3e
00000130: 8cc7 163f 57fc 7fbf d463 ac3f 7b96 82bf
00000140: cbf3 73bf 6912 b540 9376 1940 57a5 c93f
00000150: 999f 083e 39ef bcbe c267 a03f 1b92 1c40
00000160: 8e7f 2cc0 a635 9c3f 201a d63e 28d2 b7be
00000170: 2b05 94c0 4082 3140 c3a4 48c0 43c3 eebe
00000180: 2c00 51bf 732a c0bf 747f 883f 1f4d d6be
00000190: b7b8 f13f 334b 1b40 befc 2840 eba6 5fc0
000001a0: 507b 9f40 da19 953f d06d 02c0 f641 8a40
000001b0: 3336 39c0 6b8a 493e 9b22 22bc 061d ea3f
000001c0: 72dd 8340 7d1a 973f 4aee 103f a4dd 5e3f
000001d0: e86e a4be e868 903f 10ea 673f c3d5 973e
000001e0: 141d 3ac0 e5f0 6abf bcf6 a8bf 6c7e 973d
000001f0: e5f7 9b3e e991 8d3f 86ae fb3f d16d a6bf
00000200: 358c 043f c4df 523f e8d4 0040 fffd f33f
00000210: ba29 48c0 91e3 acbe 55fc 3640 ed57 ac3f
00000220: 9c58 09bf 745a d33e 2a72 50bf 04ac 3140
00000230: d245 0140 b955 03c0 fb9b 6240 725e cdbe
00000240: 2d26 b6bc ade2 cabf 39ea d93f 3aa6 ba3f
00000250: aed6 913e 3286 c13f c582 3b40 2c52 f23e
00000260: 5409 ddbe 6132 6bbf de2a 84bf 199a cf3f
00000270: ad5d c8bf d024 bc3f 08e4 d1bf f7aa 4dbe
00000280: 593c 02c0 0d54 0340 0005 cf3e 4e16 9d3f
00000290: f7ee 8ebe 9ec0 ac3f 1232 4ebf c39c 0e40
000002a0: c383 bdbf 6bb3 3740 4ff2 8a40 5666 3bc0
000002b0: 547a a03e 8bf2 2abe 630c b4bf 3d70 cfbe
000002c0: 540e d73f 9523 b8c0 684f 9dbf 40da dd3f
000002d0: 124f f63f a8fa e5bf c3ff cb3f c3e9 83c0
000002e0: b4a7 a5bf 9dd1 0640 6c3a 85c0 4748 183f
000002f0: f4bb 2fbe bd8b dabf a6b7 b3bf 6336 d33f
00000300: 2e9d 803e feef 54c0 de03 86bf 55f2 f83e
00000310: b366 28bf 538f b63f 5e1a 543f 549b c13e
00000320: 3a59 f53f 7bab 3ec0 e386 1dc0 4556 9fbf
00000330: efcc 8ec0 a952 e9bf d2ad 893f 1aff 4e3f
00000340: 4a95 eabe f2c6 da3f 3de1 73be e232 0340
00000350: 1273 11c0 b464 0bbf f71b 323e 95f3 ccbf
00000360: 4aae 2b3f f80c df40 9995 1c40 0e16 7340
00000370: 2ecc 1740 fcaa 2940 3087 26c0 f9ce 043f
00000380: 17a1 14c0 6630 e4be abb2 24c0 d182 6840
00000390: 45e5 07c0 ba85 f23f f4bf 83c0 fa24 39c0
000003a0: 7499 cd3f 068e f6bf cf53 f1bf 23cf d3be
000003b0: 2cc4 493f fd8b b53f 9eb5 d3be 1e04 d1bf
000003c0: 3426 a83f 0eec 6240 43b6 f5bf fed2 303e
000003d0: 7a24 d6bf 4432 7cbf 3e2f 22c0 e5ff 4ebf
000003e0: cdfa 5e3d dc00 5bc0 e7df 45bd 3e9d b9bf
000003f0: 4448 89bf b34f b23f 25db c63f f393 fb3f
-1.7290845 0.8026738 2.0729403 -0.78302777 -1.0543587 0.18995044 -0.22401153 0.68933713
-0.7924542 1.1634912 -2.0864272 -2.8629107 1.7560188 -0.56557 3.0881064 0.713022
3.690473 -1.8157212 0.030755637 -2.7368815 0.056080926 0.3542419 3.5716357 1.3908579
2.604624 -4.7681513 -5.377121 2.922914 1.1906143 1.6817006 0.33396807 1.3768167
2.0342927 -2.9259982 1.4214326 -0.06854669 -0.2841241 0.63146466 1.388988 2.3289008
3.2019854 -1.0930449 0.8179478 -1.8637265 -0.81566584 -2.917584 1.7738863 -2.4246652
1.3277221 -1.4934901 -1.5878099 0.5230216 1.3236653 6.9619875 1.4968102 3.310501
0.15588762 0.14903572 -0.6576536 4.197331 1.5401899 -0.62208647 -1.0061548 -0.52450633
0.44474012 -5.5836434 0.9405249 0.3654953 -0.23623893 -1.3376136 -0.53413725 -0.4213838
1.4581324 -0.48621136 4.341198 0.2718248 0.58898234 -0.99994415 1.3467965 -1.0202173
-0.95293874 5.6584973 2.3978622 1.5753583 0.13342132 -0.36901262 1.2531664 2.4464176
-2.6952853 1.2203872 0.41816807 -0.35902524 -4.625631 2.7735748 -3.1350563 -0.46633348
-0.8164089 -1.5012954 1.0663896 -0.41855714 1.8884495 2.4264648 2.6404262 -3.4945629
4.983803 1.1648514 -2.0379524 4.320552 -2.893933 0.19681709 -0.009895946 1.8290107
4.120782 1.1804959 0.566136 0.87056947 -0.32115865 1.1282015 0.90591526 0.29655275
-2.9080248 -0.91773826 -1.3200297 0.0739716 0.30462566 1.1060153 1.9662635 -1.3002263
0.5177644 0.8237269 2.0129948 1.9061888 -3.1275468 -0.3376737 2.8591511 1.3464333
-0.5365083 0.41279948 -0.814242 2.776124 2.0198865 -2.052107 3.5407703 -0.4011112
-0.022235 -1.5850426 1.7024604 1.4581978 0.284841 1.5119078 2.9298565 0.47328317
-0.4317118 -0.9187375 -1.0325582 1.6218902 -1.5653588 1.4698734 -1.6397715 -0.20084749
-2.0349333 2.052005 0.40433502 1.2272432 -0.2791669 1.3496282 -0.8054515 2.228318
-1.4805835 2.8703258 4.3420787 -2.928121 0.3134333 -0.16694085 -1.406628 -0.4051532
1.6801248 -5.7543435 -1.2289858 1.733223 1.924288 -1.7967119 1.5937427 -4.1222854
-1.2941804 2.1065438 -4.1633816 0.59485286 -0.17161542 -1.7073895 -1.404042 1.6500973
0.2511992 -3.327148 -1.046993 0.48622385 -0.65781707 1.4262489 0.82852733 0.37813818
1.9167855 -2.9792163 -2.4613578 -1.2448202 -4.4625163 -1.8228351 1.0756171 0.80858004
-0.45817024 1.7091963 -0.2381639 2.0499806 -2.2726483 -0.54450536 0.1739348 -1.6011835
0.6706282 6.970333 2.4466307 3.798221 2.3718371 2.651061 -2.6020012 0.51878315
-2.3223321 -0.44568175 -2.573405 3.6329844 -2.1233685 1.894706 -4.117182 -2.8928819
1.6062455 -1.9262092 -1.8853701 -0.4136897 0.7881496 1.4183346 -0.413495 -1.6329381
1.3136659 3.5456576 -1.9196247 0.17267987 -1.6729882 -0.985142 -2.5341334 -0.80859214
0.0544384 -3.4219275 -0.048309233 -1.4501112 -1.0725179 1.3930572 1.5535628 1.9654526

MLP.0.bias f4 [128]
00000000: 431e 1ec0 2b25 5abf beed 77c0 65e3 4fc0
00000010: bc1d 52c0 73cd 5cc0 9ee6 d6bf 1f0d 15c0
00000020: c07b a1bf 4c1e 67c0 d113 c9c0 76d5 26bf
00000030: ee67 1fc0 95a3 d6be e278 f9bf 38c1 acbf
00000040: 7884 44be 3c38 5abf 5598 b8bf dabf a2bf
00000050: 3873 bebf 7c95 ecbe ffba 58bd 1fb9 7ec0
00000060: fabc 7dc0 97ec f6bf 57ba 65bf c14d 9dbf
00000070: 810c 8ac0 1b31 aebf 2c0b 8dbf 778f 89c0
00000080: f0da 69c0 8272 70c0 05b8 38c0 282f c0bf
00000090: cc10 ba3d 3b5b 14c0 51b1 4fc0 488f 10c0
000000a0: caab 2abf 57a8 29c0 0719 09c0 77b1 93c0
000000b0: f6e2 35c0 4e75 1bc0 b55a 8ebf c349 3bc0
000000c0: b50d 9fc0 6ca1 28c0 aa09 ecbf ec47 c7bf
000000d0: aa32 32c0 82a7 90bf ccd6 5fc0 6069 c4c0
000000e0: d559 98bf 0760 3ac0 4afe 8fc0 db70 973c
000000f0: 3acf a4c0 872b e8bf 30e5 efbf 31ad 2cc0
00000100: cbed b5c0 4d79 d1be 4a74 acc0 4732 f2bf
00000110: 7bb9 38c0 b578 5abf 5081 a3c0 b94f 42be
00000120: 2712 63bf b7aa 6ac0 8515 abc0 ca69 9ac0
00000130: 52ee 5ac0 0b63 83c0 eefc 83be f399 bdbf
00000140: 9c95 35c0 cac7 40c0 f0e9 37c0 ca7e 443e
00000150: 761b 6ec0 11e6 62c0 32be 8dc0 94c7 4ac0
00000160: 10ae 52c0 ab81 9ebf 9c2c 97c0 096e 0cc0
00000170: a373 29c0 daaa 84c0 6552 1ac0 235f 8dc0
00000180: 07e6 77bf 36a5 42c0 2ac6 01bf 2d3d febf
00000190: c238 12c0 8d47 1c3d 7f0d a3c0 c5f2 03c0
000001a0: ee82 64c0 543b 52c0 2c43 4ec0 ab07 97c0
000001b0: 1cc4 c5bf cf5e 95c0 9fd8 afbf 9848 053e
000001c0: dbb9 23c0 c201 7ac0 0f75 16c0 680e 1ec0
000001d0: b83b a6c0 e2b5 3ec0 5a02 59c0 9c7a 19c0
000001e0: e0d5 34c0 28e3 16c0 3a3f 0bbf f6d1 20c0
000001f0: 4591 9ac0 6169 4dc0 884e 55c0 d4d2 f4bf
-2.470597 -0.85212964 -3.8738856 -3.248254 -3.2830648 -3.4500396 -1.6789129 -2.3289258
-1.261589 -3.6112242 -6.283669 -0.65169466 -2.4907184 -0.41921678 -1.9490016 -1.3496466
-0.19191158 -0.85242057 -1.4421488 -1.2714798 -1.4878912 -0.46207798 -0.05291271 -3.980049
-3.9646592 -1.9290951 -0.8973746 -1.2289354 -4.3140264 -1.3608736 -1.1019034 -4.298763
-3.653988 -3.756989 -2.8862317 -1.5014391 0.09085235 -2.3180683 -3.2451975 -2.2587452
-0.6666838 -2.6508996 -2.1421525 -4.615413 -2.8419776 -2.4290347 -1.1121432 -2.926377
-4.970423 -2.6348524 -1.8440449 -1.5568824 -2.7843423 -1.1301119 -3.4974852 -6.137863
-1.1902415 -2.912111 -4.499791 0.01848643 -5.150296 -1.8138283 -1.8741817 -2.6980708
-5.6852775 -0.40912858 -5.3891954 -1.8921593 -2.8863208 -0.85340434 -5.109535 -0.18975724
-0.88699573 -3.6666696 -5.346377 -4.8254137 -3.420796 -4.10584 -0.25778908 -1.4812607
-2.8372564 -3.0121942 -2.8736534 0.19188991 -3.720426 -3.5452921 -4.429467 -3.1684313
-3.291874 -1.2383322 -4.7241955 -2.194216 -2.647683 -4.145856 -2.411279 -4.4178634
-0.9683537 -3.0413337 -0.50693 -1.9862419 -2.2847142 0.038154174 -5.0953975 -2.0616925
-3.5704913 -3.284871 -3.2228498 -4.719686 -1.5450473 -4.6678233 -1.3737983 0.13015974
-2.5582187 -3.9063573 -2.3508947 -2.4696293 -5.19479 -2.9798512 -3.3907685 -2.3981085
-2.825554 -2.3576145 -0.5439335 -2.512815 -4.830233 -3.2095568 -3.3329182 -1.912684

MLP.2.weight f4 [64, 128]
00000000: 7953 c33e f637 d2bf 508d f9bf 96fe e83d
00000010: 398c 883f e22e f0bf a34e 4fc0 fd2d a63f
00000020: dec2 a5bf 5ee8 853e 1ca6 bdbf 39ce 0440
00000030: 8d82 54c0 a18c 90bf 1cf9 82bf 5a24 fa3f
00000040: ebca d33e 78d4 47c0 7384 81bf 97ba 0c3f
00000050: bd8f c1bf c166 e93f 4f95 8cc0 3ce0 843f
00000060: a029 84bf 90b7 0cc0 bd12 af3d 50e0 a63d
00000070: c465 c23f f983 0740 1961 a3bf db33 ee3e
00000080: 6e92 a1bf 34de 553f 8fd2 15c0 97c2 2bbf
00000090: 9e30 d23e 104d f8bd dc63 0fc0 d21a 0340
000000a0: 8088 f43e 0317 db3d 4c37 90bf 481f 78be
000000b0: cd24 0240 0351 15c0 beac 05c0 a49b 483f
000000c0: f77f bfbf 8ea1 0ac0 a29b 6cc0 7b4c 83bf
000000d0: 8b10 84bf d0b1 8bbf b635 6fbf d80b ae3e
000000e0: 38c1 3ec0 46ce 23c0 c8ab 193e 2f56 c33f
000000f0: 7b5c a03f d04c cc3e 8b69 e63f 71a2 e4bf
00000100: 7fbf 793e bb19 37c0 1f1a 01bf 266b fb3f
00000110: 8914 b3bf 8825 70bf fadf 883f 3a18 81bf
00000120: 1023 10c0 2e1d 973f f0bc 2240 319a 973f
00000130: 2818 69bf e8fb 94bf de91 953f cb9c 7cbe
00000140: e6e8 87bf dbe7 3ac0 71bd ebbf 9d20 9abf
00000150: 0f57 693f 3e9c 06c0 b99f 0040 d856 e1bf
00000160: 8bd0 103d d7e6 babe 5396 b73f 6db1 c4bd
00000170: f1f2 1bbf f956 a13f d6ed 14bf 139a 763f
00000180: 277e 833f dee1 78bf 1331 d6be e809 fc3e
00000190: f682 46bf a89f 5ec0 608d 9ebf d146 05c0
000001a0: 77ef 13bf c401 5a3f 2e0b 3e40 9f79 73bf
000001b0: 6619 22bf 4614 35bf c75a 0a40 5bc8 20c0
000001c0: 58fd 9cbf fb46 be3f 4ba3 0d3f 3c17 583f
000001d0: 3264 863e 5b34 88bf b899 bb3f 681a a5be
000001e0: fdeb e23e 89f0 2dc0 c11d 9bbf 83df 823f
000001f0: d8e3 a9bf 599e 06bf 432a 97bf 28c8 58c0
00000200: 4984 2f40 59e9 b0bf be6f 2c3f 1e2f cf3f
00000210: 521e 60bf 29cd 283f 0f1d 01c0 0fdc 2e3f
00000220: 3d6c aabf 3250 673f 61ad 7b3d 4553 3f40
00000230: f0e7 253f 95bd c13f 63fb a03f a96a 1340
00000240: 5e55 1640 e661 81c0 cf9e 3d40 6e54 e5bf
00000250: ce27 5140 4492 023f d536 353f 8e77 c6bf
00000260: 5379 2b3f 280c 2440 5272 0f3e 7ee8 f8bf
00000270: 7475 5d3f c625 babf b30f 2f40 7d15 6bbf
00000280: bf83 92be ed11 eebf 5229 89bf 9f00 6240
00000290: b1d9 dbbf e058 05c0 5313 9b3f 3e98 1b40
000002a0: 2f4d b63f d3ad fdbf b3e6 563f 7714 4040
000002b0: ae8d e43f ae32 3bc0 6fc8 3bc0 f18e 74bf
000002c0: c9d8 7740 9db4 d5bf 4bcd 8abf aefe c2bf
000002d0: c628 64bf eada e8be 137f 82bf f898 f7be
000002e0: 7aac 50c0 04c4 73bf fb60 59c0 2026 4840
000002f0: 32da 563f b15b 3a40 7281 1dc0 5a18 ce3f
00000300: 5009 7a40 2a3f 34bd 5fe8 453f 6d65 eabf
00000310: 7f25 3bbf d393 103d 47ad 333e 80cf 64bf
00000320: 79ac 81bf 36a8 1340 e13c 7040 2ae9 e2bf
00000330: 9b2e 273f 6541 da3e 6eaf 33c0 ce8a debd
00000340: d6ee 023f 3a9a 9e3f 0471 483e d535 19c0
00000350: d0db 59c0 9546 46bf 3424 0abd 1c2b bc3f
00000360: 8278 813f 7a10 8140 e7e2 a33f 66a0 02c0
00000370: e0c6 e1bd 2073 b73e ce30 723f 7b1f 8140
00000380: 7fc7 e6bf dad3 d33f 678c 89bf b323 5b40
00000390: 13a4 95bf 7abb 3dbe e431 fcbf b2ac 9ebf
000003a0: b615 a9bf 1c44 9d3f 6318 82bf 6e4e c9bf
000003b0: 357c 4bbd d217 e5be a019 0840 ec1f 84bf
000003c0: ed22 86bf 18b5 4d3f 1d37 d8bf 82fa b8bf
000003d0: 143b 22c0 4612 22bf d9c5 acbf c820 e23f
000003e0: 3bd6 0ec0 aa83 33c0 2af4 b9bf d7be 473f
000003f0: 22e6 05c0 5f7c 8d40 2d05 be3e d4f3 693f
0.38149622 -1.6423328 -1.949625 0.113766834 1.0667793 -1.8764307 -3.2391746 1.2982785
-1.2950094 0.26153845 -1.4816318 2.0750868 -3.3204682 -1.1292917 -1.0232272 1.9542344
0.41365752 -3.122343 -1.0118545 0.54972214 -1.512199 1.8234483 -4.393226 1.0380931
-1.0325203 -2.1987038 0.08548496 0.08148253 1.5187306 2.11743 -1.2764007 0.46523938
-1.2622812 0.8354218 -2.3409765 -0.67093796 0.41052717 -0.121240735 -2.24047 2.048512
0.4776039 0.106977485 -1.1266875 -0.24230683 2.0334961 -2.3330696 -2.0886683 0.7836249
-1.4960927 -2.1661105 -3.696999 -1.0257715 -1.0317549 -1.0913639 -0.9344133 0.3399341
-2.9805431 -2.559465 0.15006936 1.5260676 1.2528223 0.39902353 1.8000959 -1.7862073
0.24389456 -2.8609455 -0.5043048 1.9642074 -1.3990642 -0.9380727 1.0693352 -1.0085518
-2.25214 1.180578 2.5427818 1.184393 -0.91052485 -1.1639376 1.168514 -0.24669187
-1.061795 -2.9204013 -1.8417188 -1.2041203 0.91148466 -2.1032863 2.0097487 -1.7604628
0.035355132 -0.36504242 1.434275 -0.09604154 -0.60917574 1.2604667 -0.5817541 0.9632885
1.0272874 -0.97219646 -0.41834316 0.49226308 -0.7754358 -3.4784946 -1.2386894 -2.0824473
-0.5778727 0.85158944 2.9694324 -0.95107454 -0.63320005 -0.7073406 2.1617906 -2.5122287
-1.2264814 1.4865412 0.5532729 0.8441045 0.26248318 -1.0640978 1.4656286 -0.3224671
0.4432067 -2.717806 -1.2118455 1.022446 -1.3272657 -0.5258537 -1.1809772 -3.3872166
2.742449 -1.3821212 0.67358005 1.6186254 -0.87546265 0.6593805 -2.0173986 0.6830453
-1.3314282 0.90356743 0.061444644 2.9894574 0.64807034 1.5135981 1.2576717 2.303385
2.3489604 -4.0432005 2.962818 -1.7916391 3.2680545 0.51004434 0.7078679 -1.5505235
0.66982 2.563242 0.14008453 -1.9445951 0.86507344 -1.4542778 2.7353332 -0.91829664
-0.2861614 -1.859922 -1.0715735 3.531288 -1.7175809 -2.0835495 1.2115272 2.4311671
1.4242305 -1.9818672 0.8394577 3.001249 1.7855737 -2.9249682 -2.9341085 -0.9553061
3.8726065 -1.6695744 -1.08439 -1.5233972 -0.89124715 -0.45479518 -1.019503 -0.48358893
-3.2605271 -0.9522097 -3.3965442 3.127327 0.8392669 2.9118464 -2.4610257 1.6101182
3.9068184 -0.04400555 0.77307695 -1.8312203 -0.7310409 0.035297226 0.17546569 -0.8937912
-1.013076 2.3071418 3.7537158 -1.7727406 0.6530549 0.42628017 -2.8075824 -0.10866319
0.51145685 1.2390816 0.19574362 -2.3939106 -3.4040413 -0.7745145 -0.033725932 1.4700656
1.0114901 4.0332613 1.280362 -2.04104 -0.110242605 0.3583002 0.9460572 4.035093
-1.8029631 1.6549027 -1.0745972 3.424054 -1.1690696 -0.18528548 -1.9702725 -1.2396452
-1.3209751 1.228641 -1.0163692 -1.572706 -0.049679 -0.44744736 2.126564 -1.0322242
-1.0479409 0.8035445 -1.6891819 -1.4451449 -2.5348558 -0.63309133 -1.3497878 1.7666254
-2.2318256 -2.8049111 -1.4527638 0.78025573 -2.0921712 4.421432 0.37113324 0.9138768

MLP.2.bias f4 [64]
00000000: a1ac 44c0 0751 86bd 6236 a8bf eeeb 83bf
00000010: 4515 d4bf 8905 8fbf 42b9 ea3e bf16 8dbd
00000020: ac13 74bf 5f19 80bf 96e0 82bf 4831 51be
00000030: 5022 59be 41dc 1240 ca53 19be ce5e 04bf
00000040: 4a26 1dbe 1931 bcbf 1031 d2bd 91de 943f
00000050: 13c3 4ebe 7b0d 683e 82f7 0cc0 a87e 87bf
00000060: 0c66 12bf 3cff 573f 5459 7f3e a475 82be
00000070: 21ed 80bf 9747 913d ddaa c33f 8592 1c3f
00000080: 2dc5 9d3f fba6 6c3f 851f 24bf 9ef1 adbe
00000090: 822a 52be 334e 09bf 83ab 55bf 7181 71be
000000a0: 1e2f 513f d60f a23f 24e2 f83e 8bf9 a63e
000000b0: faa3 c0be 2fe7 b33f 2451 5a3f deb9 1e3e
000000c0: a905 0240 6e4d 113f 422e 0fc0 c40f 14bc
000000d0: a236 093c ac11 2abf bc83 06bf 15e8 17bd
000000e0: 588b c83f 8bb7 a2bf 6c8d b4bf ccc4 d83c
000000f0: 2e2a d8bf c845 96bf aa4a b3bf 1535 7fbf
-3.0730364 -0.065584235 -1.3141596 -1.0306375 -1.6568991 -1.1173564 0.45844465 -0.06889104
-0.95342517 -1.0007743 -1.0224788 -0.20428956 -0.21204495 2.2946932 -0.14973369 -0.5170716
-0.15346637 -1.4702483 -0.10263264 1.1630422 -0.20191602 0.22661392 -2.2026067 -1.0585527
-0.5718696 0.8437383 0.2493642 -0.25480378 -1.0072366 0.07093733 1.5286518 0.6116107
1.2325798 0.9244229 -0.64110595 -0.33973402 -0.20524028 -0.5363495 -0.8346483 -0.23584534
0.8171252 1.2661083 0.48610032 0.3261226 -0.37625104 1.4054927 0.8528006 0.1550059
2.0315955 0.56758773 -2.2371984 -0.009036962 0.008374842 -0.66433215 -0.5254476 -0.037086565
1.5667524 -1.2712263 -1.4105659 0.026461028 -1.6887872 -1.1740046 -1.4007161 -0.9969037

MLP.4.weight f4 [28, 64]
00000000: d866 1d3f 06c0 3cc0 7350 e3bf b824 36c0
00000010: 6543 bf3e 1e05 953b 047e b6be ca6a c6bb
00000020: 3c78 f23e 8c8d e13e b889 c4bf a266 693f
00000030: 0150 4940 1fe4 57bf 57de 74bf 97d2 5cbf
00000040: 8cf8 8c3e 0874 7ebe 6a67 2d3f 4690 b73e
00000050: 1d4c f5bf 5577 253e d80a 4a3e 2949 5d3f
00000060: 39d4 16c0 a528 e3bf f8f2 183f 065c 9bbd
00000070: d1cd 10bf 4730 9c3e 2c51 69bf f2a7 3540
00000080: 3e2c 2340 c241 04c0 8e5c 96bf feaf 103e
00000090: d7ae 993e 2eba 9bbf 9a76 373f 54aa 393e
000000a0: 3c98 e33d 2563 75bf fe00 a9bf dc65 88bf
000000b0: eb06 65bf af9f b4bf 880a 4540 8c81 a9bd
000000c0: ae91 5e40 c79b bd3f 159f e7be 020f 423d
000000d0: c21e 3640 c4e0 4840 f6f2 463f 4e05 c03d
000000e0: 872a 3c40 2aa1 1d3f 05d5 ecbf 741d 49be
000000f0: 9496 043f 1522 8d3f 98d3 54bf 69b2 08bf
00000100: 1615 7cbc 6214 ce3c 0166 913d e83b 673d
00000110: 5700 2cbe 042b 923d b65c 36bc 8638 bcbd
00000120: a71f 1d3e 1086 f5bd 3a0d 00be 1ea5 113d
00000130: 9da3 a63d b66a 11be eb9d 1dbe 374b 0ebd
00000140: d1c3 bf3d f7b2 07be 5957 d9bd 7566 19be
00000150: e99e 7dbd 9d4a d3bd b407 bb3d e504 3fbd
00000160: 2d3f 92bd 8b9a 26be dabc a2bd d0c7 2dbe
00000170: a353 143b df80 41be 6b1b 0dbd 4f2f ff3d
00000180: 9dfb aebd 67a9 05be 145d 33be d579 24be
00000190: 03fc 6fbe 4418 10bd 2e93 60be 458b f4bd
000001a0: 17c5 01be 3f92 babd 7106 79bd 8919 49be
000001b0: 0c39 3abe f8ef f8bd f07b 2abc 2636 3dbb
000001c0: f84c dc3d 8045 43be df01 74bd afca 59bd
000001d0: 67aa 10be f809 babd 3c29 2bbe 3316 89bd
000001e0: 3256 d83d bb94 51be 8661 f7ba 5b6b 7c3d
000001f0: 194c eabb df1b 08be bda1 db3c 0b4a 4c3b
00000200: 925f 40c0 79b2 bb3d f09c b4bf 05c3 dbbf
00000210: bab2 3e40 e8c9 333f faad c1bf ee4f 3cbe
00000220: adba 3e3f 49a2 0bc0 b4f6 0240 d838 df3d
00000230: 3ed8 a13d 3042 bcbe 25e0 81bf f440 7e3f
00000240: 193b 90bf ed87 c3bc 8f02 18bf e7bf 57bf
00000250: d1ef 5a40 e4da e53d e268 cabd 4938 5640
00000260: a972 c53e 2646 3ec0 75d3 d83d 224e c73f
00000270: f8d5 d73f beaa 5b3f 1a1c 2cbf a6c0 70be
00000280: 7a1d 543f 0ad8 eb3e 6ff6 e43e 27a6 923f
00000290: aa8a 2b3f 3ae0 293f 0414 0fbf a567 0cc0
000002a0: d5b0 953b 4aae 81bf d4bf 0bbf 4e51 1c40
000002b0: cc33 1ebf ace0 ca3b 7e26 e93f b602 05c0
000002c0: 2eda 113e e1c5 f1bf c117 92bf c1e1 523d
000002d0: a2a9 b23e 541f 2e40 6811 ed3e 8e34 c03d
000002e0: c6a8 94bf 12cb 26bf 1d2a 8a3f b569 e0bf
000002f0: f432 9d3e 617c 3440 82c9 333e 5570 a7be
00000300: 1f31 babf c944 84bf 7070 01bf 1dbc 22c0
00000310: ddb0 a4be d51a 9ebd 1224 2b40 d6da 29be
00000320: 0f65 4ebf 0303 bcbf 838e dfbf 2051 1440
00000330: c018 2fbf 2402 dc3f b60a 00c0 4c04 e7bf
00000340: 3b5d fe3e 8d3e 0b3f f491 1b40 653c 2bbf
00000350: bfbd 50bf 3582 ecbf 571c 653e bcb4 0c3f
00000360: 3a0e 193f f3ac a8bf 2fa3 4f3f 0d7d d8bf
00000370: d7f9 a7bf 629c a43e eaab babe c7bd e7bf
00000380: 1a78 29c0 868e 4a40 8e2f a4bf 6e89 abbf
00000390: d65f 2f40 cb5c 30bd a605 1640 1d9a d43f
000003a0: db7d 343e e1e8 d03f c07b c83f 7cd9 86bf
000003b0: 1a4d aebf 8b51 cc3f ce02 3040 c73a d0bf
000003c0: ff3a f13e 25b8 0b3f 1ece 30c0 c442 ca3c
000003d0: 7c60 27c0 4c20 4dbf 3e8f d7bf c304 1c3d
000003e0: 72fd 85be 46fe d6bf 060a 223f 87af 0ac0
000003f0: 093e 3bbf 36d6 dd3e ffc9 26bf a72d 283f
0.6148505 -2.9492202 -1.7758926 -2.8459911 0.37356105 0.004547729 -0.35643017 -0.0060552107
0.47357357 0.44053304 -1.5354528 0.9117223 3.145508 -0.8433246 -0.95651764 -0.86258835
0.27533376 -0.2484895 0.6773592 0.3585226 -1.9163853 0.16158803 0.19730699 0.8643976
-2.356703 -1.7746779 0.5974574 -0.075859115 -0.5656405 0.30505583 -0.91139483 2.8383756
2.5495753 -2.0665135 -1.1746995 0.14129636 0.30016205 -1.2166193 0.71665347 0.18131381
0.11113021 -0.9585441 -1.3203428 -1.0656085 -0.8946368 -1.4111232 3.0787678 -0.08276662
3.4776416 1.4813164 -0.45238557 0.047377594 2.8456273 3.1387186 0.7771448 0.09376012
2.9400957 0.6157404 -1.8502508 -0.19640142 0.51792264 1.1026026 -0.83135366 -0.5339723
-0.015385887 0.025156204 0.07099534 0.056453615 -0.16797005 0.07137111 -0.011130502 -0.091904685
0.15344106 -0.11988461 -0.12505046 0.03555786 0.081366755 -0.14200863 -0.15392272 -0.0347397
0.09363521 -0.13251863 -0.10612363 -0.1498049 -0.061919127 -0.10316966 0.09132329 -0.046635527
-0.07140956 -0.16269891 -0.07946177 -0.16970754 0.002263286 -0.18896817 -0.034449976 0.12460195
-0.08544085 -0.13052903 -0.17515975 -0.160621 -0.23435979 -0.03517939 -0.21931145 -0.11940626
-0.1267284 -0.091099255 -0.06079716 -0.19638647 -0.18185824 -0.121551454 -0.010405526 -0.0028871386
0.10756868 -0.19069481 -0.059572097 -0.05317181 -0.14127503 -0.09083933 -0.16714948 -0.06693687
0.105633155 -0.20466892 -0.0018873669 0.06162582 -0.007150185 -0.13291882 0.026810521 0.0031172063
-3.0058331 0.091649 -1.4110394 -1.716889 2.9796586 0.7022996 -1.5131218 -0.18389866
0.74503595 -2.18178 2.0463076 0.10899514 0.07902573 -0.36769247 -1.0146528 0.9931786
-1.1268035 -0.023868525 -0.59378904 -0.84277195 3.4208872 0.11223391 -0.09883286 3.3471854
0.3856404 -2.9730315 0.10587207 1.5570719 1.6862173 0.85807407 -0.6723038 -0.2351099
0.8285748 0.46063262 0.44719264 1.1456956 0.6700846 0.6635777 -0.55889916 -2.193826
0.004568199 -1.0131314 -0.5458958 2.4424624 -0.61797786 0.0061913338 1.8214872 -2.0782905
0.14243385 -1.8888513 -1.1413499 0.051484827 0.34895045 2.720662 0.46302342 0.09385024
-1.1614006 -0.6515361 1.0794102 -1.7532259 0.30702937 2.8200915 0.17557338 -0.3270289
-1.454624 -1.0333492 -0.5056219 -2.5427315 -0.32166186 -0.077199616 2.6740766 -0.16587386
-0.80622953 -1.4688419 -1.7465366 2.3174515 -0.6839714 1.7188153 -2.0006537 -1.8048186
0.49680504 0.5439232 2.4307833 -0.6688903 -0.8153953 -1.8477236 0.22374092 0.5496328
0.59787333 -1.317778 0.81108373 -1.6913162 -1.312312 0.3215056 -0.36459285 -1.810479
-2.6479554 3.164949 -1.2827013 -1.3401315 2.7402244 -0.043057244 2.3440948 1.6609532
0.17626135 1.6321069 1.5662766 -1.0535121 -1.361728 1.5962385 2.7501712 -1.6267937
0.47115323 0.5457786 -2.7625804 0.02469004 -2.615264 -0.80127406 -1.6840589 0.03809048
-0.26169926 -1.6796348 0.63296545 -2.1669633 -0.73141533 0.43327492 -0.6515197 0.6569466

MLP.4.bias f4 [28]
00000000: dd86 b93f a636 40be 60d7 18bd fcbe 083f
00000010: 544a a53f 6cab d7bc 6513 e4bd 63b1 fa3c
00000020: a60a 0fbf a413 8cbd 5f32 1640 fcc6 d1bc
00000030: a561 313f f9c5 f83f 066f 1b3e 2201 46bd
00000040: e236 1bbe a6db b7bd a238 ac3f 5ecd 46bd
00000050: 9b3f df3f 1a06 10bf e1e1 82bd b6b7 11be
00000060: b75b dc3f df32 d53e 73a7 1040 0a3e a53e
1.4494282 -0.18770847 -0.037314773 0.5341642 1.2913308 -0.026326858 -0.11136512 0.030602163
-0.55875623 -0.06839684 2.3468244 -0.025607578 0.6928962 1.9435416 0.15179071 -0.048340924
-0.15157655 -0.089774415 1.3454783 -0.048535697 1.7441286 -0.5625931 -0.06390739 -0.14230236
1.7215489 0.41640374 2.2602203 0.32273895

exp_avg f4 [128, 284]
00000000: e3d4 c132 2ff2 2832 1c3d acb2 359c 6ab2
00000010: e7ad a731 f579 85b1 39b0 39b2 6403 aa32
00000020: dc79 e4b1 71ee a5b2 4794 62b2 7131 03b2
00000030: 9172 0b31 9b1c a431 6523 3031 8bfa 1832
00000040: 1f97 ce31 daab 0732 d07e 62af b835 d731
00000050: 43f6 18b2 bf44 e430 e162 5fb2 bb31 66b1
00000060: 0f1b 48b1 45a7 1bb2 131e bd31 d139 5d31
00000070: 4ab5 ec2d 9977 0932 e947 2431 481d c6b1
00000080: 47fe 32b1 a71f 93b1 d460 ea2f 46ad 7d30
00000090: 31ca 5f2f 641a 1aaf e0a4 49b1 fe42 83b1
000000a0: 56dd 5831 144f bb30 7b2c 5aaf 588d 85b0
000000b0: 8055 be30 8f12 c0b1 5f70 1731 ee03 6031
000000c0: ecaf fb30 8385 4f31 d6eb a5b1 e691 11b2
000000d0: 4dfa af31 67bd dcb1 1a35 bb30 7212 1bb0
000000e0: bc66 95b0 2550 2632 92d6 9db1 0180 c8b0
000000f0: bb7b 9fb1 90d0 bbae c922 7e31 52e8 3cb0
00000100: 8561 9c30 0e6d 9d30 1ce5 6f31 8915 1a31
00000110: 4acb 1e30 0ba7 9731 77fc 1d31 e747 5030
00000120: 7ec6 52af 5cce d731 ccad 30af d96a e530
00000130: 59d5 7aad 6701 8730 cdb4 5331 c9a6 86b1
00000140: 98a1 32b1 6442 17b1 c811 0030 a713 a3b1
00000150: b35b 9db0 0004 0db1 4221 1930 c4cb 9fb1
00000160: fb89 0b30 89c8 2431 4b5d 89b1 8ae7 8930
00000170: 7a75 1631 ac45 5231 f8a9 88ae 10a5 bab0
00000180: 0da3 e730 af34 0031 e237 1231 0420 0831
00000190: 1f8b af31 b6f4 9e30 13eb 31b1 8bf0 3831
000001a0: eee6 afb0 5aa0 3cb0 4cc8 ca30 4fef 98b1
000001b0: 198e 5930 f10a fcb0 578f 7530 b29f fc2e
000001c0: b6ab 8fb1 51d2 89ab 182a 1931 bb21 c530
000001d0: d13b 0331 795d 01b0 d791 b8b0 28e1 03b1
000001e0: 9ca9 1931 03fa a2b0 9661 68b0 22ef fb30
000001f0: 1b0b a4af 8612 92b0 94bc 7e30 5d3b 83b0
00000200: 4815 a230 aebf 1daf a954 31b1 f64e 832f
00000210: e497 282f b89b 3531 f4f8 cdb0 75e0 70b1
00000220: 598f 2931 bad8 0db1 1991 0f31 b42b 50af
00000230: dde0 91b1 2ba6 1431 98ec f130 9ec8 a830
00000240: a142 cc30 4023 a530 2c98 0fb1 ea24 3931
00000250: 1089 03b0 b1e1 6e2f 4c2a 00b1 fb8e c730
00000260: e100 d030 f7d6 5730 1976 9430 ac59 8131
00000270: 4711 d82f a5a2 51b1 f83f 80b0 eb03 e1af
00000280: 5f78 daaf 6c2c 1e31 7f13 53b1 34ff 98b0
00000290: 366e 4cb1 4ae4 8cb0 948d d1b0 4837 0e31
000002a0: 6ec4 0231 924b fa30 8dfb c7af 24b4 f430
000002b0: 1f50 20b0 bba7 a030 199b e630 3cac 1331
000002c0: b7e6 2f30 3b85 1cb1 7408 1431 a04f 2db0
000002d0: 2676 f730 4d4c 9d30 bcd6 d5b0 582b 0fb1
000002e0: b4ae 5d30 b664 35af db90 afb0 ab26 0831
000002f0: c58a 1a31 14d8 2931 18a1 69b0 93f4 a5b0
00000300: d3d0 0eb0 0b89 59b0 9388 4cb0 b336 dab0
00000310: 69cd f42f e817 52b0 7c26 b1b0 ac25 c32f
00000320: 1974 2631 8c09 bf2f 1422 a6b0 5fdf 4e2f
00000330: 1614 a630 5c70 cf30 17ec e3b0 8e4d cf2f
00000340: d552 3631 c7c5 7eb0 2491 41b0 ba8e 4fb1
00000350: 1166 b1ae adcc 8530 4897 d230 bda8 c7af
00000360: 0dc7 7730 bf8e c1b0 4d0e 932f ac08 f8af
00000370: 87cc bfb0 5440 272f c001 c32e f3a7 a230
00000380: c7ea 4830 c2c0 3230 644c e330 6fcb 1430
00000390: d4ff f7b0 5079 9c30 3d29 2631 896e 192f
000003a0: cec7 2b31 9ba0 b3af d02c 35ae dc4e 4f30
000003b0: 6b71 10b1 d159 3ab0 0a4f 3ab1 c0c5 0730
000003c0: 8c7c 0631 4acc 94b0 175e 02af 3c4b 7230
000003d0: accb e630 6383 afb0 5648 8b30 f200 6730
000003e0: f10c 78ad a2c7 462f 151e 33b1 0b64 a130
000003f0: 7be7 0bb0 e139 4430 56bd 23b0 c925 f3ae
2.2564967e-08 9.833953e-09 -2.0051225e-08 -1.365611e-08 4.88011e-09 -3.8846744e-09 -1.0808486e-08 1.9792147e-08
-6.649527e-09 -1.9316959e-08 -1.3188646e-08 -7.636445e-09 2.0292286e-09 4.7762803e-09 2.563149e-09 8.904531e-09
6.0125696e-09 7.897109e-09 -2.0599633e-10 6.2634307e-09 -8.903558e-09 1.6608722e-09 -1.3002791e-08 -3.3497674e-09
-2.9119211e-09 -9.06022e-09 5.504043e-09 3.2192597e-09 2.6910602e-11 8.001643e-09 2.3906017e-09 -5.7658873e-09
-2.604695e-09 -4.2818615e-09 4.2633153e-10 9.22871e-10 2.0353565e-10 -1.4015594e-10 -2.934307e-09 -3.820218e-09
3.1557952e-09 1.3628516e-09 -1.9842787e-10 -9.717196e-10 1.384862e-09 -5.5900453e-09 2.2037268e-09 3.2598524e-09
1.8312654e-09 3.0198357e-09 -4.8289435e-09 -8.473284e-09 5.1216262e-09 -6.4243753e-09 1.3621133e-09 -5.6414884e-10
-1.0870376e-09 9.6806945e-09 -4.593695e-09 -1.4588296e-09 -4.6415756e-09 -8.5408236e-11 3.6981638e-09 -6.872415e-10
1.1378211e-09 1.1454249e-09 3.490931e-09 2.242219e-09 5.7768956e-10 4.413669e-09 2.2990017e-09 7.577214e-10
-1.9169907e-10 6.280784e-09 -1.6068852e-10 1.6692311e-09 -1.4258227e-11 9.822941e-10 3.0807314e-09 -3.9188746e-09
-2.5994265e-09 -2.201113e-09 4.65914e-10 -4.7461586e-09 -1.1449316e-09 -2.0520474e-09 5.570834e-10 -4.6506745e-09
5.076399e-10 2.3979132e-09 -3.997831e-09 1.0033869e-09 2.189465e-09 3.0598626e-09 -6.2147565e-11 -1.3580195e-09
1.6853804e-09 1.8656399e-09 2.1277562e-09 1.9808803e-09 5.1089866e-09 1.1565564e-09 -2.5890514e-09 2.6912257e-09
-1.279856e-09 -6.8621875e-10 1.4754362e-09 -4.4509885e-09 7.9146073e-10 -1.8338523e-09 8.933418e-10 1.1488001e-10
-4.181369e-09 -9.79281e-13 2.2288358e-09 1.4343223e-09 1.909701e-09 -4.706276e-10 -1.3429212e-09 -1.9190995e-09
2.2360842e-09 -1.1858109e-09 -8.4539786e-10 1.8330619e-09 -2.9839317e-10 -1.0628163e-09 9.267265e-10 -9.548377e-10
1.17931e-09 -1.4347165e-10 -2.5805014e-09 2.3884866e-10 1.5333473e-10 2.6427482e-09 -1.498647e-09 -3.5052186e-09
2.467422e-09 -2.0641395e-09 2.0891717e-09 -1.8933016e-10 -4.2456194e-09 2.163129e-09 1.7602302e-09 1.2280628e-09
1.4861891e-09 1.2015349e-09 -2.0895738e-09 2.6942026e-09 -4.78523e-10 2.1726156e-10 -1.8650494e-09 1.4519793e-09
1.5134242e-09 7.852203e-10 1.0801983e-09 3.7645886e-09 3.9302447e-10 -3.0505956e-09 -9.331407e-10 -4.0930045e-10
-3.9739498e-10 2.3017277e-09 -3.0715623e-09 -1.1131989e-09 -2.9748555e-09 -1.0251224e-09 -1.524699e-09 2.0695143e-09
1.9029147e-09 1.8211372e-09 -3.6376627e-10 1.7804536e-09 -5.832152e-10 1.1689204e-09 1.6778784e-09 2.148922e-09
6.3992495e-10 -2.277672e-09 2.154164e-09 -6.305019e-10 1.8005195e-09 1.1444939e-09 -1.5558821e-09 -2.0833877e-09
8.06476e-10 -1.6497634e-10 -1.2774096e-09 1.9812585e-09 2.248883e-09 2.4715563e-09 -8.4993834e-10 -1.2074842e-09
-5.1956056e-10 -7.913889e-10 -7.440885e-10 -1.5877134e-09 4.4529294e-10 -7.643153e-10 -1.2889383e-09 3.549706e-10
2.4222173e-09 3.474948e-10 -1.2087775e-09 1.8814948e-10 1.2083798e-09 1.5093167e-09 -1.6583525e-09 3.7708187e-10
2.653157e-09 -9.268572e-10 -7.041925e-10 -3.0203595e-09 -8.067159e-11 9.735196e-10 1.5322508e-09 -3.6317785e-10
9.0140945e-10 -1.4083169e-09 2.6749306e-10 -4.51171e-10 -1.3955209e-09 1.5211415e-10 8.867884e-11 1.1834785e-09
7.3093215e-10 6.502995e-10 1.6538135e-09 5.4131183e-10 -1.8044326e-09 1.1384973e-09 2.417962e-09 1.3954539e-10
2.499735e-09 -3.2674027e-10 -4.1194437e-11 7.5418227e-10 -2.1019229e-09 -6.779404e-10 -2.711149e-09 4.9393734e-10
1.9570363e-09 -1.082648e-09 -1.1856859e-10 8.8146e-10 1.679259e-09 -1.2770268e-09 1.013414e-09 8.4038654e-10
-1.41000414e-11 1.8078919e-10 -2.6065028e-09 1.1742726e-09 -5.089686e-10 7.1386635e-10 -5.9568117e-10 -1.10570726e-10

exp_avg_sq f4 [128, 284]
00000000: 5750 e637 24d6 6b37 34a7 aa37 f8f3 3038
00000010: f36b 6536 962d 1237 8c2c 6c37 8f97 4037
00000020: 1daa 3337 d807 1b37 fe28 dc35 4197 4036
00000030: 1cea 1536 9780 a035 cff6 7136 0d93 6036
00000040: 9eb9 b435 cf5d 2436 6eb9 eb35 073d 2d34
00000050: f771 5d36 e774 f534 8e13 3235 81f8 7d34
00000060: eacb 3735 ac3a 8836 9e4c 6035 b0cb 4435
00000070: caf7 5b35 2101 4435 fd65 d835 825b b734
00000080: 7ef6 aa34 ca81 cc35 8de3 b735 33ef 9736
00000090: 69a2 4935 f589 ab34 98a2 7735 e54d 8a34
000000a0: 7d13 2334 d83f 0236 4307 6134 7d68 2535
000000b0: 7078 2d36 fc59 6035 3833 f934 ca27 9f35
000000c0: e7d7 2534 31e1 1b35 d51f 8b35 f111 a034
000000d0: 9ace ae35 bf64 9735 ab3e 4934 a03c 8334
000000e0: 4c7d e734 b45c 1b35 7cca 8535 d03c 2834
000000f0: c2c3 1a34 771d 5a35 4c31 1134 c778 8534
00000100: bc18 3c34 0aab 2035 2c6a 9034 b7f5 3134
00000110: 7c4c c135 bec1 7434 2bca cd34 77ef 0934
00000120: eacc 5a33 62ec 2b34 1375 f834 8b2e ff34
00000130: 1acc 0534 fab3 a133 e7ea cd34 e3c7 1235
00000140: ac63 bb33 7168 f533 d504 bf32 567f 5134
00000150: 129b 1b35 2bf7 1735 df79 5e33 0b1f b934
00000160: 94d2 0534 a67b bd33 11e7 e534 3202 4834
00000170: 6dcf 2734 2680 9634 88c2 6734 6b67 a734
00000180: 6690 d134 dca0 7d34 4d41 2e35 39d0 9e34
00000190: 4423 8034 88b6 a933 d119 b433 1b8c dc33
000001a0: 94b4 8333 20a2 a633 2166 1634 9f93 4535
000001b0: 49bf ff34 f2dc 6334 7481 d434 a5d4 3434
000001c0: e357 0934 71c1 0b34 5651 c834 f923 a233
000001d0: db70 a334 7a98 a734 6df0 2e34 2b38 8934
000001e0: dfb2 4234 8134 cb33 9463 ab33 95cc dd34
000001f0: 849a 1634 85a3 2a34 b568 d834 e1f1 7a34
00000200: 6650 9b33 447c 8133 7909 b334 67ea 2834
00000210: 2f72 2334 1d77 5834 4480 df33 7c42 c933
00000220: dca7 9134 b3aa 5e34 063b be33 da3e 6134
00000230: e744 7734 3412 ad34 b579 b633 29ff 0535
00000240: 43e0 4f34 68ad 1e35 25a7 2a34 279a c033
00000250: dd04 0334 3171 9433 4c84 f632 4ec0 9534
00000260: 774c 8b34 8c6b 6e33 3e70 3c33 e78d ad34
00000270: 3a7e 0434 2cc3 0035 f71d 9233 5718 0c34
00000280: 0b8f 4e33 1cb1 9a33 017c 8e34 7bd9 3033
00000290: 201a 5d34 8cdb 2d33 2094 c534 d457 b133
000002a0: 6241 8334 4993 0433 d5e6 5f34 3262 fa34
000002b0: 415b 3433 3442 7a34 a1d9 fd34 1605 e233
000002c0: 2ac6 2e34 5d21 2d33 97e1 9f33 c0fa 8d34
000002d0: 0ab2 0234 0333 f032 e930 0f34 6b36 9233
000002e0: badd ef33 5e7e 3533 5590 0a34 adde ef32
000002f0: c27b 0a34 489e 9e32 cbe7 7a34 29aa a433
00000300: 1858 8133 5d9b bd33 acea 7234 8e09 1d34
00000310: b981 3133 1df3 b233 4f42 9134 44cf f932
00000320: af76 b233 bc75 7e34 ed53 4034 7482 0933
00000330: 2c63 8233 a4d5 6a34 53e7 ae33 cbfb 8033
00000340: ec3b 9a33 1b81 1634 bd24 4034 a990 de33
00000350: 565d 8234 e28c 3434 b25e 8133 39b6 f332
00000360: be2d 8833 1133 a633 f625 6b33 36d9 a433
00000370: 1e3d 8b33 19db b633 e715 e032 daca 2c32
00000380: a589 9f32 a45a 9a32 3709 9132 c0ce 3c33
00000390: 3c3c b633 b931 8232 e022 8533 19f3 1734
000003a0: baf0 0533 7865 2e33 b051 c533 5587 d133
000003b0: 9ada dd33 bbe5 ad33 5aa9 2433 9a12 4334
000003c0: 3482 c233 b6b2 bc32 e23a 8533 da8d be32
000003d0: d4c2 9e33 3b88 4b33 dd02 7532 316f a033
000003e0: 6381 c432 3903 ed33 a180 c433 3c93 9832
000003f0: 7050 0234 6e6a ba33 5920 4634 5b90 e833
2.7455548e-05 1.405695e-05 2.034344e-05 4.2188884e-05 3.4186494e-06 8.712892e-06 1.4077068e-05 1.1479379e-05
1.0708839e-05 9.240546e-06 1.6403208e-06 2.869827e-06 2.2339e-06 1.1958354e-06 3.605546e-06 3.3464196e-06
1.3465067e-06 2.4492508e-06 1.7562832e-06 1.6134082e-07 3.2997903e-06 4.5719864e-07 6.6338623e-07 2.3652866e-07
6.8469546e-07 4.059946e-06 8.3557995e-07 7.3312094e-07 8.194444e-07 7.301733e-07 1.6122937e-06 3.4152987e-07
3.1844314e-07 1.5236958e-06 1.3700788e-06 4.527997e-06 7.5114673e-07 3.195161e-07 9.2251275e-07 2.576118e-07
1.5187648e-07 1.9408672e-06 2.09574e-07 6.161934e-07 2.5849113e-06 8.357745e-07 4.641713e-07 1.1858003e-06
1.5445367e-07 5.8069696e-07 1.0365571e-06 2.9815376e-07 1.3024139e-06 1.1279698e-06 1.8742382e-07 2.4444762e-07
4.3118268e-07 5.78769e-07 9.968203e-07 1.5668343e-07 1.4413584e-07 8.1254205e-07 1.3522111e-07 2.4861058e-07
1.7517863e-07 5.985354e-07 2.689934e-07 1.65738e-07 1.440188e-06 2.2794754e-07 3.8331322e-07 1.2846236e-07
5.094345e-08 1.6011612e-07 4.6278782e-07 4.7531316e-07 1.2460842e-07 7.529884e-08 3.835514e-07 5.468011e-07
8.725996e-08 1.1427699e-07 2.2237524e-08 1.9510966e-07 5.7967657e-07 5.661156e-07 5.1799244e-08 3.4481522e-07
1.2463198e-07 8.82349e-08 4.2822697e-07 1.862725e-07 1.5628548e-07 2.8032917e-07 2.1584322e-07 3.118142e-07
3.9034347e-07 2.3620981e-07 6.4915076e-07 2.9581295e-07 2.3867517e-07 7.902878e-08 8.386599e-08 1.02700334e-07
6.13301e-08 7.759468e-08 1.4006993e-07 7.3603036e-07 4.763663e-07 2.1221402e-07 3.9582267e-07 1.6841166e-07
1.2791092e-07 1.3015757e-07 3.7312083e-07 7.550256e-08 3.044323e-07 3.1217115e-07 1.6292479e-07 2.5559106e-07
1.8132731e-07 9.4624745e-08 7.980921e-08 4.131331e-07 1.4026051e-07 1.5891972e-07 4.030932e-07 2.337106e-07
7.232374e-08 6.0296344e-08 3.334824e-07 1.5731494e-07 1.5222098e-07 2.0159901e-07 1.0407578e-07 9.371885e-08
2.7130488e-07 2.0737461e-07 8.858301e-08 2.0977623e-07 2.3028734e-07 3.2237006e-07 8.497174e-08 4.991767e-07
1.9359963e-07 5.9111926e-07 1.589329e-07 8.968737e-08 1.2202095e-07 6.9123764e-08 2.869833e-08 2.7893333e-07
2.5946403e-07 5.5511507e-08 4.3874245e-08 3.232701e-07 1.2339379e-07 4.796773e-07 6.8041054e-08 1.3047371e-07
4.809321e-08 7.2034e-08 2.6539786e-07 4.117599e-08 2.0591733e-07 4.0479378e-08 3.6801885e-07 8.2581806e-08
2.4448224e-07 3.08676e-08 2.085247e-07 4.6637575e-07 4.199251e-08 2.3307149e-07 4.7283268e-07 1.052487e-07
1.6277104e-07 4.0310045e-08 7.445049e-08 2.644574e-07 1.2171964e-07 2.7962875e-08 1.3335706e-07 6.8085534e-08
1.11696366e-07 4.2257277e-08 1.2904759e-07 2.7924523e-08 1.2897274e-07 1.8465599e-08 2.336739e-07 7.667797e-08
6.023055e-08 8.829259e-08 2.262338e-07 1.462524e-07 4.1329006e-08 8.332993e-08 2.70566e-07 2.9081669e-08
8.310359e-08 2.3698425e-07 1.7911925e-07 3.2016445e-08 6.071636e-08 2.187067e-07 8.144584e-08 6.006265e-08
7.1820836e-08 1.4016807e-07 1.7894759e-07 1.0363994e-07 2.4282298e-07 1.6815059e-07 6.0242556e-08 2.8371788e-08
6.341314e-08 7.739266e-08 5.4749727e-08 7.6763556e-08 6.483809e-08 8.514889e-08 2.6086992e-08 1.0057841e-08
1.857263e-08 1.7969178e-08 1.6884412e-08 4.39602e-08 8.485992e-08 1.5156603e-08 6.199639e-08 1.4151409e-07
3.1185415e-08 4.0604817e-08 9.188386e-08 9.756938e-08 1.0330878e-07 8.097728e-08 3.833825e-08 1.8167557e-07
9.057513e-08 2.1967349e-08 6.204006e-08 2.2183418e-08 7.3928874e-08 4.738852e-08 1.4261528e-08 7.470806e-08
2.2876241e-08 1.1036759e-07 9.150359e-08 1.7762083e-08 1.2136456e-07 8.6806594e-08 1.8451955e-07 1.08296e-07

exp_avg f4 [128]
00000000: 23f6 74b1 f5e0 baac fc6b 0332 3203 10a5
00000010: d12e a3a6 aeff 08b2 82ee 1e31 7fd5 d62d
00000020: 1cc4 1832 d718 2730 f10d 3cb2 8add 95b0
00000030: 4069 38b2 b350 cfb0 d336 af31 406a 98b0
00000040: 986b 2baf 00c1 c5ab 73f4 6db2 6d8b a7ad
00000050: 4e85 f1ad 77f7 b1b1 9aa3 9bb1 562a d6b1
00000060: 44d5 cc2c 313c afb2 16f3 4032 38ed b632
00000070: fe5c 8c31 095b a731 576d a8b2 20f4 042a
00000080: 34ec b930 b390 c430 aabb 4e2d b2cd cbb2
00000090: ce61 0b2a 22d9 6b31 f71d 97b1 3998 852a
000000a0: e85b 35a9 c007 95a6 2215 07b2 ba68 88b2
000000b0: fb65 892c c0eb ae31 8356 42aa fc82 6731
000000c0: 0b14 c6b2 d0ad c828 18d3 1630 18da 1232
000000d0: dcb2 1331 5402 dd31 0d46 5d32 6ad6 3f32
000000e0: eb1b f029 4c6f 3e32 e52a 1ea5 efe3 edb1
000000f0: f044 5032 543f 4f2c 759f 3e31 cd31 adb1
00000100: 7da2 c7b2 811c 622c 6ae8 4331 bf38 87aa
00000110: ca9f beb1 e46b 5931 0a74 fdb1 74e4 abb2
00000120: b451 13b1 4434 08b1 562b 8631 7115 76ac
00000130: ffab b42c e5c5 5db1 5ad4 8b32 e7e9 9b2c
00000140: bae4 5e31 2f32 8f2c 2a0f 302d 6542 8c31
00000150: 22f5 162c b66b cc2f f1e4 3a32 9cf4 88b2
00000160: 3d4c 9a31 a463 deb1 bab2 5329 bbf3 d3a8
00000170: 794b 7aac 2311 8baf 40fc 0ab2 d1d0 88b1
00000180: 6143 fb31 6ebe 16b1 d764 5332 c1d6 a3b1
00000190: cb39 17b2 2e53 b0ad 8666 4528 af06 572a
000001a0: 5450 5b31 5569 01b2 b3f5 a827 5d87 d730
000001b0: bc00 ac2d 4705 0aa7 264c adac 995c a829
000001c0: feaa cc30 9e64 1730 9911 8a31 2d10 b42c
000001d0: 5231 892b 9adb 0ead 7498 d031 e62b 8331
000001e0: 722b 2332 04ac 0731 215f 2fad 014e 34b0
000001f0: 07c7 4d32 053b 1baf dd40 bbad 320e 12b2
-3.5646586e-09 -5.311413e-12 7.649756e-09 -1.2491092e-16 -1.1323087e-15 -7.974377e-09 2.3127602e-09 2.4423795e-11
8.892155e-09 6.0789546e-10 -1.094621e-08 -1.0904142e-09 -1.0734141e-08 -1.5084168e-09 5.099403e-09 -1.1089654e-09
-1.5590584e-10 -1.405126e-12 -1.3850797e-08 -1.904762e-11 -2.7457727e-11 -5.1795115e-09 -4.529693e-09 -6.2330328e-09
5.821706e-12 -2.0400053e-08 1.1231142e-08 2.1295463e-08 4.0851083e-09 4.870689e-09 -1.9607496e-08 1.1808653e-13
1.3527655e-09 1.4302003e-09 1.1751414e-11 -2.372585e-08 1.2379613e-13 3.4320427e-09 -4.398085e-09 2.3731172e-13
-4.026979e-14 -1.0341053e-15 -7.862839e-09 -1.5880108e-08 3.9050963e-12 5.090868e-09 -1.7260676e-13 3.368938e-09
-2.3059348e-08 2.227984e-14 5.4869664e-10 8.547907e-09 2.1492985e-09 6.432211e-09 1.2879821e-08 1.1166415e-08
1.0662984e-13 1.10847616e-08 -1.3718849e-16 -6.923521e-09 1.2122868e-08 2.9451623e-12 2.773928e-09 -5.0406244e-09
-2.324054e-08 3.2132355e-12 2.8508347e-09 -2.4020193e-13 -5.5478937e-09 3.1638985e-09 -7.376461e-09 -2.0010908e-08
-2.1437758e-09 -1.9820314e-09 3.90484e-09 -3.4970605e-12 5.135003e-12 -3.2272223e-09 1.6278296e-08 4.4313333e-12
3.2435268e-09 4.069876e-12 1.0007809e-11 4.0820844e-09 2.1452358e-12 3.7183917e-10 1.087868e-08 -1.594372e-08
4.490657e-09 -6.472378e-09 4.7006432e-14 -2.3531407e-14 -3.5569033e-12 -2.529613e-10 -8.090012e-09 -3.9818606e-09
7.3127215e-09 -2.193612e-09 1.2304745e-08 -4.768339e-09 -8.802497e-09 -2.0045823e-11 1.0957928e-14 1.9098155e-13
3.1914356e-09 -7.532738e-09 4.6895755e-15 1.5681781e-09 1.9554462e-11 -1.9154208e-15 -4.92541e-12 7.476762e-14
1.4891552e-09 5.5076466e-10 4.0183292e-09 5.1177036e-12 9.748125e-13 -8.120527e-12 6.0709286e-09 3.8175925e-09
9.497727e-09 1.9742865e-09 -9.968721e-12 -6.559447e-10 1.1977824e-08 -1.4118136e-10 -2.1288244e-11 -8.501546e-09

exp_avg_sq f4 [128]
00000000: b75c aa35 1591 3236 45a9 7b38 bb5f 1636
00000010: ca0c fa35 ad8b 8235 609a 0b37 15fe 6f38
00000020: 5d70 e136 0809 b335 8391 8b36 4650 d536
00000030: 0b14 2137 9a73 0937 4855 0137 7ee6 7d36
00000040: 9b13 7337 3b21 ff36 3547 3e37 41b7 e235
00000050: 419a 6d36 25ff 0237 0828 eb37 c781 3f35
00000060: 93cc 9d36 ecc1 d036 4ada f536 cd27 4936
00000070: 7947 3d36 9d92 3137 69df b936 98c6 1b36
00000080: 8838 2e37 7ca6 b435 8725 5037 a9d2 6a37
00000090: d112 0237 27b7 7e36 accb 0a36 ba1e 2b37
000000a0: 5025 aa38 cc99 3836 38e7 1035 7550 8036
000000b0: 5afd fc36 8e75 9936 dccd a637 6e35 ac36
000000c0: 39b1 1236 4200 0439 3ebf 0237 f1c0 1d37
000000d0: 3255 b236 790a 1337 88e0 ae35 fd88 2734
000000e0: a4c9 6238 5334 5336 6c85 7b36 9b44 1936
000000f0: c64d 5436 7f78 db36 bc81 7a37 59b6 0d37
00000100: 2c35 b837 34c7 c536 9ff0 8c36 2f2d 9b37
00000110: 220a 5837 1db0 ca35 e7dc af36 3866 1b37
00000120: fc02 b736 bc3a 0b37 bbe6 c436 425c 0137
00000130: 3e62 f536 f1fa 9236 c357 3d37 2afa f536
00000140: ba64 6736 d38d d936 01dc 9e36 edf0 8838
00000150: aa5d 0837 3546 5b36 efb3 5236 3659 0638
00000160: fd4c 4237 2baf 0c37 927c eb34 691f 8036
00000170: b6cf 5d37 6b75 e536 541c f736 8ee3 0736
00000180: dbef d436 69ca 6737 2302 8d37 31a5 6537
00000190: 8ee8 0837 5c17 9137 bd0c ac38 942b 8538
000001a0: 295e f637 b033 5837 3902 0b37 f477 7736
000001b0: e5e9 e334 dfeb ab37 4419 df36 f24d 3c38
000001c0: 9aa6 4b37 cc5b ac35 4a8b 9037 0e36 8436
000001d0: 4750 7f37 1cd0 b837 cde5 c437 1ffe 2336
000001e0: 79e9 c536 5d9b 3c37 be8f 2437 c7d3 3637
000001f0: 486a a237 f046 b635 eeb6 2036 e05f 6f35
1.2692971e-06 2.6608516e-06 6.0000708e-05 2.2407464e-06 1.8630174e-06 9.726406e-07 8.320989e-06 5.7218673e-05
6.7186033e-06 1.3339168e-06 4.1594626e-06 6.3572397e-06 9.601014e-06 8.192752e-06 7.708855e-06 3.7834102e-06
1.4488493e-05 7.6034607e-06 1.1341462e-05 1.6891646e-06 3.540554e-06 7.808009e-06 2.8032824e-05 7.1341896e-07
4.70278e-06 6.2214585e-06 7.326981e-06 2.99745e-06 2.8204797e-06 1.0584158e-05 5.539438e-06 2.3212397e-06
1.038437e-05 1.3459498e-06 1.2406504e-05 1.3996535e-05 7.752985e-06 3.7955558e-06 2.0682155e-06 1.0199548e-05
8.113182e-05 2.7507658e-06 5.398065e-07 3.8240637e-06 7.5396792e-06 4.5734405e-06 1.9884603e-05 5.1322195e-06
2.1858853e-06 0.00012588597 7.793131e-06 9.402852e-06 5.3147314e-06 8.764321e-06 1.3029357e-06 1.5602923e-07
5.407039e-05 3.1471907e-06 3.7479576e-06 2.283871e-06 3.1635732e-06 6.540736e-06 1.4931367e-05 8.446711e-06
2.195927e-05 5.894248e-06 4.200337e-06 1.849848e-05 1.28769625e-05 1.5101429e-06 5.241123e-06 9.26252e-06
5.4541724e-06 8.298721e-06 5.8681157e-06 7.71048e-06 7.313006e-06 4.3803525e-06 1.12857115e-05 7.330692e-06
3.4480313e-06 6.4836145e-06 4.7343788e-06 6.529861e-05 8.12804e-06 3.267441e-06 3.1397174e-06 3.2031174e-05
1.1581226e-05 8.385435e-06 4.3862798e-07 3.818354e-06 1.3220988e-05 6.838401e-06 7.3644715e-06 2.0249022e-06
6.346015e-06 1.38158e-05 1.6809505e-05 1.3687925e-05 8.160378e-06 1.7296225e-05 8.203972e-05 6.350051e-05
2.9369332e-05 1.2886638e-05 8.285563e-06 3.687569e-06 4.2452226e-07 2.0494625e-05 6.648859e-06 4.4895285e-05
1.2138533e-05 1.2841715e-06 1.7231e-05 3.9401993e-06 1.5217875e-05 2.2031418e-05 2.347203e-05 2.443681e-06
5.8982373e-06 1.1241847e-05 9.808629e-06 1.0897354e-05 1.9361396e-05 1.3580702e-06 2.3948337e-06 8.9173955e-07
