lightning_logs/version_11/checkpoints/epoch=29-step=76140.ckpt (torch, 568267 bytes, 18 tensors)

MLP.0.weight f4 [128, 284]
0	0xbdef4e55	-0.116848625
1	0xba807af7	-0.0009802271
2	0x3e0d5a80	0.13804054
3	0xbe18438a	-0.14869514
4	0x3dff08a2	0.124528185
5	0xbe7895ec	-0.2427594
6	0xbdda1419	-0.106483646
7	0xbe221636	-0.15828785
8	0xbefce73f	-0.49395177
9	0x3ec3f868	0.38275456
10	0x3afe2c48	0.0019391859
11	0xbc756e75	-0.014979948
12	0x3ec0ca68	0.37654424
13	0x3e2a583b	0.1663522
14	0xbe554962	-0.20828775
15	0x3e7eebf0	0.2489469
16	0x3ea9d599	0.33170775
17	0xbeaa2aff	-0.33235928
18	0x3ef02ddb	0.46909985
19	0x3cb8309c	0.022484116
20	0x3e1d7f57	0.15380608
21	0xbe3a9c40	-0.18223667
22	0xbe137d09	-0.14403166
23	0xbe0bed62	-0.13664773
24	0x3ddb2e95	0.10702244
25	0x3d3984ab	0.045292538
26	0xbe080d23	-0.13286261
27	0x3f01ed5f	0.50752825
28	0x3ebfc61d	0.37455836
29	0xbe8e0adf	-0.2774267
30	0x3dfe397b	0.12413307
31	0xbf128c75	-0.5724557
32	0xbc990a5a	-0.018681694
33	0xbecdd5b2	-0.402021
34	0x3d0ae04e	0.03390532
35	0xbcd563f4	-0.026048638
36	0xbdb02857	-0.08601444
37	0xbdb2630d	-0.08710299
38	0x3e08ed56	0.13371786
39	0xbed452de	-0.41469473
40	0xbae2485b	-0.0017263995
41	0x3d07f95a	0.033196785
42	0xbe862659	-0.26201132
43	0xbe20f4ed	-0.15718432
44	0x3daea50c	0.08527574
45	0xbe9e548c	-0.3092388
46	0x3e8b42ce	0.27199405
47	0x3e91c4df	0.28470513
48	0x3e1760c1	0.14783002
49	0x3eea7abc	0.45796764
50	0xbf00e7c8	-0.5035367
51	0xbf465814	-0.77478147
52	0xbe28a391	-0.16468646
53	0x3dd1c922	0.10243441
54	0xbdc8366f	-0.097760074
55	0xbd397fc9	-0.04528788
56	0x3e011f1f	0.12609528
57	0xbd132d23	-0.035931718
58	0x3ea0817e	0.31348795
59	0x3ed795a2	0.42106348
60	0xbdfc8aeb	-0.12331184
61	0xbef2d19b	-0.4742554
62	0x3e988589	0.2978938
63	0x3eb1d1ee	0.34730476
64	0xbe767bcc	-0.24070662
65	0xbd824d83	-0.063624404
66	0x3e0ee24f	0.13953517
67	0x3f3ea173	0.744651
68	0x3e7d04bf	0.24708842
69	0x3c6d2251	0.014473514
70	0xbe49a8c1	-0.19693281
71	0xbe96a46c	-0.2942232
72	0x3ecf9fab	0.40551504
73	0x3f0be0b0	0.5463972
74	0x3ec08166	0.37598723
75	0xbcc53287	-0.024071945
76	0x3e15a505	0.14613731
77	0x3e562c5f	0.20915364
78	0xbec503e8	-0.38479543
79	0xbdaebc52	-0.08532013
80	0x3ee9910c	0.45618474
81	0xbddff828	-0.10936004
82	0x3e954e09	0.291611
83	0xbeb82a61	-0.35969833
84	0x3e23a010	0.15979028
85	0x3e9bc000	0.30419922
86	0xbdec355c	-0.11533615
87	0xbd928900	-0.07155037
88	0x3e3a3118	0.1818279
89	0x3d2e9453	0.04262192
90	0x3d36d0ad	0.044632602
91	0x3dce2dd4	0.10067335
92	0xbe101d86	-0.14073762
93	0xbec8516e	-0.39124626
94	0x3df18764	0.11793402
95	0x3eb2ad97	0.34898064
96	0xbeb5e434	-0.35525668
97	0x3d7bd4f9	0.061482403
98	0x3d014eb4	0.031569198
99	0xbe863e49	-0.26219395
100	0xbe036305	-0.12830742
101	0xbe8da3e6	-0.27664107
102	0x3e8e89c3	0.2783948
103	0xbea6ab8b	-0.32552752
104	0xbde5dfcc	-0.112243265
105	0xbe9e70f5	-0.30945554
106	0x3e8b6919	0.2722862
107	0xbf02a601	-0.5103455
108	0x3e381dd1	0.17980124
109	0xbcf45c2b	-0.029829105
110	0xbc890ae4	-0.016728826
111	0x3db7c820	0.08973718
112	0x3ec23829	0.37933472
113	0x3d6a8c95	0.057262976
114	0xbc4e52ca	-0.012592981
115	0xbdb0d9d2	-0.08635296
116	0x3ea8d89e	0.32977766
117	0x3e0f2092	0.13977268
118	0xbe48a739	-0.1959504
119	0xbe66307f	-0.22479437
120	0x3e9580d8	0.29199862
121	0x3e185afd	0.1487846
122	0x3daf472b	0.08558496
123	0xbdf3df38	-0.1190781
124	0xbcaaf7e7	-0.020870162
125	0x3decdc12	0.115654126
126	0x3e7e998b	0.2486326
127	0xbed95ee0	-0.42455196
128	0x3dd83659	0.10557241
129	0xbe642f6d	-0.22283716
130	0x3e0ce2a5	0.13758333
131	0x3dc86980	0.097857475
132	0x3d4e2bc1	0.050334696
133	0x3d1dc628	0.038519055
134	0x3eb6f6d7	0.357352
135	0xbdcfaa28	-0.101398766
136	0xbeb27608	-0.34855676
137	0x3ea73f35	0.3266541
138	0xbe768d57	-0.24077354
139	0xbeac285f	-0.3362455
140	0x3dbf9cce	0.0935608
141	0x3e70d411	0.23518397
142	0xbf28afa9	-0.65893036
143	0x3de1b9fd	0.110218026
144	0xbedd74d0	-0.43253183
145	0xbdc0aa94	-0.09407535
146	0xbd6c9bd1	-0.057765786
147	0xbe95ba6e	-0.29243797
148	0xbeaea495	-0.3410994
149	0x3ea4acf4	0.32163203
150	0xbedfe55c	-0.43729675
151	0x3d5ab234	0.053392604
152	0xbd0e686b	-0.03476755
153	0x3e35e154	0.17761737
154	0xbe4a7392	-0.19770649
155	0xbe955860	-0.29168987
156	0x3e1d3665	0.15352781
157	0x3ec13f4e	0.3774361
158	0xbdbb6ec4	-0.09151986
159	0xbf2066b3	-0.62656707
160	0x3eb7799d	0.3583497
161	0x3d931a23	0.071827196
162	0xbeb6543a	-0.35611135
163	0xbde1ad6b	-0.11019405
164	0xbed9c987	-0.42536566
165	0xbe96c646	-0.29448146
166	0xbe652280	-0.22376442
167	0x3e8c4083	0.2739297
168	0xbe93838e	-0.28811306
169	0xbe928487	-0.28616735
170	0xbe2833a1	-0.16425945
171	0x3e8b13d3	0.27163562
172	0x3cf913c2	0.03040493
173	0x3f0cd4a4	0.55011964
174	0x3d660a10	0.05616194
175	0xbeaabb3f	-0.33345982
176	0x3ebc891d	0.3682336
177	0x3eb16a0d	0.34651223
178	0x3e839480	0.25699234
179	0xbe98c2d7	-0.2983615
180	0x3f62343f	0.8836097
181	0x3ea8cea9	0.3297017
182	0xbe0d01e4	-0.13770252
183	0x3e82347f	0.25430676
184	0xbe22c8d2	-0.1589692
185	0x3e7d59d3	0.24741296
186	0xbe75edd2	-0.24016502
187	0x3e52b0fc	0.20575327
188	0x3de7763b	0.113018475
189	0x3f768cc3	0.96308535
190	0xbebefee6	-0.37303847
191	0x3ec61602	0.38688666
192	0xbcfd7db2	-0.030943725
193	0xbcb37527	-0.021906449
194	0xbfa491ac	-1.2856956
195	0x3e49ea19	0.19718207
196	0x3ed050b4	0.40686572
197	0xbdd4112c	-0.10354838
198	0xbe499f8b	-0.19689767
199	0x3e2f3db7	0.17113386
200	0x3ec4e31e	0.38454527
201	0xbe22a298	-0.15882337
202	0x3d800c6e	0.06252371
203	0xbee5d426	-0.4488842
204	0x3d595ef4	0.05306907
205	0x3da8aa89	0.08235652
206	0xbed79354	-0.4210459
207	0xbd6dadf6	-0.05802723
208	0x3caee6ca	0.021350283
209	0x3ea4f8ee	0.32221168
210	0x3f15fb00	0.5858612
211	0x3e9683d3	0.2939745
212	0x3e985b65	0.29757228
213	0x3e4ac966	0.1980339
214	0x3e94f416	0.29092473
215	0x3ec20078	0.37890983
216	0x3e8949c5	0.26814094
217	0x3f738146	0.9511913
218	0x3e7e0651	0.24807097
219	0x3d99e7d6	0.07514922
220	0x3f1d33a0	0.614069
221	0xbdc3e721	-0.09565569
222	0x3c839d46	0.016066205
223	0x3e62e580	0.2215786
224	0xbda1aed6	-0.078946754
225	0x3d8f8c9f	0.07009243
226	0xbe4a540c	-0.19758624
227	0x3e9c2ab0	0.30501318
228	0x3d354859	0.04425845
229	0xbe446404	-0.19178778
230	0x3eba7d15	0.36423555
231	0xbec7caed	-0.39022008
232	0x3d758c85	0.059948463
233	0x3f34fa83	0.7069475
234	0xbf16f904	-0.5897372
235	0x3ee3c9ee	0.44489998
236	0x3ea9b5be	0.3314647
237	0xbe603711	-0.21896006
238	0x3e23ce74	0.15996724
239	0xbeb42a29	-0.35188416
240	0x3f21c0cf	0.6318483
241	0xbe93419e	-0.28761
242	0xbd0b70a7	-0.03404298
243	0x3e902caf	0.2815909
244	0x3ecb0938	0.3965547
245	0x3dc99a88	0.098439276
246	0xbe16742a	-0.1469275
247	0x3f439f5b	0.7641503
248	0xbe9606ba	-0.29302007
249	0x3dcac047	0.09899955
250	0xbdc50185	-0.096194305
251	0x3e1e51e7	0.15460931
252	0x3dcca488	0.09992319
253	0xbf259026	-0.6467308
254	0x3f0b62f2	0.54447854
255	0x3e460949	0.1933948

MLP.0.bias f4 [128]
0	0xbe604ee1	-0.2190509
1	0xbf1bfbd3	-0.6093113
2	0xbef8902a	-0.48547488
3	0xbf0f92f8	-0.5608363
4	0xbeec39d1	-0.4613786
5	0xbed9cfc9	-0.4254134
6	0xbe5b2cad	-0.21403761
7	0xbd1bafcc	-0.03800945
8	0xbef91cab	-0.48654684
9	0xbf2a8f5d	-0.66625005
10	0xbef100bf	-0.47070882
11	0xbe971a40	-0.29512215
12	0xbeef0974	-0.466869
13	0xbe879b64	-0.2648574
14	0xbdc83855	-0.097763695
15	0xbe3c04b9	-0.18361177
16	0xbe57611b	-0.21033137
17	0xbed108e2	-0.4082709
18	0xbe89b33e	-0.26894563
19	0xbe5c57e6	-0.21517906
20	0xbf1741c6	-0.5908474
21	0xbf1b8b87	-0.60759777
22	0xbf169321	-0.5881825
23	0xbe3dedc3	-0.1854773
24	0xbf257cb1	-0.6464339
25	0xbe750656	-0.23928198
26	0xbefda526	-0.4954006
27	0xbeea4ff7	-0.45764133
28	0xbea71961	-0.3263655
29	0xbf161990	-0.58632755
30	0xbee00af8	-0.43758368
31	0xbf0b2023	-0.5434591
32	0xbe96bbb4	-0.2944008
33	0xbec9fea2	-0.39452082
34	0xbf0de35f	-0.55425066
35	0xbea3bb03	-0.31978616
36	0xbe472ac5	-0.19449909
37	0xbf156273	-0.58353347
38	0xbeb36123	-0.35035047
39	0xbed25b79	-0.41085413
40	0xbef078eb	-0.46967253
41	0xbf060407	-0.52349895
42	0xbf01808e	-0.50586784
43	0xbc82a3a7	-0.015947176
44	0xbec2496c	-0.3794664
45	0xbebecc6e	-0.37265342
46	0xbf1452b4	-0.57938695
47	0xbf081f0e	-0.53172386
48	0xbe5c9a66	-0.21543273
49	0xbe9787a9	-0.29595688
50	0xbe32c6b5	-0.17458613
51	0xbf29dc3c	-0.66351676
52	0xbf3d2eec	-0.7389972
53	0xbc3f01ca	-0.011658141
54	0xbe8d003f	-0.2753925
55	0xbed331ac	-0.41248834
56	0xbe6346eb	-0.22195022
57	0xbe3f2571	-0.18666627
58	0xbf22bb22	-0.6356679
59	0x3d9f0568	0.07764703
60	0xbf096aa7	-0.53678364
61	0xbf031166	-0.5119842
62	0xbeeda892	-0.4641767
63	0xbf09ff2c	-0.53904986
64	0xbedd1991	-0.43183568
65	0xbf0c367c	-0.54770637
66	0xbeb9123c	-0.36146724
67	0xbe6a319e	-0.2287049
68	0xbe087648	-0.1332637
69	0xbf1b9ca9	-0.6078592
70	0xbe6364c7	-0.22206412
71	0xbe32d77c	-0.17465013
72	0xbe45c798	-0.1931442
73	0xbea412dc	-0.3204564
74	0xbf1fe949	-0.6246534
75	0xbee6c8dc	-0.4507512
76	0xbebc252f	-0.3674712
77	0xbe899b59	-0.26876333
78	0x3e2421aa	0.16028467
79	0xbe5de3c2	-0.21668914
80	0xbf5bf60b	-0.85922307
81	0xbe9722d3	-0.29518756
82	0xbe993d65	-0.29929653
83	0xbeb51129	-0.35364655
84	0xbe482941	-0.19546987
85	0xbe4d6716	-0.20058855
86	0xbe7d78e5	-0.24753149
87	0xbecd874c	-0.40142286
88	0xbdd03aab	-0.1016744
89	0xbf124c52	-0.57147706
90	0xbf3beadc	-0.7340524
91	0xbee9e9cd	-0.45686188
92	0xbec90c4c	-0.39267194
93	0xbe36d8c8	-0.17856133
94	0xbf1793ae	-0.59209716
95	0xbea44cee	-0.32089943
96	0xbef66f78	-0.4813192
97	0xbea17c36	-0.31540078
98	0xbf0a6416	-0.5405897
99	0xbe97b68a	-0.29631454
100	0xbf67297c	-0.90297675
101	0x3d7c2cc0	0.061566114
102	0xbefc44fb	-0.49271378
103	0xbf173383	-0.59062976
104	0xbf20f60e	-0.6287545
105	0xbefe290d	-0.49640694
106	0xbf5a2e9d	-0.85227376
107	0xbef33d61	-0.47507766
108	0xbe8f7c9e	-0.28024763
109	0xbe8db4c0	-0.27676964
110	0xbec89b1f	-0.39180848
111	0xbec57833	-0.38568267
112	0xbf22330d	-0.6335915
113	0xbf1934fe	-0.59846485
114	0xbd8794ad	-0.066201545
115	0xbf004fb1	-0.501216
116	0xbebd0978	-0.36921287
117	0xbecfc39a	-0.4057892
118	0xbecb41d9	-0.39698675
119	0xbf00f2f2	-0.50370705
120	0xbf208120	-0.6269703
121	0xbeb0fa92	-0.3456617
122	0xbedffe8c	-0.4374889
123	0xbe70b538	-0.2350663
124	0xbf1cff95	-0.6132749
125	0xbe35fcfc	-0.17772287
126	0xbf26636a	-0.64995444
127	0xbeb9bba3	-0.36275968

MLP.2.weight f4 [64, 128]
0	0xbd343b49	-0.04400185
1	0x3d85e678	0.06538099
2	0xbd9eb293	-0.07748904
3	0xbea2f264	-0.31825554
4	0x3e972f77	0.295284
5	0xbea1fc8e	-0.31637996
6	0x3da02380	0.07819271
7	0xbdc9b53a	-0.09849019
8	0x3e82c4e9	0.25540856
9	0xbb9e02cd	-0.004822111
10	0xbe6634ff	-0.22481154
11	0x3da984e5	0.08277301
12	0x399d690a	0.00030023634
13	0x3f2eca0b	0.68277043
14	0x3ec305bd	0.38090315
15	0x3eecd9a3	0.46259794
16	0x3edf22f9	0.4358137
17	0xbe7fcea4	-0.24981171
18	0x3ea35943	0.3190404
19	0xbe94f5b0	-0.29093695
20	0xbf14445c	-0.5791681
21	0x3de5d331	0.11221922
22	0xbe192234	-0.14954454
23	0xbea47195	-0.32117906
24	0xbed7f023	-0.42175397
25	0x3eb7b44c	0.35879743
26	0x3d8b245b	0.06794044
27	0x3f1f007d	0.6211012
28	0x3f005914	0.5013592
29	0x3f0675d3	0.52523535
30	0x3bb746bc	0.005593149
31	0x3b437dad	0.0029829547
32	0xbe2fce89	-0.1716863
33	0x3f3dbed1	0.7411929
34	0x3e1c09df	0.1523814
35	0xbf23cf29	-0.63987976
36	0x3ef3b83b	0.47601494
37	0xbe66c9f4	-0.22537977
38	0x3d69a33a	0.05704043
39	0x3ea2287d	0.31671515
40	0x3e5fa270	0.21839309
41	0x3dbfdda7	0.09368449
42	0x3def53d4	0.11685911
43	0xbe877bde	-0.2646169
44	0xbe66f8bf	-0.22555827
45	0x3e965133	0.29358825
46	0xbdee1d93	-0.116267346
47	0x3e898c49	0.26864842
48	0x3d3cb5f0	0.046071947
49	0x3d88a465	0.06671981
50	0x3ea35b7b	0.31905732
51	0xbe078993	-0.13236074
52	0x3f1f7f8f	0.62304014
53	0x3e619e29	0.2203299
54	0xbe2b34f2	-0.16719416
55	0x3ecc62a2	0.39919
56	0x3ebdac42	0.37045485
57	0x3eaac0fc	0.3335036
58	0x3da8507c	0.08218476
59	0xbe6819a3	-0.2266603
60	0x3da74925	0.08168248
61	0x3e967876	0.2938878
62	0x3f165956	0.58730066
63	0x3dffd2bf	0.124913685
64	0xbf3c1ac8	-0.73478365
65	0xbeb90e37	-0.36143658
66	0x3def6aa9	0.11690266
67	0x3ec6b3b7	0.38808987
68	0xbe34b1fa	-0.17646018
69	0xbe2de737	-0.16982733
70	0x3c837bda	0.016050268
71	0x3e897fb2	0.26855236
72	0x3e6afae6	0.22947273
73	0xbdbb0262	-0.09131314
74	0x3ebbdbf4	0.36691248
75	0x3d16a40d	0.036777545
76	0xbe234ae1	-0.15946533
77	0x3e12f481	0.14351083
78	0x3e65a961	0.22427894
79	0x3e983584	0.2972833
80	0x3ef097f0	0.4699092
81	0xbeb51c69	-0.35373238
82	0xbe8bda97	-0.27315208
83	0x3e8d804a	0.2763694
84	0x3f0a08c7	0.53919643
85	0x3ea3f86f	0.32025477
86	0x3e0fadf7	0.14031206
87	0x3e30283e	0.17202851
88	0x3e04aee8	0.12957346
89	0xbe6eb55e	-0.23311374
90	0xbeda30e3	-0.42615423
91	0x3e872101	0.26392367
92	0xbefeb512	-0.4974752
93	0x3e2fa9f0	0.1715467
94	0xbf420bce	-0.7579926
95	0xbf007608	-0.501801
96	0x3ea6c8d7	0.32575104
97	0xbec207f4	-0.37896693
98	0x3f595f10	0.8491068
99	0x3e17bff2	0.14819315
100	0xbe1b91a3	-0.15192275
101	0xbd2bf99b	-0.04198609
102	0xbe52d255	-0.20588048
103	0x3ea0441e	0.3130197
104	0x3dbf4bf2	0.09340657
105	0xbeb029eb	-0.3440698
106	0xbec303f0	-0.38088942
107	0x3e50fffa	0.20410147
108	0x3d8b69e5	0.06807307
109	0xbe12aa25	-0.14322717
110	0x3d9a75b0	0.07541978
111	0xbdcc921e	-0.09988807
112	0x3bed9701	0.007250667
113	0xbefd23be	-0.49441332
114	0x3d4162ba	0.047213294
115	0x3e0f4beb	0.13993804
116	0xbcd4ba82	-0.02596784
117	0x3e025a4f	0.12729762
118	0x3f176873	0.5914375
119	0xbe998e15	-0.29991212
120	0xbf068281	-0.52542883
121	0xbf6e7b4e	-0.931569
122	0x3e8918ae	0.26776642
123	0x3e7fd63f	0.24984072
124	0xbeb73dc2	-0.35789305
125	0xbdfddf2f	-0.123960845
126	0x3f4c8863	0.7989561
127	0x3e1f892d	0.15579672
128	0x3e4ef500	0.20210648
129	0x3ea4a0ba	0.32153875
130	0x3e282b98	0.1642288
131	0x3eae7b51	0.34078458
132	0xbea0df52	-0.3142038
133	0x3e4e8417	0.20167576
134	0xbd20caee	-0.03925603
135	0x3eadca74	0.33943522
136	0xbddc5ebc	-0.10760257
137	0xbeccf1e7	-0.40028307
138	0xbe352681	-0.1769047
139	0xbc9db2cf	-0.019250302
140	0xbec2c6ca	-0.3804229
141	0x3dc7d101	0.09756661
142	0x3dda9111	0.106722005
143	0x3e8a9047	0.270632
144	0xbe4a24c3	-0.19740586
145	0x3ddf62b4	0.10907498
146	0x3ea9ec4e	0.331881
147	0xbe591ba3	-0.21201949
148	0x3d82c152	0.06384529
149	0xbe899c62	-0.26877123
150	0x3d9674a7	0.073464684
151	0x3e0897af	0.13339113
152	0x3efbd807	0.49188253
153	0x3e0fad17	0.14030872
154	0xbc1c410a	-0.009536991
155	0xbe92d1c1	-0.28675655
156	0x3b0b4584	0.0021251151
157	0xbc27e985	-0.0102485465
158	0x3e5cc7dd	0.21560617
159	0xbe6a30b1	-0.22870137
160	0x3dd3e67d	0.103466965
161	0xbe5b2982	-0.21402553
162	0x3db3bfda	0.08776827
163	0x3f1119a6	0.5667976
164	0x3ec5162a	0.38493472
165	0xbba46bee	-0.005017749
166	0x3e8031f2	0.25038105
167	0x3e77c0b6	0.24194607
168	0xbefacca0	-0.4898424
169	0xbdbceff1	-0.09225453
170	0x3d52b3cf	0.05144101
171	0x3e255790	0.16146684
172	0xbe468789	-0.1938764
173	0x3d38b00c	0.045089766
174	0x3f01b700	0.5066986
175	0xbea7d74d	-0.3278145
176	0x3f471162	0.777609
177	0xbf13396e	-0.57509506
178	0x3f34931a	0.7053696
179	0xbd83ee62	-0.06441952
180	0xbdfd1b6e	-0.123587474
181	0x3de43d67	0.11144524
182	0x3dc8a92b	0.09797891
183	0xbe6262f7	-0.22108065
184	0x3f179c68	0.5922303
185	0xbf279657	-0.65463775
186	0xbebe8c41	-0.3721638
187	0x3f7f3f5a	0.9970604
188	0xbe63aa7b	-0.22233002
189	0x3d641f87	0.05569413
190	0x3ea6476d	0.3247637
191	0xbecedca8	-0.40402722
192	0x3e8034f7	0.2504041
193	0x3ecf30b6	0.4046685
194	0xbeafc265	-0.34328
195	0x3ea624cf	0.32449958
196	0x3effc627	0.49955866
197	0xbea65c87	-0.32492468
198	0x3e2480e0	0.16064787
199	0xbe28c9d4	-0.16483241
200	0xbf76bccd	-0.9638184
201	0x3d8d4edd	0.068998076
202	0xbee920d5	-0.4553286
203	0x3dc173ca	0.09445913
204	0x3db73252	0.08945145
205	0xbf4e58ab	-0.80604047
206	0x3deb8132	0.114992514
207	0x3f28765d	0.6580561
208	0xbe82ae4a	-0.25523597
209	0xbe32b6b8	-0.17452514
210	0x3f0eb3e5	0.5574325
211	0x3f312fa4	0.6921332
212	0xbf432a8a	-0.76236784
213	0xbf369524	-0.7132132
214	0x3df37fee	0.11889635
215	0xbdf99a52	-0.121876374
216	0xbe8c8a80	-0.27449417
217	0x3e94d369	0.29067543
218	0x3eabd45f	0.33560464
219	0x3f13986e	0.57654464
220	0x3f0c8595	0.5489133
221	0x3d97c070	0.074097514
222	0x3e9120fc	0.28345478
223	0x3eac47fa	0.33648664
224	0x3ecc0c02	0.3985291
225	0xbe13abd6	-0.14421019
226	0xbd681578	-0.0566611
227	0xbf04f837	-0.51941246
228	0xbeba10e6	-0.36341017
229	0xbd472f7c	-0.04862927
230	0xbc78523f	-0.015156328
231	0xbde85c59	-0.11345739
232	0xbe432d36	-0.19060215
233	0x3e8545eb	0.26029906
234	0xbf4bda71	-0.7963019
235	0x3f0ef191	0.5583735
236	0x3f0559e7	0.52090305
237	0xbf20fbb4	-0.6288407
238	0x3c072dba	0.008250648
239	0x3ef24445	0.4731771
240	0x3e432a81	0.19059183
241	0x3ecc294d	0.3987526
242	0xbe0addec	-0.13561219
243	0xbd96217c	-0.073306054
244	0x3d9bda84	0.07610038
245	0xbd194bf1	-0.03742594
246	0xbf14347d	-0.5789259
247	0x3d0b9e3f	0.034086462
248	0x3e1f1683	0.15535931
249	0xbefedf29	-0.49779633
250	0x3e9c4a05	0.30525222
251	0xbefcdff8	-0.49389625
252	0xbe3cba29	-0.1843039
253	0x3f1d38fa	0.61415064
254	0x3ce02b27	0.027364327
255	0x3ea7c006	0.3276369

MLP.2.bias f4 [64]
0	0x3e73a7e1	0.2379451
1	0x3f16b058	0.5886283
2	0xbd47cc23	-0.048778664
3	0x3ea09e9e	0.31371015
4	0xbe41f298	-0.18940198
5	0xbe5b87ee	-0.21438572
6	0x3e3063c5	0.17225559
7	0xbef8e12f	-0.486093
8	0x3d859647	0.06522804
9	0x3f151ba8	0.58245325
10	0xbd447a71	-0.04796833
11	0x3e65edc9	0.22453989
12	0xbeb65e6a	-0.35618907
13	0xbddd7cd8	-0.10814828
14	0x3f0f3464	0.55939317
15	0xbeceb77d	-0.40374365
16	0x3ed112d9	0.40834692
17	0x3dc48189	0.09595019
18	0x3e195ed4	0.1497758
19	0xbdb96d06	-0.09053998
20	0x3e0df49c	0.13862842
21	0xbe211cf6	-0.15733704
22	0x3e6ba52b	0.23012225
23	0x3ecb6af7	0.39730045
24	0xbea8a6b4	-0.32939684
25	0x3e931370	0.28725767
26	0x3ee0cc3f	0.43905827
27	0x3c510634	0.012757827
28	0x3c858e2e	0.016303148
29	0x3f114940	0.56752396
30	0xbe1e52f6	-0.15461335
31	0xbe909e6d	-0.2824587
32	0xbeda2ca9	-0.42612198
33	0x3f0dc8e8	0.55384684
34	0x3cb72fc9	0.022361653
35	0xbeaaa106	-0.33325976
36	0xbec1ccf9	-0.37851694
37	0xbc5b35b3	-0.013379502
38	0x3f049182	0.5178453
39	0x3e5f0166	0.21777877
40	0xbe140d86	-0.14458284
41	0x3e19fdfb	0.15038292
42	0x3e520aa5	0.20511873
43	0x3e83c76e	0.2573809
44	0x3ef235a5	0.47306553
45	0xbe80cd03	-0.25156412
46	0xbe795cbe	-0.24351785
47	0xbd29572e	-0.041342907
48	0xbd6df424	-0.05809416
49	0x3dfb18c5	0.12260584
50	0x3dfdb1fb	0.12387463
51	0x3e4b28a8	0.19839728
52	0x3e57faff	0.21091841
53	0xbe350f69	-0.1768166
54	0xbbea9ef6	-0.007160063
55	0xbd807b4b	-0.06273516
56	0x3e9a26c0	0.3010769
57	0x3e625dcf	0.22106098
58	0xbd1cf541	-0.03831983
59	0x3d82cbe6	0.06386547
60	0x3f0c5266	0.5481323
61	0x3bed2c41	0.0072379415
62	0x3d14186b	0.0361561
63	0x3e2645ca	0.1623756

MLP.4.weight f4 [28, 64]
0	0xbd0fa581	-0.035069946
1	0x3ee4db2a	0.4469846
2	0x3c4e99cf	0.012609913
3	0x3e7ba394	0.24574119
4	0xbe9c14b8	-0.30484557
5	0x3e6b0a23	0.22953086
6	0xbf02eaa7	-0.511393
7	0x3e09acca	0.1344482
8	0x3e5809a0	0.21097422
9	0xbeb5b4d7	-0.35489532
10	0xbe495afb	-0.19663613
11	0xbf3a2803	-0.72717303
12	0xbf422ec4	-0.7585261
13	0x3d462e84	0.048384205
14	0xbf031e0f	-0.5121774
15	0xbe5a13b4	-0.21296579
16	0x3d08707c	0.0333104
17	0xbd0c5185	-0.03425743
18	0x3ed615fd	0.4181365
19	0x3ea95ba2	0.33077723
20	0xbf148b21	-0.58024794
21	0x3e7f51c3	0.24933533
22	0x3ea21506	0.31656665
23	0x3e3ce11b	0.18445246
24	0xbf1317ee	-0.5745839
25	0x3ee065d2	0.43827683
26	0x3ee0b6b0	0.4388938
27	0xbebcc763	-0.3687087
28	0x3d4d9a1a	0.05019579
29	0xbf1416f1	-0.57847506
30	0xbe974d6d	-0.2955126
31	0x3ed178ef	0.40912578
32	0xbefa544f	-0.48892447
33	0xbda48cae	-0.08034645
34	0xbe7fdece	-0.24987337
35	0xbf4ce2ce	-0.80033576
36	0xbf9546e2	-1.1662257
37	0xbeb85cc9	-0.3600829
38	0x3e77da71	0.24204423
39	0x3ef0a810	0.47003222
40	0x3e6704f0	0.22560477
41	0xbf4dfcea	-0.8046404
42	0xbdd06b2a	-0.1017669
43	0xbf2e8188	-0.681664
44	0xbe7ecef2	-0.24883631
45	0xbc8f72ee	-0.017510857
46	0xbd0da64a	-0.034582414
47	0x3e21152e	0.15730736
48	0x3e6fbaae	0.23411056
49	0xbf8c5dd0	-1.0966129
50	0xbf146e4f	-0.5798082
51	0x3ec61a8b	0.38692126
52	0xbf05877e	-0.5215987
53	0xbe0bf755	-0.13668568
54	0xbe57e3d4	-0.21083003
55	0xbd9a122f	-0.075229995
56	0x3e9da503	0.30789956
57	0x3e7fc51f	0.2497754
58	0xbf107eb4	-0.56443334
59	0x3ecfa549	0.4055579
60	0xbef13e99	-0.4711807
61	0x3ed87869	0.42279366
62	0x3e9b82a8	0.3037312
63	0xbd9911c9	-0.074740954
64	0xbda463cd	-0.08026848
65	0xba4e3275	-0.0007865795
66	0x3e45513c	0.1926927
67	0xbe90e025	-0.2829601
68	0xbea50627	-0.32231256
69	0xbead14af	-0.33804843
70	0x3e9e065b	0.30864224
71	0x3e0680f3	0.13135128
72	0x3ea6ed2b	0.3260282
73	0x3e56f4c4	0.20991808
74	0x3eb0af1d	0.345086
75	0x3e50724e	0.20356104
76	0xbe213873	-0.1574419
77	0xbe045c39	-0.12925805
78	0xbf5d9a44	-0.86563516
79	0xbf07a877	-0.5299143
80	0xbec0e861	-0.3767729
81	0x3ebde824	0.37091172
82	0x3d985e39	0.074398465
83	0x3e9a0d42	0.3008824
84	0xbecbdfa4	-0.39819062
85	0xbd8a783a	-0.06761213
86	0x3d475b47	0.048671033
87	0x3dcac004	0.09899905
88	0x3eb73bf1	0.3578792
89	0xbdf27725	-0.11839131
90	0xbf323d4a	-0.6962477
91	0xbc336ffd	-0.010951993
92	0xbeff3bf8	-0.4985044
93	0xbdc18eb2	-0.09451045
94	0xbe58661b	-0.211327
95	0xbf26d46c	-0.6516788
96	0xbe820622	-0.25395304
97	0x3e414715	0.18874772
98	0x3ee2fb9b	0.44332585
99	0xbe433a13	-0.19065122
100	0xbee5031d	-0.44728938
101	0xbc0d84cc	-0.008637618
102	0x3dcde81f	0.10054039
103	0x3b067604	0.002051712
104	0x3c1d3f3f	0.009597599
105	0xbf4ea73e	-0.8072394
106	0x3f8fb496	1.1226985
107	0x3e9bf492	0.3046003
108	0xbe298884	-0.16555983
109	0x3e0bf311	0.13666941
110	0xbd9db0e3	-0.07699754
111	0xbedb9e9b	-0.42894444
112	0xbe331b50	-0.17490888
113	0x3e697b43	0.22800927
114	0xbf3b7835	-0.73230296
115	0xbebe89f7	-0.37214634
116	0xbe49c885	-0.19705398
117	0xbe48ded5	-0.19616254
118	0xbf6605a0	-0.89852333
119	0xbe368175	-0.17822821
120	0xbbbcc19b	-0.0057603843
121	0xbeacdc4e	-0.3376183
122	0x3e877b67	0.26461336
123	0xbcf19261	-0.029488744
124	0x3e290880	0.16507149
125	0x3f104c18	0.5636611
126	0x3e83eb0a	0.25765258
127	0xbdda958d	-0.10673056
128	0xbe4b56d2	-0.19857338
129	0x3d92e556	0.071726486
130	0x3d504a91	0.050852362
131	0xbeca4796	-0.3950774
132	0xbe9bb48e	-0.3041119
133	0xbed2f55c	-0.4120282
134	0x3f005c85	0.50141174
135	0x3e5de43e	0.21669099
136	0xbe8fe887	-0.28107092
137	0xbe8d5cc2	-0.2760983
138	0xbd77cbc7	-0.06049707
139	0xbebd6d4b	-0.36997446
140	0xbf8d4d85	-1.1039282
141	0x3dfcb2cf	0.123387925
142	0x3c137aac	0.009001415
143	0xbdfaec7b	-0.12252136
144	0x3e9c657d	0.3054618
145	0xbe13033a	-0.143567
146	0x3eb4a620	0.35282993
147	0x3e6ef788	0.23336613
148	0xbe5b6282	-0.21424296
149	0xbce6f54c	-0.028193139
150	0xbd6025dd	-0.05472361
151	0xbe64c658	-0.22341287
152	0x3efe4ea0	0.4966936
153	0xbc93d864	-0.018047519
154	0x3e562e8f	0.20916198
155	0x3cfe020e	0.03100684
156	0xbece9046	-0.40344447
157	0xbdc14fde	-0.094390616
158	0xbbebe7ab	-0.007199248
159	0xbf55e0fd	-0.8354643
160	0x3e0384c8	0.12843621
161	0xbf180026	-0.59375226
162	0x3e116422	0.14198354
163	0xbf368cc9	-0.7130857
164	0x3ea9e231	0.33180383
165	0xbe53c7d7	-0.20681702
166	0x3ea3b422	0.31973368
167	0x3e9bae5d	0.30406466
168	0x3e59b831	0.2126167
169	0xbefa118c	-0.48841512
170	0x3e674797	0.22585903
171	0xbf01a0e9	-0.50636154
172	0xbd9e8ef5	-0.07742111
173	0xbf347ae2	-0.70500004
174	0xbd90b215	-0.070652165
175	0xbeb1384f	-0.34613273
176	0xbed65305	-0.41860214
177	0xbd59e966	-0.0532011
178	0x3e998158	0.29981494
179	0xbc89850f	-0.01678708
180	0x3e914d7e	0.28379434
181	0xbf341ec0	-0.7035942
182	0x3eba17ae	0.3634619
183	0x3edcec30	0.43148947
184	0x3ea88b29	0.3291867
185	0xbdaef049	-0.085419245
186	0xbf0e2125	-0.55519325
187	0xbed55938	-0.4166963
188	0x3edd4951	0.43219998
189	0xbea5ddb7	-0.32395718
190	0x3e6a07bb	0.22854511
191	0xbe9a4e8c	-0.30138052
192	0x3e5b6f6b	0.21429221
193	0xbfd677b3	-1.6755279
194	0xbc85e956	-0.016346615
195	0x3f1272d0	0.5720644
196	0xbfc1206a	-1.5088017
197	0xbed5cf37	-0.41759655
198	0x3eba07fe	0.36334223
199	0xbe62fc43	-0.22166543
200	0x3ee8eff4	0.4549557
201	0xbefae341	-0.49001506
202	0x3ee5cd55	0.44883218
203	0xbd82e890	-0.06392014
204	0xbcc3659f	-0.023852168
205	0x3ea04849	0.3130515
206	0x3ecd611e	0.40113157
207	0xbf59ae53	-0.8503162
208	0xbd9c579a	-0.07633896
209	0xbeb67053	-0.35632572
210	0xbf157b84	-0.58391595
211	0xbed3a335	-0.41335455
212	0x3d9324c9	0.071847506
213	0xbe11cecd	-0.14239044
214	0xbfafe1f5	-1.3740832
215	0x3e993415	0.29922548
216	0x3dd2f06d	0.10299764
217	0xbe8ee899	-0.27911833
218	0x3defb77b	0.11704918
219	0x3f1dd5f5	0.616546
220	0x3e5b6173	0.21423893
221	0xbf94d0bf	-1.1626204
222	0x3d043d56	0.032285057
223	0x3f0e80a5	0.55665046
224	0xbe6a9b1d	-0.22910734
225	0xbe8962e5	-0.26833263
226	0xbda83f14	-0.08215156
227	0xbec2e185	-0.38062683
228	0xbf41f9e8	-0.7577195
229	0xbfbd6e8e	-1.4799364
230	0x3e154de2	0.14580491
231	0xbf2d24d5	-0.67634326
232	0x3a8f1af4	0.0010918067
233	0x3eb4fad4	0.35347617
234	0x3d8394c0	0.06424856
235	0x3e958101	0.29199985
236	0x3ecea115	0.4035727
237	0xbfb16da3	-1.3861583
238	0xbfa927f3	-1.3215317
239	0xbc0d6fa7	-0.008632577
240	0x3eb39c1e	0.35080045
241	0x3e03299d	0.12808843
242	0xbd14be47	-0.036314275
243	0xbf6ca41f	-0.9243793
244	0x3e77cdc7	0.24199592
245	0x3e3a33e6	0.1818386
246	0xbe0fbbe0	-0.14036512
247	0xbf21d7ad	-0.6321972
248	0x3e504645	0.20339306
249	0xbdefbca3	-0.117059015
250	0xbf3b9268	-0.73270273
251	0xbef1d8f4	-0.47235835
252	0x3ec7abcc	0.38998258
253	0x3e5f92b1	0.21833302
254	0xbf9d1d21	-1.2274514
255	0x3ed40567	0.41410372

MLP.4.bias f4 [28]
0	0x3e50a427	0.20375119
1	0x3d0ead5b	0.034833293
2	0x3de80b52	0.11330284
3	0xbb9c11ff	-0.0047628875
4	0x3d0a3f72	0.033751912
5	0xbd8d008c	-0.0688487
6	0x3c253b69	0.010084965
7	0x3cef1b2d	0.029187763
8	0xbd4f7db0	-0.050656974
9	0x3ddd77ef	0.10813891
10	0xbe86fb99	-0.2636383
11	0x3dafd29f	0.08585095
12	0x3d51f44a	0.051258363
13	0x3df7138c	0.12064275
14	0x3cabe3ca	0.020982642
15	0xbe02e41e	-0.12782332
16	0xbe05fd24	-0.13084847
17	0xbe407bc0	-0.18797207
18	0xbc8e1c7d	-0.017347569
19	0x3e1bc68c	0.15212458
20	0x3d4160b4	0.047211364
21	0xbf864801	-1.0490724
22	0x3ef3ed72	0.47642094
23	0xbeb449c5	-0.35212532
24	0xbcd300ff	-0.02575731
25	0x3e7da18c	0.24768656
26	0x3e28dc85	0.16490372
27	0xbd2623fe	-0.04056167

exp_avg f4 [128, 284]
0	0x3b1e34ff	0.0024140475
1	0xba9c9aee	-0.0011948028
2	0xba5dfb8b	-0.0008467964
3	0x3ad74b1f	0.0016425586
4	0xbb3b39f5	-0.002856848
5	0x3ae76b1b	0.0017655821
6	0xba81e4b1	-0.0009910074
7	0xb7f8b762	-2.9649298e-05
8	0x3a0be2b4	0.00053362106
9	0x3a4289fd	0.00074210746
10	0xba9a4d64	-0.0011772332
11	0xba1abf4c	-0.0005903139
12	0x38ada232	8.279494e-05
13	0xb9c70a4a	-0.00037963904
14	0xba10b329	-0.0005519861
15	0xba572734	-0.0008207441
16	0x39ce2225	0.00039316821
17	0xb9c074c3	-0.00036708088
18	0xb88e1e17	-6.776692e-05
19	0xb94c0ade	-0.00019459004
20	0xb9ea4154	-0.0004468063
21	0x39e5bb7b	0.00043817968
22	0xba16e534	-0.00057562
23	0x38a9b3f5	8.0920676e-05
24	0xb9b5f276	-0.00034703658
25	0x3a475d91	0.000760519
26	0x3865c9bc	5.4785734e-05
27	0xb9fb657d	-0.00047950065
28	0xb81b796d	-3.7067966e-05
29	0x3a3c6d1c	0.00071878894
30	0x3a393a97	0.00070659205
31	0x39330426	0.00017072316
32	0x392656a8	0.00015863276
33	0x38d27cdb	0.000100368365
34	0xba1a321f	-0.00058821024
35	0xb92a5452	-0.00016243875
36	0xba024584	-0.0004969465
37	0x3868b625	5.5482746e-05
38	0x39089438	0.00013025186
39	0xb87237ff	-5.7749447e-05
40	0xb9c5a386	-0.00037696603
41	0x39d8ebf6	0.00041374535
42	0x3932b857	0.00017044075
43	0xba1e4d4b	-0.0006038739
44	0x39c2e8fe	0.00037176156
45	0xb988af26	-0.00026070437
46	0x3840d413	4.5973877e-05
47	0x394daaa0	0.00019613886
48	0xb9431e65	-0.00018607972
49	0xba387ffb	-0.00070381135
50	0xb983313c	-0.0002502295
51	0x39331481	0.00017078409
52	0xb91552fb	-0.0001424066
53	0xb9f50120	-0.0004673088
54	0x38bf260c	9.1146765e-05
55	0xb8616013	-5.3733656e-05
56	0x39b289c6	0.00034053455
57	0x38f565a1	0.0001170144
58	0xb8458387	-4.7090954e-05
59	0x393e40a5	0.00018143894
60	0xb8b8db16	-8.814612e-05
61	0xb8e90ef6	-0.000111130925
62	0x390d80af	0.00013494746
63	0x38e1826a	0.000107531276
64	0xb8bf240f	-9.114306e-05
65	0xb9cd1f3f	-0.00039123927
66	0xb8aaf8f6	-8.152604e-05
67	0xb973d991	-0.00023255336
68	0xb9716b85	-0.00023023605
69	0x39b54168	0.00034571742
70	0xb9f9718c	-0.0004757758
71	0xb9f3ab2d	-0.00046476108
72	0x399edb18	0.00030299346
73	0xb90edce8	-0.0001362447
74	0x39e82f3e	0.00044285686
75	0x39850971	0.0002537477
76	0xb861e1c6	-5.385445e-05
77	0xb93f41d4	-0.00018239702
78	0x38aa2c5e	8.114496e-05
79	0x38dfa4d1	0.00010664168
80	0x392d2401	0.00016511978
81	0x39c6ff32	0.00037955638
82	0xb987619b	-0.00025821928
83	0xb92fab44	-0.00016753102
84	0xb8dd522a	-0.000105534054
85	0x394439e7	0.00018713587
86	0xb9585eff	-0.00020634754
87	0x39bd961b	0.00036160726
88	0x3903b40e	0.00012560209
89	0xb8add5cb	-8.289105e-05
90	0xb950b302	-0.00019903111
91	0x3a0e7b0e	0.00054352067
92	0xb93ee396	-0.00018204594
93	0x399d7306	0.00030031073
94	0x387ef4af	6.07862e-05
95	0x38470017	4.744538e-05
96	0xb89e1d59	-7.5394935e-05
97	0x39cb02b2	0.00038721185
98	0xb8bdccbb	-9.050356e-05
99	0x37be4f53	2.2686703e-05
100	0x3840a09e	4.5925954e-05
101	0x396883d4	0.00022174354
102	0xba46e065	-0.0007586538
103	0xb8c541b2	-9.405929e-05
104	0x39ee5680	0.00045459345
105	0xb8cf4a65	-9.884386e-05
106	0xb987b94b	-0.0002588726
107	0x39a53b38	0.00031515374
108	0x390c1418	0.00013358926
109	0x39a95359	0.0003229629
110	0xb9e41438	-0.00043502613
111	0x3983a740	0.00025110878
112	0x39b9996d	0.0003540026
113	0x37f03089	2.863283e-05
114	0xb8a0f39a	-7.674769e-05
115	0x3923681c	0.00015583675
116	0xb98ce64a	-0.0002687446
117	0x39efefb7	0.00045764234
118	0x3925889d	0.00015786519
119	0x37d0a922	2.487429e-05
120	0xb92c7169	-0.00016445447
121	0xb8f1546c	-0.000115075
122	0xb9321a06	-0.00016985097
123	0x39e397bb	0.00043409862
124	0xb9e2dc7a	-0.00043270347
125	0xb8f0fe48	-0.000114914554
126	0x38a405cc	7.821209e-05
127	0xb9a9f2bd	-0.00032415046
128	0x38dcec8e	0.00010534479
129	0x37579f15	1.2852038e-05
130	0x39c0a9ca	0.00036747596
131	0x39051d7b	0.00012694851
132	0x3923345d	0.00015564398
133	0xb8a7393a	-7.97384e-05
134	0xb9833220	-0.00025023613
135	0xb8c8768f	-9.5588264e-05
136	0x37dad928	2.6088746e-05
137	0xb9677cbf	-0.00022076348
138	0xb99dc55d	-0.0003009242
139	0x39617e20	0.00021504657
140	0x397c6b1a	0.00024072491
141	0xb8a0f6ee	-7.675389e-05
142	0x394b1cce	0.00019370319
143	0xb88eb165	-6.80413e-05
144	0xb840e686	-4.599106e-05
145	0xb8d09e26	-9.94767e-05
146	0xb9070929	-0.00012878016
147	0x39b6b3b1	0.00034847626
148	0x38158440	3.5647536e-05
149	0x39c91900	0.00038356334
150	0xb784b249	-1.5818647e-05
151	0x38ce4c88	9.8371005e-05
152	0x39b24811	0.000340045
153	0xb950c682	-0.00019910376
154	0xb88698b7	-6.418063e-05
155	0x37ba92e5	2.2241331e-05
156	0xb9925624	-0.0002791147
157	0x37d45eb2	2.5316465e-05
158	0x372d9049	1.0345198e-05
159	0x372c1466	1.0256748e-05
160	0xb8b9fa48	-8.868106e-05
161	0x389fe440	7.624226e-05
162	0x39d68c07	0.0004092159
163	0x39defd81	0.00042532015
164	0x380b6fd9	3.324435e-05
165	0xb6a1607a	-4.8094053e-06
166	0x3886b2f1	6.422948e-05
167	0x39ca5ee0	0.0003859913
168	0xb8863280	-6.399024e-05
169	0x392b0bef	0.00016312276
170	0xb9cb3456	-0.0003875817
171	0x39c93e43	0.00038384096
172	0xb8474db2	-4.7517657e-05
173	0x39b77219	0.0003498949
174	0x391b90e5	0.0001483593
175	0xb8c916b4	-9.588656e-05
176	0xb9bf599d	-0.00036497126
177	0x38da5645	0.00010411119
178	0x391c2972	0.00014892759
179	0xb9e20b65	-0.0004311457
180	0xb8548b16	-5.0674273e-05
181	0x399e1197	0.00030149214
182	0xb8d42f43	-0.00010117751
183	0x38b1b2fa	8.473355e-05
184	0xb93d95f0	-0.000180803
185	0xb9664154	-0.00021958846
186	0x38294b14	4.0362662e-05
187	0x3767f509	1.3825725e-05
188	0x38b8ea16	8.8174056e-05
189	0xb8c25735	-9.2668844e-05
190	0x38cd0e55	9.777831e-05
191	0xb7b9f343	-2.2166996e-05
192	0x38efac94	0.00011428553
193	0x39ba4b25	0.00035532672
194	0xb8affb5b	-8.391469e-05
195	0x3742f3fa	1.1620106e-05
196	0xb94f024a	-0.00019741911
197	0x3901d816	0.00012382897
198	0x38967a0d	7.175291e-05
199	0x371c79f9	9.326724e-06
200	0xb815e842	-3.5740675e-05
201	0xb8a8a3c8	-8.041371e-05
202	0xb943d939	-0.00018677571
203	0x39ab4559	0.0003266733
204	0x38a0e739	7.672463e-05
205	0xb9f3133b	-0.000463629
206	0xb885b0c5	-6.37486e-05
207	0x3961a652	0.00021519631
208	0x39dba0a1	0.00041890613
209	0x38a6eb36	7.959308e-05
210	0xb8b20e42	-8.490357e-05
211	0xb893dcbf	-7.0506234e-05
212	0xb8705ae2	-5.73051e-05
213	0x3949d4b9	0.00019248099
214	0xb9e4e21b	-0.0004365601
215	0x396b2331	0.00022424456
216	0x38c8c413	9.573265e-05
217	0xb85c3875	-5.2504667e-05
218	0x38a62964	7.9232064e-05
219	0xb739bddd	-1.1071065e-05
220	0xb8078f14	-3.231976e-05
221	0x390b344d	0.00013275557
222	0x39e45dff	0.0004355758
223	0x394e6059	0.00019681583
224	0x37cf34f1	2.4700976e-05
225	0x39adf274	0.00033177773
226	0x38a2e7fc	7.7679724e-05
227	0x3946011a	0.00018883162
228	0xb90c4c65	-0.000133799
229	0x39470e48	0.00018983439
230	0xb92d8805	-0.00016549237
231	0xb99dd647	-0.00030105023
232	0xb9654d1c	-0.00021867867
233	0xb8efbfa8	-0.00011432107
234	0xb912e618	-0.00014009362
235	0x388b102f	6.631051e-05
236	0xb92df6a4	-0.00016590446
237	0x376a3202	1.395913e-05
238	0xb97f3f33	-0.00024342239
239	0x390a1b7b	0.00013170943
240	0x38f0d8c0	0.000114844646
241	0x39304b75	0.00016812778
242	0x3943a92c	0.0001865967
243	0x38377ff9	4.3749784e-05
244	0x39266711	0.00015869389
245	0xb826c13f	-3.975746e-05
246	0xb8ac7dad	-8.225008e-05
247	0x386f9282	5.7118486e-05
248	0x39929a52	0.00027962268
249	0xb8c66faf	-9.4621784e-05
250	0x38d9524f	0.000103626975
251	0x3833b33f	4.284386e-05
252	0x3919d762	0.00014671453
253	0xb8a40f36	-7.822963e-05
254	0x3990cfec	0.00027620734
255	0x38ffaa23	0.00012191038

exp_avg_sq f4 [128, 284]
0	0x3885ab2e	6.373819e-05
1	0x3832e289	4.2649484e-05
2	0x3823af42	3.902545e-05
3	0x37cec0ca	2.4646888e-05
4	0x37b22394	2.123582e-05
5	0x37bda77b	2.2608545e-05
6	0x375c99fa	1.3148872e-05
7	0x372a42ff	1.0148388e-05
8	0x373d98a9	1.1300822e-05
9	0x3785c081	1.5944477e-05
10	0x37512a25	1.2467183e-05
11	0x3710fe77	8.642316e-06
12	0x373811a4	1.0971362e-05
13	0x36eab13e	6.994377e-06
14	0x37129d1c	8.738858e-06
15	0x36d0d74d	6.2239474e-06
16	0x36e291bb	6.75229e-06
17	0x3727827e	9.984358e-06
18	0x36730fcd	3.621902e-06
19	0x3689d884	4.108124e-06
20	0x36ae7118	5.19877e-06
21	0x36909097	4.308367e-06
22	0x36b0f826	5.274097e-06
23	0x36c138ab	5.7584452e-06
24	0x36305ce5	2.6280115e-06
25	0x368dcaf4	4.2257543e-06
26	0x364df39e	3.0689184e-06
27	0x3678aa10	3.705387e-06
28	0x3677f7ff	3.695022e-06
29	0x367b3dd2	3.7437899e-06
30	0x3646122e	2.951488e-06
31	0x36935f5b	4.3920422e-06
32	0x362f7f81	2.615125e-06
33	0x3624891f	2.451772e-06
34	0x368a1e8c	4.1162766e-06
35	0x36169504	2.243848e-06
36	0x36236106	2.4345368e-06
37	0x362708bb	2.489002e-06
38	0x35de5b9a	1.6566948e-06
39	0x362c1937	2.5644674e-06
40	0x36134d14	2.1949572e-06
41	0x35e126c4	1.6775089e-06
42	0x3632d44f	2.6647647e-06
43	0x36074081	2.0154114e-06
44	0x36071aef	2.0132245e-06
45	0x35e8453a	1.7305495e-06
46	0x3589a322	1.0254773e-06
47	0x35c107b8	1.4381867e-06
48	0x35bb1d7b	1.3941166e-06
49	0x35e02020	1.669865e-06
50	0x35d3ec91	1.5789575e-06
51	0x359a313c	1.1488223e-06
52	0x35c74d7d	1.4849207e-06
53	0x35c55ca0	1.4704601e-06
54	0x35957724	1.113604e-06
55	0x35dd5c2b	1.6492608e-06
56	0x359f27dd	1.1858025e-06
57	0x35bf687e	1.426102e-06
58	0x35cd0a16	1.5276626e-06
59	0x35a8917b	1.2559316e-06
60	0x359dad30	1.1747816e-06
61	0x35b0c66c	1.317077e-06
62	0x3596b65b	1.1228943e-06
63	0x35987f6c	1.1361967e-06
64	0x35cf0048	1.5422784e-06
65	0x35b88901	1.3748942e-06
66	0x35824f3f	9.708818e-07
67	0x35a4545c	1.2243504e-06
68	0x35b89360	1.375196e-06
69	0x35cdc8c8	1.5332125e-06
70	0x3598d387	1.1386445e-06
71	0x357aea22	9.3472966e-07
72	0x355cdd24	8.227819e-07
73	0x3570c49c	8.969307e-07
74	0x3569939c	8.7014064e-07
75	0x3599b428	1.1451821e-06
76	0x35347a1a	6.7232907e-07
77	0x356c4ebe	8.8031436e-07
78	0x356e056e	8.866981e-07
79	0x35532cc5	7.8668774e-07
80	0x3538902c	6.875514e-07
81	0x354ddce4	7.668989e-07
82	0x35721263	9.017878e-07
83	0x358f26d9	1.0665636e-06
84	0x3554f579	7.9333364e-07
85	0x3546862f	7.395601e-07
86	0x356ba3e6	8.7782826e-07
87	0x3585bca3	9.964173e-07
88	0x35938ad2	1.0992756e-06
89	0x351f453e	5.9332876e-07
90	0x356e4d42	8.8774334e-07
91	0x35775ef8	9.215287e-07
92	0x35369674	6.801922e-07
93	0x352c0048	6.40754e-07
94	0x353b0947	6.967643e-07
95	0x35612c39	8.3883384e-07
96	0x3520f4c9	5.9960854e-07
97	0x34feb806	4.7445081e-07
98	0x353607a6	6.7811413e-07
99	0x354ac1cb	7.553287e-07
100	0x34f8729a	4.6276983e-07
101	0x353730bc	6.824373e-07
102	0x3548e376	7.4836805e-07
103	0x353daffb	7.066407e-07
104	0x3551577f	7.798589e-07
105	0x358957f0	1.0232889e-06
106	0x352141fb	6.007319e-07
107	0x3514fdb9	5.550351e-07
108	0x3509b64c	5.1301754e-07
109	0x35808755	9.57613e-07
110	0x35106fba	5.3806764e-07
111	0x34ecb672	4.4091172e-07
112	0x354c4285	7.609272e-07
113	0x35248975	6.129479e-07
114	0x354b5448	7.574604e-07
115	0x3513859f	5.495621e-07
116	0x350392be	4.901484e-07
117	0x352a2683	6.3385977e-07
118	0x3532f925	6.667272e-07
119	0x3526fcb3	6.2207545e-07
120	0x351b6c8b	5.789995e-07
121	0x34fbbf57	4.689161e-07
122	0x350a6521	5.155617e-07
123	0x3512ae77	5.464312e-07
124	0x354055f9	7.165068e-07
125	0x354e7ad8	7.691974e-07
126	0x34d10df4	3.8939436e-07
127	0x35202af2	5.966714e-07
128	0x35054e00	4.9659866e-07
129	0x350ae91e	5.1748236e-07
130	0x3525c4eb	6.1753843e-07
131	0x34c02857	3.5792138e-07
132	0x34b1939c	3.307622e-07
133	0x34a0833f	2.9897816e-07
134	0x3509fbee	5.1403083e-07
135	0x34c832ea	3.7289948e-07
136	0x34d8b262	4.0362926e-07
137	0x3508ae7e	5.091787e-07
138	0x35474918	7.423964e-07
139	0x34fb52d9	4.6812673e-07
140	0x3507d2e2	5.0598294e-07
141	0x34c8d239	3.740586e-07
142	0x3509e1e0	5.136517e-07
143	0x351fbe70	5.950924e-07
144	0x350941f6	5.1132463e-07
145	0x34d1b45d	3.9060515e-07
146	0x34c18303	3.6044375e-07
147	0x34e4ef06	4.2642222e-07
148	0x34d0be19	3.8881333e-07
149	0x34df0ab8	4.1544786e-07
150	0x34f98394	4.64756e-07
151	0x34ec8506	4.4055213e-07
152	0x34f00863	4.4709586e-07
153	0x34c55b7f	3.6760682e-07
154	0x351a4102	5.746407e-07
155	0x34eb4a0e	4.3826043e-07
156	0x34abc3e4	3.199376e-07
157	0x34f6d584	4.5976424e-07
158	0x34c95338	3.7499717e-07
159	0x3501b492	4.831901e-07
160	0x34f348b0	4.5315164e-07
161	0x350ac492	5.1695054e-07
162	0x35107243	5.3810453e-07
163	0x34f75c84	4.607465e-07
164	0x34b5bede	3.385275e-07
165	0x34e8a37f	4.3332327e-07
166	0x34bccd87	3.516727e-07
167	0x34cc1e65	3.8020076e-07
168	0x349ffb26	2.9798792e-07
169	0x34eacfb8	4.3737032e-07
170	0x34a17951	3.0076856e-07
171	0x34e56196	4.2725577e-07
172	0x34ad2073	3.224737e-07
173	0x349b52d1	2.8931257e-07
174	0x34f06e50	4.4783746e-07
175	0x34bf794f	3.5664786e-07
176	0x34c91a53	3.745832e-07
177	0x34d38f4b	3.9406072e-07
178	0x34bd92a1	3.531068e-07
179	0x34b4ff8a	3.3713542e-07
180	0x34d76fbf	4.0128177e-07
181	0x34f1ac39	4.5015057e-07
182	0x34cf2995	3.858701e-07
183	0x34f087d3	4.480231e-07
184	0x34f2e66c	4.5243667e-07
185	0x34adae19	3.2350434e-07
186	0x3499a7f0	2.862066e-07
187	0x34a557d0	3.0797537e-07
188	0x34b929b5	3.448928e-07
189	0x34c0d9f1	3.592136e-07
190	0x351f50a5	5.934947e-07
191	0x34c1bd2a	3.6086686e-07
192	0x34b2bfc7	3.329462e-07
193	0x349201bb	2.7195878e-07
194	0x346f8eaf	2.2310518e-07
195	0x34ba283b	3.467447e-07
196	0x34e79815	4.3137757e-07
197	0x34c7c262	3.720807e-07
198	0x34deb7a1	4.148433e-07
199	0x3476103e	2.2916444e-07
200	0x34bb3718	3.487155e-07
201	0x34b3c783	3.3486512e-07
202	0x34725a75	2.2570914e-07
203	0x34f21669	4.5092318e-07
204	0x34910cc4	2.7017643e-07
205	0x34d751ff	4.010653e-07
206	0x3493ba02	2.7516222e-07
207	0x34ab994e	3.1962776e-07
208	0x34953184	2.778944e-07
209	0x34bb4f7b	3.4889294e-07
210	0x34b01d08	3.2803678e-07
211	0x34b3d093	3.3493106e-07
212	0x3491f444	2.718608e-07
213	0x34d1d1d1	3.9081945e-07
214	0x34ad5207	3.2283444e-07
215	0x3493ce2b	2.753089e-07
216	0x3497e200	2.8290378e-07
217	0x347a7d69	2.3328688e-07
218	0x34902bd7	2.6853988e-07
219	0x348186a0	2.4126075e-07
220	0x346b2ebb	2.1903081e-07
221	0x3438e396	1.721913e-07
222	0x34c21418	3.6149936e-07
223	0x349174b2	2.7093262e-07
224	0x346304af	2.1142726e-07
225	0x34b31f75	3.3364236e-07
226	0x346eb139	2.222995e-07
227	0x347ee813	2.3740022e-07
228	0x3490972b	2.693208e-07
229	0x347c7793	2.351283e-07
230	0x348e3cf9	2.6493925e-07
231	0x34cd1f7b	3.820713e-07
232	0x34b39882	3.3452312e-07
233	0x3422a627	1.5147872e-07
234	0x344913c7	1.8726779e-07
235	0x34d8d6eb	4.038951e-07
236	0x343b90c0	1.7468392e-07
237	0x34749f52	2.2782231e-07
238	0x349285c2	2.729194e-07
239	0x34b80ebe	3.4283397e-07
240	0x34ee3cc9	4.4375182e-07
241	0x347c92e7	2.3522772e-07
242	0x345ddcfb	2.0662621e-07
243	0x3455ccb0	1.9911636e-07
244	0x344e605e	1.9220303e-07
245	0x347e4a3a	2.3682597e-07
246	0x346c8de9	2.203084e-07
247	0x34aec70f	3.255486e-07
248	0x3494c39f	2.770948e-07
249	0x347ea67a	2.3716157e-07
250	0x346bc98b	2.1959401e-07
251	0x3484508c	2.4645522e-07
252	0x348ad5a6	2.5859953e-07
253	0x34817d27	2.4119183e-07
254	0x3488e6f1	2.5500006e-07
255	0x3436bcb0	1.7018715e-07

exp_avg f4 [128]
0	0xba03e09e	-0.0005030724
1	0x39ba104d	0.0003548883
2	0x398a041a	0.00026324467
3	0x395d94c8	0.00021131628
4	0xb6808145	-3.829746e-06
5	0x397d49ff	0.00024155526
6	0xb84c3a27	-4.869155e-05
7	0xb9cecc47	-0.0003944358
8	0xb988b8e7	-0.00026077704
9	0xb9245fa6	-0.0001567589
10	0x39c7088a	0.000379626
11	0x36b231eb	5.3106246e-06
12	0xb9e5befa	-0.00043820572
13	0x38c53ba1	9.404799e-05
14	0xba80faf8	-0.000984042
15	0xb9a6fa33	-0.000318484
16	0xba06fc45	-0.00051492854
17	0x39eeee8f	0.00045572637
18	0xb9aa14a7	-0.00032440314
19	0xb97029de	-0.0002290378
20	0x3915f988	0.00014302705
21	0x383f2bcb	4.5578734e-05
22	0x39ccfd8a	0.00039098813
23	0x38d6169a	0.00010208525
24	0x3a000faa	0.00048851466
25	0xba7459bc	-0.0009321233
26	0x3876ee2c	5.8872785e-05
27	0xb9984523	-0.0002904321
28	0x38b0b2eb	8.42566e-05
29	0x3a09664f	0.00052413804
30	0xba5ef5d6	-0.00085052603
31	0xb7bdca93	-2.2624887e-05
32	0x39340e54	0.00017171475
33	0xb9d7bc2d	-0.00041148197
34	0xb8c354ae	-9.3140974e-05
35	0xb78fb96b	-1.713327e-05
36	0xb814818c	-3.54066e-05
37	0x3998e8d5	0.00029165173
38	0xb8cc7d84	-9.750857e-05
39	0xb8eb98b1	-0.00011234114
40	0xb74427aa	-1.1691745e-05
41	0xb7936137	-1.7569035e-05
42	0x39ade3de	0.00033166906
43	0xb9f7e809	-0.0004728439
44	0x3a3e21c5	0.0007252957
45	0x39b4044f	0.00034335486
46	0xba755179	-0.00093581487
47	0xb84c1ebe	-4.866602e-05
48	0xb99d4759	-0.00029998532
49	0x3a9af7d0	0.0011823121
50	0xb8b0ac9a	-8.4244835e-05
51	0x3a517ee0	0.0007991623
52	0x396ef075	0.00022787026
53	0x39669574	0.00021990185
54	0xb93ce635	-0.00018014836
55	0x3811a014	3.471978e-05
56	0xba3133fe	-0.00067597616
57	0x3aa1856f	0.0012323092
58	0xb9afad8c	-0.00033507904
59	0xba95a898	-0.0011418043
60	0xba044c75	-0.00050467934
61	0x3a23e19a	0.0006251574
62	0xba0e9dfe	-0.0005440413
63	0x39ceec06	0.00039467233
64	0xb8b81735	-8.778126e-05
65	0x38c08158	9.1793656e-05
66	0xb8edcfd1	-0.000113397495
67	0x38c665df	9.460351e-05
68	0xb989ff23	-0.00026320768
69	0xb8a51d57	-7.873278e-05
70	0x3a48383f	0.0007637776
71	0x386948a0	5.5619166e-05
72	0x3a80f52f	0.0009838695
73	0x3a0538bb	0.0005082001
74	0x39a84fbd	0.00032102867
75	0x3981849f	0.00024703608
76	0xb93b8670	-0.00017883792
77	0x38bd98b2	9.040664e-05
78	0x3996fefd	0.0002880021
79	0xba494c02	-0.00076788676
80	0xb6d45431	-6.3278935e-06
81	0x39289d99	0.00016080438
82	0x39a087f3	0.00030618868
83	0x38f039aa	0.000114548326
84	0xb826e85e	-3.9793893e-05
85	0xba06e805	-0.0005146268
86	0xb9de7543	-0.00042430506
87	0xb8de9eac	-0.0001061534
88	0x3a901cfa	0.0010994964
89	0x3a6bb593	0.0008991595
90	0xb955abed	-0.0002037731
91	0x3a18729b	0.00058154174
92	0xb9e43151	-0.00043524292
93	0xb9bd7ec9	-0.00036143351
94	0x3a08be76	0.0005216369
95	0x3996e852	0.00028783322
96	0xb825d347	-3.9535833e-05
97	0xba053cd7	-0.0005082613
98	0xb98c8dfb	-0.00026808665
99	0x38a5944e	7.895437e-05
100	0xb8bf1e29	-9.1132075e-05
101	0xba8982cb	-0.001049125
102	0xb78cb2fc	-1.6772647e-05
103	0x3a781573	0.00094636454
104	0xb9770986	-0.00023559303
105	0xb99b7b8e	-0.0002965596
106	0x3a982263	0.0011606928
107	0xba3eb931	-0.00072755205
108	0xba5cbdc7	-0.0008420613
109	0x37efca6b	2.8585278e-05
110	0xba231318	-0.0006220802
111	0x392f1f3e	0.00016700939
112	0x38c85f8a	9.554539e-05
113	0xba4737cf	-0.00075995637
114	0xb9dbdf9d	-0.0004193754
115	0x39cc6afb	0.0003898962
116	0x39b68bd1	0.00034817916
117	0xba2edbcf	-0.0006670327
118	0xb93d0d91	-0.00018029498
119	0x3905a300	0.0001274459
120	0x398aa12a	0.00026441488
121	0x38251536	3.935882e-05
122	0x3a4edb8e	0.00078909926
123	0xb8a569c0	-7.8875106e-05
124	0x39134887	0.00014046031
125	0x38d129e7	9.9737015e-05
126	0xb8630199	-5.4122505e-05
127	0xba0ebea6	-0.0005445279

exp_avg_sq f4 [128]
0	0x3601c9fd	1.934007e-06
1	0x366be815	3.5152818e-06
2	0x36744202	3.6397255e-06
3	0x36347601	2.6890777e-06
4	0x3652613f	3.1349043e-06
5	0x35eda677	1.7706324e-06
6	0x36198f27	2.2882102e-06
7	0x3684dfef	3.959976e-06
8	0x3618861e	2.2727831e-06
9	0x363608e6	2.7125293e-06
10	0x361b68da	2.3157831e-06
11	0x36185f05	2.2705074e-06
12	0x364ecbdc	3.0815054e-06
13	0x3668c2d4	3.46841e-06
14	0x367202dc	3.6062474e-06
15	0x36519cba	3.1234654e-06
16	0x3687e033	4.0494137e-06
17	0x361e3025	2.3571858e-06
18	0x3646c449	2.9618552e-06
19	0x3650135b	3.1005682e-06
20	0x35e64301	1.7155836e-06
21	0x364b3dcb	3.0285325e-06
22	0x361b59f1	2.3149153e-06
23	0x363a66d7	2.777602e-06
24	0x35fc6967	1.8806139e-06
25	0x36408f57	2.8693664e-06
26	0x3688f52f	4.081659e-06
27	0x362db7d7	2.5886018e-06
28	0x367091c8	3.5847643e-06
29	0x3612dee1	2.1885428e-06
30	0x367b94b5	3.7488473e-06
31	0x36113271	2.1636044e-06
32	0x363ee0bb	2.8443017e-06
33	0x36717dfb	3.5985129e-06
34	0x3697e65a	4.526967e-06
35	0x367a1521	3.7265202e-06
36	0x35f41a16	1.8187009e-06
37	0x3654bdbf	3.1700908e-06
38	0x35ef514c	1.7830548e-06
39	0x3607280f	2.0139885e-06
40	0x36a4684c	4.8997226e-06
41	0x360cedd7	2.1000067e-06
42	0x362d8961	2.5858974e-06
43	0x3633cca8	2.6792204e-06
44	0x36499061	3.0035374e-06
45	0x3632bd18	2.6634134e-06
46	0x36367153	2.7186077e-06
47	0x364bedf4	3.0387864e-06
48	0x3676fe60	3.6804922e-06
49	0x36987ea3	4.5446955e-06
50	0x3680f8e8	3.8436738e-06
51	0x36088089	2.0340397e-06
52	0x3615aa1a	2.2301742e-06
53	0x3629491a	2.5225513e-06
54	0x3605e20f	1.9950128e-06
55	0x365f80d9	3.3304589e-06
56	0x3682f6b0	3.90302e-06
57	0x3699eb2a	4.587132e-06
58	0x361e63a4	2.3601833e-06
59	0x366f8bb8	3.5695102e-06
60	0x362cf2d8	2.577135e-06
61	0x360908ab	2.0419636e-06
62	0x367f4fbe	3.8044377e-06
63	0x3689ed33	4.110532e-06
64	0x364f18c4	3.085982e-06
65	0x36334609	2.6713844e-06
66	0x3627cf5d	2.500564e-06
67	0x35f9472e	1.8572662e-06
68	0x364c4e05	3.0443782e-06
69	0x3656e534	3.2021899e-06
70	0x369b4a68	4.628022e-06
71	0x36063679	1.9999263e-06
72	0x36507b0c	3.1066038e-06
73	0x364dc710	3.066325e-06
74	0x36547638	3.1659274e-06
75	0x36552e8c	3.1766567e-06
76	0x362328ad	2.431257e-06
77	0x35fcec52	1.8844241e-06
78	0x366b8488	3.5094872e-06
79	0x366f1b6d	3.562974e-06
80	0x3616d966	2.2478284e-06
81	0x3652aa36	3.1391514e-06
82	0x363f5c28	2.851486e-06
83	0x361dbb81	2.3503965e-06
84	0x367a2cb2	3.727892e-06
85	0x3613d5e5	2.202921e-06
86	0x362a8a87	2.5412608e-06
87	0x3615ab3e	2.2302406e-06
88	0x3691a604	4.3406635e-06
89	0x36835474	3.913936e-06
90	0x35eda71f	1.7706515e-06
91	0x366b3698	3.5049507e-06
92	0x365374d9	3.1509464e-06
93	0x365980c3	3.241047e-06
94	0x364e75c1	3.0764934e-06
95	0x363e996d	2.8401512e-06
96	0x361ed32a	2.3666748e-06
97	0x368a2c17	4.117853e-06
98	0x361bb029	2.3199339e-06
99	0x3683b67f	3.9253496e-06
100	0x360c01a2	2.0862576e-06
101	0x366db730	3.5422381e-06
102	0x360df494	2.1153e-06
103	0x3682b8ff	3.8958383e-06
104	0x3635eb4f	2.710807e-06
105	0x364025b1	2.8632169e-06
106	0x369aa047	4.6082164e-06
107	0x36312ca4	2.640104e-06
108	0x36370c67	2.7276344e-06
109	0x3646d316	2.9627167e-06
110	0x35ba6899	1.3888522e-06
111	0x364ba1e7	3.0343597e-06
112	0x3645c714	2.9471166e-06
113	0x35ea2004	1.7443676e-06
114	0x3616ce7d	2.2471934e-06
115	0x367b0aec	3.7408272e-06
116	0x366305fd	3.3829122e-06
117	0x363eae53	2.8413676e-06
118	0x3641d1ac	2.8881286e-06
119	0x3616d553	2.2475913e-06
120	0x36307a44	2.6297212e-06
121	0x36abfc00	5.125534e-06
122	0x36201a0b	2.3857017e-06
123	0x36383581	2.744928e-06
124	0x3668ee0e	3.470926e-06
125	0x36430e1e	2.9065482e-06
126	0x3631fd78	2.6522594e-06
127	0x368b20a4	4.1463227e-06
