mlruns/0/7564a7e2127b441299896fde9506ed45/artifacts/model/data/model.pth (torch, 191220 bytes, 6 tensors)

weight f4 [128, 284]
-0.27100065 0.06867558 -0.07080909 -0.097308286 -0.33575886 0.6838621 0.33216992 0.47354457
0.47418657 1.1153532 -0.019698715 -0.5023701 -0.20883563 -0.5703729 -0.6316638 -0.16684963
-0.53650975 0.48434135 0.96568805 -0.2582799 0.4869301 -0.5373952 -0.71462905 -0.29708266
-0.21620868 0.24043426 -0.17810038 0.8141257 0.08536871 -0.18840265 0.5087978 0.4754843
0.41509855 0.9622148 0.22935653 -1.2861968 0.8306583 -0.4694532 1.5517926 -0.3687429
0.068814784 -0.059527796 -0.48566195 -0.15629399 -0.052894853 -0.25568336 -0.61243796 0.9403365
0.8351174 0.33703673 0.48443007 0.25627127 -0.080191374 -0.035282195 -0.36075175 -0.14014979
-0.34839326 -0.7686419 0.056278445 0.21261548 1.1704322 0.4548057 0.3191353 -0.019767556
-0.6375379 1.6106565 0.14099303 -0.26518732 -0.59428173 -0.60615057 0.17168379 0.55432063
-1.1197242 0.14451595 0.16003752 0.3415298 -0.17918003 -0.53658915 -0.8171065 -0.16803831
0.10888599 -0.42621544 -0.5932472 -0.6568075 0.82825005 -0.80902463 -0.51994723 -0.009128375
0.64866215 0.78324616 -0.07216801 -0.3891311 0.25160736 0.93970704 0.044295415 0.8662218
0.36085463 0.6022649 0.025135621 0.48298782 -1.207305 0.14353056 0.13723353 0.16752456
-0.03315583 -0.47959906 -0.36170974 0.08757733 0.5983288 -0.09662168 -0.20293128 -0.15737976
-0.49350792 -0.7558671 0.30521685 -0.046931054 -0.78381634 0.32648236 -0.07233723 0.06682044
-0.13277102 -0.34918132 -0.17049918 -0.08046711 0.51051074 -0.47312006 0.12326572 1.0009428
-0.29091525 -0.12687393 -0.4260374 -0.18855329 0.8771394 -0.5313038 -0.34470302 -0.37659085
0.8573489 -0.5675764 0.06871121 0.61800396 -0.37807027 -0.6187992 -0.6417161 -0.17245539
0.95141256 0.88364965 0.25218615 -0.22452818 0.9939876 -0.13944922 0.46126866 -0.5067488
0.06670255 0.44342512 0.21325512 -0.01747285 0.88875103 0.24444772 -0.28907058 0.250215
0.50408816 1.182687 0.1903528 0.04080747 0.51739395 0.38140854 0.23198313 0.67520833
0.36187744 -0.6908567 -0.57621896 -0.44915274 -0.54674745 -0.67930865 0.728401 0.23397258
0.009067622 0.041928787 -0.5568719 1.5209221 0.5716825 -0.35736203 -0.021910103 -0.80433995
-0.83934516 0.18104151 -0.28000727 0.6002135 -0.19542852 0.35312882 0.5563743 0.58972216
0.1218361 0.6341591 0.09731177 -0.029252125 -0.6501008 -0.6919898 0.828139 0.35736898
-0.4037496 0.52672005 0.02392672 0.11211979 0.88522106 -0.3696914 -1.0777581 0.08318174
0.47674337 -0.79340553 -0.20668437 -0.13967852 0.098677605 0.34447542 0.9342879 0.4902561
0.40792745 1.0764799 0.45919022 0.30075502 -0.22405791 -0.1412991 -0.5835997 0.16164057
0.45256704 0.19114813 -1.2518578 0.035799067 -0.4274141 -0.49477878 -0.11042881 0.33428615
-0.3327013 -0.5952828 -0.11961959 -0.6906753 0.36214012 0.25605953 -0.21622035 0.7730032
0.5718409 0.19611378 1.1509538 -0.52368563 -0.9268612 0.08002587 0.112027965 -1.2806813
-1.0109099 0.18088804 -0.5668899 -1.2785639 -0.30064943 0.5286752 0.73663604 0.18666798
00000000: 99c0 8abe c8a5 8c3d 5b04 91bd 9149 c7bd
00000010: 96e8 abbe 9611 2f3f 2d12 aa3e 6f74 f23e
00000020: 95c8 f23e e5c3 8e3f 335f a1bc 549b 00bf
00000030: 02d9 55be f503 12bf b8b4 21bf a1da 2abe
00000040: b458 09bf 97fb f73e 5537 773f 433d 84be
00000050: e74e f93e bb92 09bf eef1 36bf 381b 98be
00000060: cf65 5dbe 6634 763e f25f 36be 8b6a 503f
00000070: cad5 ae3d a0ec 40be 9340 023f ae72 f33e
00000080: cc87 d43e b653 763f 70dc 6a3e 19a2 a4bf
00000090: 06a6 543f 2b5c f0be 24a1 c63f dfcb bcbe
000000a0: c4ee 8c3d 6bd3 73bd afa8 f8be 880b 20be
000000b0: 46a8 58bd eee8 82be bcc8 1cbf e5b9 703f
000000c0: 41ca 553f 1490 ac3e 3807 f83e fd35 833e
000000d0: 603b a4bd 1084 10bd 74b4 b8be 6d83 0fbe
000000e0: 9a60 b2be b7c5 44bf 3a84 663d dfb7 593e
000000f0: b9d0 953f 4bdc e83e b465 a33e 92ef a1bc
00000100: af35 23bf fe29 ce3f 7a60 103e a2c6 87be
00000110: d922 18bf af2c 1bbf e0cd 2f3e f5e7 0d3f
00000120: 1f53 8fbf fdfb 133e e0e0 233e fedc ae3e
00000130: f87a 37be e85d 09bf e42d 51bf 3c12 2cbe
00000140: 9eff de3d e938 dabe 0cdf 17bf 8924 28bf
00000150: 3208 543f 3d1c 4fbf 431b 05bf 2e8f 15bc
00000160: b90e 263f d282 483f d2cc 93bd 313c c7be
00000170: aed2 803e a490 703f 1c6f 353d b6c0 5d3f
00000180: f0c1 b83e 082e 1a3f 38e9 cd3c 2e4a f73e
00000190: f888 9abf adf9 123e f286 0c3e 8f8b 2b3e
000001a0: 68ce 07bd 028e f5be 0532 b9be be5b b33d
000001b0: 142c 193f 96e1 c5bd 38cd 4fbe 2928 21be
000001c0: 12ad fcbe 8280 41bf 6245 9c3e c73a 40bd
000001d0: 30a8 48bf b228 a73e 8b25 94bd 28d9 883d
000001e0: 20f5 07be e5c7 b2be 5697 2ebe f1cb a4bd
000001f0: d5b0 023f cb3c f2be bd72 fc3d e51e 803f
00000200: d8f2 94be 3deb 01be 9321 dabe 1d14 41be
00000210: 358c 603f 8703 08bf ea7c b0be 84d0 c0be
00000220: 387b 5b3f b04c 11bf 76b8 8c3d 8235 1e3f
00000230: 6d92 c1be a069 1ebf 8247 24bf 2598 30be
00000240: c68f 733f dd36 623f 8b1e 813e b7ea 65be
00000250: f975 7e3f c7cb 0ebe 682b ec3e 4aba 01bf
00000260: 599b 883d 9e08 e33e 8d5f 5a3e 3923 8fbc
00000270: 3085 633f 8150 7a3e 0f01 94be 2e1c 803e
00000280: ec0b 013f 4a62 973f d8eb 423e bc25 273d
00000290: ee73 043f fb47 c33e fc8c 6d3e 74da 2c3f
000002a0: 0048 b93e fcdb 30bf 1683 13bf 59f7 e5be
000002b0: a4f7 0bbf 2ce7 2dbf 7d78 3a3f 8296 6f3e
000002c0: 5d90 143c 85bd 2b3d 288f 0ebf 93ad c23f
000002d0: c959 123f 28f8 b6be d17c b3bc 39e9 4dbf
000002e0: 53df 56bf f262 393e 1d5d 8fbe 98a7 193f
000002f0: 6a1e 48be 4dcd b43e 8c6e 0e3f 08f8 163f
00000300: 3585 f93d 4058 223f 654b c73d 27a2 efbc
00000310: 026d 26bf 3e26 31bf eb00 543f 11f9 b63e
00000320: 44b8 cebe 20d7 063f f801 c43c 0f9f e53d
00000330: d99d 623f 3148 bdbe faf3 89bf 305b aa3d
00000340: b517 f43e a01c 4bbf 11a5 53be e307 0fbe
00000350: 7c17 ca3d 155f b03e 7e2d 6f3f d902 fb3e
00000360: dedb d03e 18ca 893f fb1a eb3e 90fc 993e
00000370: 706f 65be b6b0 10be ca66 15bf 1b85 253e
00000380: deb6 e73e 56bc 433e e03c a0bf 0ba2 123d
00000390: 05d6 dabe a553 fdbe 8028 e2bd 8e27 ab3e
000003a0: d357 aabe 7464 18bf 1efb f4bd 19d0 30bf
000003b0: 6e6a b93e 3c1a 833e de68 5dbe 8ae3 453f
000003c0: 2a64 123f 0dd2 483e 7452 933f 4310 06bf
000003d0: c746 6dbf 9ae4 a33d eb6e e53d 5ded a3bf
000003e0: 7f65 81bf b73a 393e b21f 11bf fba7 a3bf
000003f0: b9ee 99be 4257 073f 2e94 3c3f e425 3f3e

bias f4 [128]
-1.026035 -0.99026257 -0.9746804 -0.38041317 -0.82218874 -0.39528295 -1.2959255 -0.06503484
-0.87715477 -0.14609659 -0.65484554 -0.6861268 -0.6834283 -0.23302217 -0.68184507 -0.44276416
-0.4560914 -0.63038796 -1.5361301 -0.5006751 -1.2568805 -0.102782056 -0.469929 -0.8078503
-0.9889495 -0.11096884 -0.9480656 -0.96069884 -0.33507964 -1.2729293 -0.26915097 -0.90267533
-0.9463575 -1.0153983 -0.9524749 -0.72678655 -1.0403992 -0.42576286 -1.0672698 -0.43212765
-0.95988315 -1.1221266 -0.20070264 -0.732174 -1.1997265 -0.65115494 -0.6438474 -0.65888554
-0.95349294 -0.8122288 -0.71885294 -0.78319037 -1.2616774 -0.23759662 -0.9509128 -0.376052
-0.782712 -0.59755766 -0.086680844 -0.32214376 0.028427089 -0.6496605 -0.04343971 -0.87897474
-0.5312331 -0.5921074 0.094169684 -0.89150864 -0.6960692 -0.3846963 -0.4186455 -0.18174653
-0.69482577 -0.6343868 -0.7075882 -1.1898257 -0.31703666 -0.7141636 -1.2242129 -0.86909616
-0.49464935 -0.55425006 -0.20884018 -0.44503787 -0.65390813 -0.18506983 -0.8029491 -1.0256298
-0.8662556 -0.79886544 -0.35517663 0.07252811 -0.46514606 -0.83183736 -1.2054226 -0.23216349
-0.7036534 -0.79658556 -0.46227777 -1.0180062 -0.5119628 -0.4421202 -0.46745217 -0.19130354
-0.5507297 -1.4294926 -0.72385037 -1.3162739 -1.2709025 -0.9993726 -0.81526536 -1.0040144
-0.57100195 -0.6937318 -0.78789395 -0.932393 -1.0537553 -0.74296844 -0.8395988 -0.30890924
-0.6469587 -0.8129462 -0.79578966 0.08074019 -1.5462307 -1.0016764 -0.35023004 -0.5160761
00000000: 1d55 83bf d981 7dbf a884 79bf 84c5 c2be
00000010: f67a 52bf 8762 cabe e3e0 a5bf fc30 85bd
00000020: 378d 60bf 589a 15be f5a3 27bf 02a6 2fbf
00000030: 28f5 2ebf 5d9d 6ebe 668d 2ebf fcb1 e2be
00000040: d084 e9be 1b61 21bf e99f c4bf 3e2c 00bf
00000050: 76e1 a0bf 667f d2bd 899a f0be 47cf 4ebf
00000060: cb2b 7dbf a243 e3bd 6db4 72bf 5cf0 75bf
00000070: 8f8f abbe 59ef a2bf 28ce 89be bb15 67bf
00000080: 7c44 72bf 92f8 81bf 65d5 73bf af0e 3abf
00000090: cd2b 85bf 97fd d9be 4c9c 88bf d63f ddbe
000000a0: e7ba 75bf d8a1 8fbf fe84 4dbe c16f 3bbf
000000b0: a390 99bf 17b2 26bf 2fd3 24bf b9ac 28bf
000000c0: 1d18 74bf 3aee 4fbf bf06 38bf 2a7f 48bf
000000d0: a57e a1bf 874c 73be 056f 73bf e389 c0be
000000e0: d05f 48bf 8af9 18bf ba85 b1bd 07f0 a4be
000000f0: eddf e83c 2750 26bf d6ed 31bd 7d04 61bf
00000100: e4fe 07bf 5a94 17bf 09dc c03d e939 64bf
00000110: 9731 32bf eaf6 c4be b458 d6be c31b 3abe
00000120: 1ae0 31bf 2c67 22bf 8024 35bf 354c 98bf
00000130: a152 a2be 6dd3 36bf 02b3 9cbf 167d 5ebf
00000140: ae42 fdbe 55e3 0dbf 33da 55be 01dc e3be
00000150: 8666 27bf f282 3dbe 128e 4dbf d647 83bf
00000160: edc2 5dbf 7282 4cbf b6d9 b5be 9e89 943d
00000170: a027 eebe 4bf3 54bf 4a4b 9abf 44bc 6dbe
00000180: a122 34bf 08ed 4bbf acaf ecbe 074e 82bf
00000190: fe0f 03bf 945d e2be e455 efbe 13e5 43be
000001a0: 9ffc 0cbf 9df9 b6bf 424e 39bf aa7b a8bf
000001b0: efac a2bf e2d6 7fbf 3bb5 50bf 8b83 80bf
000001c0: 2f2d 12bf 6898 31bf 6bb3 49bf 4fb1 6ebf
000001d0: 74e1 86bf 2e33 3ebf f2ef 56bf 5a29 9ebe
000001e0: 169f 25bf 3e1d 50bf dfb8 4bbf 1d5b a53d
000001f0: e3ea c5bf ef36 80bf 5a51 b3be 901d 04bf

weight f4 [64, 128]
-0.007834097 -0.26152688 0.061295826 -0.1875736 -0.04292892 -0.19398588 -0.487557 0.8429724
-0.13414052 0.6215234 -0.36099976 -0.013966853 -0.36055428 -1.2026639 -1.0095464 0.48927414
0.55274063 -0.10193482 -0.29225639 0.5356164 -0.24969359 0.08099766 -0.3784063 -0.4471277
-0.31986496 -0.15068622 -0.36293688 -0.5093173 1.1326855 -0.9394641 0.26045877 0.03406865
0.1550471 -0.100201204 -0.28413436 0.8303015 0.39733884 -0.893648 -0.34489307 -0.13417412
0.4280337 -0.73537064 -0.61445117 -0.45825154 -0.43724534 0.67505133 -1.010651 0.024645442
0.04828533 -0.36720484 0.7884986 -0.37677208 -0.13460581 0.29044646 0.49184778 0.8963394
-0.37032998 0.9363949 -0.41083273 -0.49747467 -0.540973 -0.3752498 0.62948734 -0.21327934
0.9367904 0.34755966 -0.0847006 0.5582956 0.7288077 -0.48996687 -0.30546364 0.4758952
-0.48027107 -0.15103246 -0.51639557 0.07135743 0.51519865 -0.1738267 0.78226125 0.46969917
-0.14378853 -0.0804635 -0.6575089 -0.36084068 0.9400836 -0.806522 0.4598687 -0.41522083
0.20654467 -0.44396532 0.9628727 0.28418076 -0.5244543 0.12977672 -0.85001516 -0.5017606
-0.5061481 -0.3452546 1.2125515 0.26262742 0.53850555 -0.5614311 -0.5878028 0.37863943
-0.012195944 -0.3182986 -0.28371766 -0.12954764 -0.30022484 0.0497333 -0.010358877 -0.76839143
0.128751 -0.6266141 -0.06696468 -0.30269244 -0.41346052 -0.3317039 -0.6353959 -1.5563369
0.4281364 -1.1931933 -0.09890133 0.8679661 -0.13607635 -0.314825 0.6357196 -0.5060198
0.36992684 -0.18519934 -0.15690431 0.21726549 0.28452092 -0.33722967 -0.61475164 -0.63908476
-0.07847033 -1.1657836 -0.30669835 0.2900514 -0.49982515 -1.3841194 -0.5912842 -0.122347824
0.048401065 -0.8789771 0.14394808 -0.40981346 0.23982432 0.029081307 0.20269956 0.5507099
-0.19801135 0.1755262 0.1792729 0.12511343 0.5177708 0.27160576 0.22302128 0.23909616
0.23506002 -0.27492893 -0.105992734 0.09309516 -0.33486548 -0.44605222 -0.74411154 0.7244235
-0.35145113 0.27074766 -0.51744735 -0.043305565 -0.55495006 -0.6736047 -0.9525489 -0.23073107
-0.022727592 -0.4092598 0.4893557 0.26134226 -0.64016813 -0.27591658 0.10381942 0.12502414
0.84724706 0.1924236 0.15887208 -0.17679612 0.9800803 -0.66022265 -0.72887146 -0.038151436
-0.16833012 -0.023743957 1.4393991 0.22943719 0.36995074 0.8619717 -1.0365654 0.5206741
-0.67373616 0.74843466 -0.22661272 -0.5353809 -0.034406703 -0.13129583 -0.49373877 -0.16192631
0.40664855 0.107590035 -0.65187126 0.16064584 -0.96186155 -0.6929353 0.37132326 -0.5985869
0.4851084 0.43064854 -0.5978329 -0.015195928 0.076900214 -0.23313749 0.40595254 0.775499
0.728143 0.5889912 -0.2121761 -0.2671612 0.068367906 -0.047870733 0.08371175 -0.270006
0.2711181 0.17252564 -0.1525057 0.00935579 -0.6618379 -0.32196254 0.24278839 -0.9175271
0.031059401 -0.39773014 -0.8978372 -0.052177828 -0.4260055 -0.07532201 0.12520175 -0.18383269
0.90775174 -0.16169368 0.32283282 0.47120836 -0.21532951 -0.14107022 -0.032466155 -0.24880031
00000000: 965a 00bc dae6 85be 5511 7b3d 4b13 40be
00000010: 3cd6 2fbd 3ca4 46be 12a1 f9be 0acd 573f
00000020: 225c 09be 281c 1f3f f6d4 b8be 3ad5 64bc
00000030: 929a b8be e4f0 99bf d138 81bf 2482 fa3e
00000040: 6980 0d3f 34c3 d0bd a1a2 95be 281e 093f
00000050: adaf 7fbe 1ae2 a53d 78be c1be eced e4be
00000060: 57c5 a3be 7d4d 1abe ddd2 b9be 9e62 02bf
00000070: d7fb 903f b880 70bf da5a 853e 928b 0b3d
00000080: abc4 1e3e 4a36 cdbd 0f7a 91be a48e 543f
00000090: ff6f cb3e 1ec6 64bf d395 b0be f164 09be
000000a0: 3c27 db3e 4041 3cbf ac4c 1dbf f29f eabe
000000b0: 9fde dfbe 2ad0 2c3f 035d 81bf 3de5 c93c
000000c0: d7c6 453d 4602 bcbe 0bdb 493f 45e8 c0be
000000d0: 1bd6 09be 66b5 943e 79d3 fb3e 8076 653f
000000e0: e49b bdbe 93b7 6f3f ab58 d2be 00b5 febe
000000f0: 357d 0abf be20 c0be 1526 213f e665 5abe
00000100: 7fd1 6f3f 57f3 b13e 8277 adbd 76ec 0e3f
00000110: 2493 3a3f f0dc fabe bb65 9cbe 89a8 f33e
00000120: 17e6 f5be 41a8 1abe 8032 04bf d823 923d
00000130: 0fe4 033f a0ff 31be 4642 483f 697c f03e
00000140: 4d3d 13be 0cca a4bd 8152 28bf 1cc0 b8be
00000150: 52a9 703f 3a78 4ebf e973 eb3e d397 d4be
00000160: 7280 533e 6c4f e3be d37e 763f 2480 913e
00000170: a342 06bf 30e4 043e 989a 59bf 6273 00bf
00000180: ec92 01bf 36c5 b0be e334 9b3f 1a77 863e
00000190: 80db 093f f3b9 0fbf 3f7a 16bf 07dd c13e
000001a0: 7fd1 47bc 09f8 a2be 7143 91be 23a8 04be
000001b0: 12b7 99be 25b5 4b3d 47b8 29bc 4db5 44bf
000001c0: 4dd7 033e c869 20bf c724 89bd 81fa 9abe
000001d0: 19b1 d3be 18d5 a9be 4ea9 22bf 0c36 c7bf
000001e0: b234 db3e 8fba 98bf c88c cabd 0733 5e3f
000001f0: 9957 0bbe be30 a1be 85be 223f 838a 01bf
00000200: 0d67 bd3e e5a4 3dbe 86ab 20be d87a 5e3e
00000210: baac 913e 5ea9 acbe 5d60 1dbf 0f9b 23bf
00000220: 0db5 a0bd 6638 95bf 9107 9dbe 9e81 943e
00000230: 15e9 ffbe d32a b1bf 675e 17bf 7f91 fabd
00000240: 3240 463d a504 61bf 2067 133e 12d3 d1be
00000250: 8294 753e ec3b ee3c 7990 4f3e 53fb 0c3f
00000260: 7dc3 4abe 24bd 333e 5193 373e bc1d 003e
00000270: a18c 043f e90f 8b3e b15f 643e a0d5 743e
00000280: 93b3 703e 7cc3 8cbe b812 d9bd ada8 be3d
00000290: 7d73 abbe f560 e4be 187e 3ebf d273 393f
000002a0: 67f1 b3be 709f 8a3e 6e77 04bf 2d61 31bd
000002b0: 3511 0ebf 5c71 2cbf 3fda 73bf c444 6cbe
000002c0: 372f babc 808a d1be d58c fa3e a7ce 853e
000002d0: 0fe2 23bf f044 8dbe 479f d43d 5406 003e
000002e0: 2fe5 583f b10a 453e 5daf 223e 0b0a 35be
000002f0: 8be6 7a3f 5a04 29bf 5297 3abf ae44 1cbd
00000300: bb5e 2cbe b082 c2bc 3b3e b83f 95f1 6a3e
00000310: 2f6a bd3e 2daa 5c3f 2dae 84bf e64a 053f
00000320: f979 2cbf 6a99 3f3f 2a0d 68be b90e 09bf
00000330: 0bee 0cbd 6a72 06be 54cb fcbe 03d0 25be
00000340: 3d34 d03e 2a58 dc3d 09e1 26bf 5880 243e
00000350: 8f3c 76bf 3564 31bf 151e be3e fe3c 19bf
00000360: 2160 f83e f77d dc3e 940b 19bf 57f8 78bc
00000370: dc7d 9d3d 98bb 6ebe 03d9 cf3e 1a87 463f
00000380: 9467 3a3f 21c8 163f b144 59be 5ac9 88be
00000390: 7904 8c3d 1a14 44bd 1171 ab3d 3a3e 8abe
000003a0: fecf 8a3e 90aa 303e 742a 1cbe 0749 193c
000003b0: 356e 29bf 46d8 a4be 859d 783e 0ee3 6abf
000003c0: 4970 fe3c 49a3 cbbe a9d8 65bf 6bb8 55bd
000003d0: 651d dabe 6d42 9abd e334 003e a33e 3cbe
000003e0: 6b62 683f 0793 25be 584a a53e 3942 f13e
000003f0: 577f 5cbe b674 10be 3bfb 04bd 82c5 7ebe

bias f4 [64]
0.15350108 0.12390368 -0.16963895 0.018651612 0.09030809 0.13142224 0.16758196 0.2823573
0.19190262 -0.3711982 0.18979704 -0.027566794 -0.08550038 0.11492006 -0.044908382 0.21675444
-0.3691461 -0.33967754 0.019839616 0.12304035 -0.1481751 -0.1259604 -0.12953833 0.05875321
-0.455969 -0.14013463 -0.20786184 0.18052153 -0.09378492 -0.06056048 -0.1657724 0.021600343
0.23620188 -0.042833246 -0.02115791 -0.07022128 0.045965 -0.1433187 -0.13184576 0.10330292
-0.027129745 0.10982978 0.047761578 0.031911705 0.066624716 -0.01543288 0.2509198 -0.08186332
0.176236 -0.0111486 -0.03471577 0.19084948 0.024798833 -0.0027441322 -0.1390341 0.14689025
0.22068028 0.25986418 0.015772032 -0.045617294 0.034385223 0.2804587 0.22632505 -0.043656453
00000000: 632f 1d3e 36c1 fd3d d5b5 2dbe 44cb 983c
00000010: 73f3 b83d 8d93 063e 9b9a 2b3e 2391 903e
00000020: 1f82 443e b10d bebe 285a 423e c2d3 e1bc
00000030: d31a afbd 355b eb3d daf1 37bd e0f4 5d3e
00000040: b800 bdbe 37ea adbe b186 a23c 94fc fb3d
00000050: 37bb 17be c3fb 00be b2a5 04be 35a7 703d
00000060: c574 e9be 747f 0fbe bcd9 54be a3da 383e
00000070: 4f12 c0bd 440e 78bd 3dc0 29be 34f3 b03c
00000080: e8de 713e ea71 2fbd 5a53 adbc 2dd0 8fbd
00000090: cc45 3c3d 23c2 12be 9302 07be 7b90 d33d
000000a0: 333f debc 70ee e03d a5a1 433d d9b5 023d
000000b0: 8a72 883d 31da 7cbc 8f78 803e f5a7 a7bd
000000c0: 3677 343e 9ea8 36bc 2032 0ebd 0c6e 433e
000000d0: ec26 cb3c e6d6 33bb f55e 0ebe 666a 163e
000000e0: 03fa 613e eb0c 853e 5934 813c 33d9 3abd
000000f0: 85d7 0c3d 4898 8f3e c1c1 673e 1cd1 32bd

weight f4 [28, 64]
0.9791758 -0.10040309 0.063303664 -1.1713989 0.16615756 -1.1834143 -0.11765828 -1.0855976
-0.2971595 -0.552504 -0.36715752 0.16787104 -0.35006434 0.6900193 -0.0064150873 0.013562773
-0.6245092 -0.15115546 -0.20968083 0.6193223 -0.107398055 -0.36209747 0.010335347 0.24818854
-0.12382444 0.05480542 0.11405144 0.43681863 0.018186076 0.3157457 -0.39613676 -0.0743431
0.33689234 0.16756523 0.679654 0.34365788 0.3416801 -0.22302663 -0.060125496 -0.7590615
-0.14378758 -0.9287046 -0.54549617 -0.41237676 -0.88360226 -0.5256249 -0.23125222 0.08024167
0.1573424 -0.44453612 -0.74867153 -0.15879332 -0.5214244 0.29006228 0.7232264 0.17792377
0.4301255 -0.17106804 -0.82165784 -0.29220173 -0.4550864 -0.28264472 -0.3563891 0.2339439
0.049864426 0.08905984 -0.05107685 -0.16515027 0.1005839 -0.08142304 0.048393928 0.032906506
-0.021629773 -0.060642272 -0.08866774 -0.06954608 -0.010801719 -0.16056941 -0.17709331 -0.23230807
-0.08306396 -0.111979 -0.08935353 -0.0500342 -0.06896686 -0.05521938 -0.11569671 -0.19691181
-0.23210813 -0.13318327 0.088216424 -0.025065687 -0.0631555 -0.05149243 -0.16182075 -0.15827776
0.053886347 0.050614983 0.06164236 -0.05978722 -0.22445622 -0.17733656 0.08287658 -0.03677751
-0.026073314 -0.21149646 0.10165343 0.059197158 -0.2067873 -0.10869785 -0.12459528 0.04898932
-0.1477003 -0.04613997 0.08166499 -0.2242639 -0.024481233 0.03009307 0.15379627 -0.18484147
0.09743964 0.1926871 -0.13183066 -0.28460744 0.0028364281 0.019221792 0.047213323 -0.1303336
-0.3017436 -0.12338929 0.10778313 -0.22889201 -0.109050736 -0.109250575 -0.0028501474 -0.22816217
-0.1317518 -0.115115605 -0.0052439463 0.050240017 -0.26476625 -0.28630096 -0.0773675 -0.28759083
0.11138263 -0.05525327 -0.061151013 0.13913982 0.026089529 -0.2653734 -0.01630043 -0.17336747
-0.13899097 -0.20118782 -0.08713056 -0.21930529 -0.12475176 -0.21516997 -0.17071153 -0.10124152
-0.060368378 0.07359486 -0.16870122 -0.16091213 -0.19288388 -0.0500839 -0.057038963 -0.18291073
0.05265518 -0.15591343 -0.1667352 -0.03577996 -0.22203843 -0.37396842 -0.074425764 -0.14937222
-0.08084607 -0.08204541 -0.2516828 -0.12660626 -0.27648222 -0.14928803 -0.27868155 0.029777305
-0.2937263 -0.32370916 -0.17372836 -0.0587691 -0.13623795 -0.15033166 -0.063822694 -0.013973739
-0.14852962 -0.15489866 -0.06343905 -0.11474333 -0.12899803 -0.09705659 -0.22307396 -0.22369617
-0.14792268 -0.0709985 -0.1655774 -0.09021206 -0.12737927 -0.1182406 -0.06054983 -0.084838375
-0.2388525 -0.1753115 -0.08168423 -0.06992069 -0.062058877 -0.0113143595 -0.015539304 -0.05023664
-0.116516724 -0.1672779 -0.07344741 -0.09695797 -0.032309145 -0.14198177 -0.11873792 -0.09129204
-0.17002809 -0.15033616 -0.16566902 -0.13108307 -0.13862538 -0.120778516 -0.1985217 -0.1578222
-0.13042563 -0.027035521 0.0027587258 -0.23579785 -0.14088297 0.06679201 -0.15528731 -0.13656045
-0.014699651 -0.19649035 -0.15409999 -0.1599533 -0.08997954 -0.2290447 -0.12674037 0.05147312
-0.25500917 -0.17332214 -0.12347616 -0.2821363 -0.07049496 -0.15467699 -0.13898844 -0.13244995
00000000: 44ab 7a3f 23a0 cdbd 5aa5 813d 66f0 95bf
00000010: 3525 2a3e 1f7a 97bf d3f6 f0bd ddf4 8abf
00000020: 4a25 98be e770 0dbf 12fc bbbe 63e6 2b3e
00000030: a23b b3be 1ba5 303f a735 d2bb 6536 5e3c
00000040: d6df 1fbf 7fc8 1abe 92b6 56be e88b 1e3f
00000050: 83f3 dbbd d764 b9be 9655 293c 2325 7e3e
00000060: ab97 fdbd a67b 603d cd93 e93d b1a6 df3e
00000070: f7fa 943c 6ca9 a13e 70d2 cabe 3241 98bd
00000080: 277d ac3e 3896 2b3e cefd 2d3f edf3 af3e
00000090: b2f0 ae3e 1861 64be 2746 76bd db51 42bf
000000a0: 0d3d 13be 96bf 6dbf a3a5 0bbf 0c23 d3be
000000b0: c233 62bf 5a8f 06bf 62cd 6cbe bf55 a43d
000000c0: 5e1e 213e 3d9a e3be f0a8 3fbf b79a 22be
000000d0: 127c 05bf 0b83 943e 5e25 393f a631 363e
000000e0: 6939 dc3e 762c 2fbe 2b58 52bf 779b 95be
000000f0: 1601 e9be cfb6 90be a278 b6be fd8e 6f3e
00000100: a43e 4c3d 0165 b63d f635 51bd 271d 29be
00000110: effe cd3d 1fc1 a6bd b638 463d f9c8 063d
00000120: ec30 b1bc 0864 78bd 6f97 b5bd 2d6e 8ebd
00000130: b1f9 30bc 4f6c 24be f357 35be 2be2 6dbe
00000140: 701d aabd 3f55 e5bd fcfe b6bd a9f0 4cbd
00000150: 7f3e 8dbd b72d 62bd 66f2 ecbd 40a3 49be
00000160: c1ad 6dbe 3261 08be d0aa b43d 8e56 cdbc
00000170: ac57 81bd bae9 52bd 57b4 25be 9113 22be
00000180: eeb7 5c3d a851 4f3d b37c 7c3d 72e3 74bd
00000190: dad7 65be b797 35be 32bb a93d 04a4 16bd
000001a0: b497 d5bc 8792 58be ac2f d03d b878 723d
000001b0: 0dc0 53be fa9c debd cf2b ffbd 06a9 483d
000001c0: bf3e 17be 44fd 3cbd f93f a73d 70a5 65be
000001d0: de8c c8bc be85 f63c c57c 1d3e 1547 3dbe
000001e0: 6f8e c73d c44f 453e 9efe 06be 11b8 91be
000001f0: 5ee3 393b 0577 9d3c c262 413d 2c76 05be
00000200: 237e 9abe 86b3 fcbd 67bd dc3d ab62 6abe
00000210: fe55 dfbd c4be dfbd 8ac9 3abb 58a3 69be
00000220: f2e9 06be bbc1 ebbd 69d5 abbb 7ac8 4d3d
00000230: 718f 87be 0a96 92be da72 9ebd 1b3f 93be
00000240: 941c e43d 4151 62bd 7c79 7abd ab7a 0e3e
00000250: b5b9 d53c 06df 87be 7b88 85bc 3e87 31be
00000260: a653 0ebe 2e04 4ebe 8271 b2bd 9191 60be
00000270: da7d ffbd 8455 5cbe 01cf 2ebe b757 cfbd
00000280: d544 77bd e7b8 963d 03c0 2cbe 26c6 24be
00000290: 5a83 45be c724 4dbd b0a1 69bd f34c 3bbe
000002a0: f5ac 573d c5a7 1fbe a2bc 2abe 028e 12bd
000002b0: 0b5e 63be ca78 bfbe 896c 98bd 08f5 18be
000002c0: a092 a5bd 6d07 a8bd 91dc 80be 12a5 01be
000002d0: 148f 8dbe f6de 18be 59af 8ebe 89ef f33c
000002e0: 4b63 96be 35bd a5be d9e5 31be deb7 70bd
000002f0: f681 0bbe 8bf0 19be 79b5 82bd 1cf2 64bc
00000300: 2618 18be c19d 1ebe 55ec 81bd 8dfe eabd
00000310: 0f18 04be 9bc5 c6bd 806d 64be 9c10 65be
00000320: 0b79 17be a967 91bd 1f8d 29be 1ac1 b8bd
00000330: b66f 02be 2128 f2bd 1903 78bd bebf adbd
00000340: c095 74be dc84 33be 104a a7bd 9432 8fbd
00000350: 7331 7ebd dd5f 39bc 9198 7ebc efc4 4dbd
00000360: 52a0 eebd e64a 2bbe 986b 96bd e691 c6bd
00000370: 9856 04bd ab63 11be de2c f3bd 52f7 babd
00000380: d81b 2ebe b9f1 19be 24a5 29be a43a 06be
00000390: d0f3 0dbe ba5a f7bd 4649 4bbe 259c 21be
000003a0: 4c8e 05be 9979 ddbc bdcb 343b fe74 71be
000003b0: a043 10be 40ca 883d a303 1fbe 81d6 0bbe
000003c0: ced6 70bc c434 49be 63cc 1dbe ccca 23be
000003d0: 3147 b8bd b28a 6abe 3ac8 01be 7ad5 523d
000003e0: 9090 82be 5c7b 31be 12e1 fcbd 2b74 90be
000003f0: a95f 90bd a563 1ebe fc52 0ebe f6a0 07be

bias f4 [28]
0.17740591 -0.010270468 -0.13697937 -0.108052164 -0.116301216 -0.08237297 0.01787147 0.06806075
-0.26881233 0.15413758 -0.15531486 -0.04536063 -0.024902273 0.16485405 -0.13160595 -0.20421095
0.3809979 -0.0418002 0.104528606 -0.008641569 -0.12351833 -0.043244638 0.22225067 0.1309827
0.26102537 0.10997002 0.057029746 -0.031654697
00000000: e5a9 353e 7745 28bc 5244 0cbe 744a ddbd
00000010: 552f eebd 29b3 a8bd 3067 923c 6f63 8b3d
00000020: c5a1 89be 3ed6 1d3e dc0a 1fbe 11cc 39bd
00000030: daff cbbc 80cf 283e b6c3 06be ad1c 51be
00000040: 2812 c33e b036 2bbd 1813 d63d 5e95 0dbc
00000050: 2ef7 fcbd 4a21 31bd ae95 633e 5420 063e
00000060: 1ea5 853e f637 e13d 0698 693d 5ba8 01bd
