lightning_logs/version_7/checkpoints/epoch=9-step=81200.ckpt (torch, 568267 bytes, 18 tensors)

MLP.0.weight f4 [128, 284]
000000 28 53 65 bf bc 9f 2f be 89 f7 e7 bf f6 1e 46 3f
       -0.8958001 -0.17150778 -1.8122417 0.7739099
000010 02 93 92 3e a6 ca 04 bf bd 6f 8d 3e 54 0d 5f 40
       0.28627783 -0.51871717 0.27624312 3.4851885
000020 c7 5e ef bf 5f 71 43 40 21 5c 62 3f 7c 95 05 3f
       -1.8700799 3.0537946 0.8842183 0.5218122
000030 d8 37 49 3f 71 7e af bf b2 95 58 40 c0 6b 83 c0
       0.78600836 -1.3710462 3.3841367 -4.106903
000040 a9 4f 93 c0 3d f3 02 c0 43 ed 0c 40 d6 88 c5 bf
       -4.603474 -2.046096 2.2019813 -1.5432384
000050 d9 36 91 c0 75 eb 43 3d e8 00 c2 40 5e 68 b0 bf
       -4.5379453 0.04783197 6.0626106 -1.378185
000060 92 ee 95 c0 41 6c 50 c0 79 91 07 c0 39 30 c9 3f
       -4.6853724 -3.2566073 -2.118254 1.5717841
000070 31 04 1f 3d 72 9b 59 40 14 61 df 3f 21 c9 70 be
       0.038822357 3.4001126 1.7451501 -0.23514225
000080 28 21 58 40 a9 8f e6 3e 0e 96 f2 3e 41 76 41 c0
       3.3770237 0.4503148 0.47380108 -3.0228426
000090 a0 b6 97 c0 06 7c 71 c0 a9 31 c8 3f 66 db 2f 40
       -4.741043 -3.7731948 1.5640155 2.747766
0000a0 c8 15 8d be a6 a4 90 3f e1 64 e9 bf bb 25 e2 be
       -0.2755568 1.1300247 -1.8233911 -0.4416941
0000b0 75 75 c1 bf 9c 7a 1e 3f 54 fd 8f 3f 32 86 bf 40
       -1.511397 0.6190584 1.1249185 5.9851313
0000c0 56 c7 4c 40 50 8b 31 3f 0a 2f 0f 3f f4 39 8e bf
       3.1996665 0.693532 0.5593115 -1.1111436
0000d0 8c 63 c2 3f 33 90 04 40 68 b5 45 40 43 aa cc bf
       1.5186629 2.0713012 3.0891972 -1.598946
0000e0 94 55 54 3e 02 48 64 40 d6 db 7c be ca d3 2d c0
       0.2073577 3.566895 -0.24693236 -2.7160516
0000f0 f8 1b 0b 3f 8f b3 90 3f 25 94 64 bf 06 56 27 3f
       0.5433955 1.1304797 -0.8928855 0.65365636
000100 5c a6 31 3f 8c fd 33 40 d2 21 dd bf d6 95 b4 3f
       0.6939447 2.8123503 -1.7275946 1.4108226
000110 b7 d1 b2 bd 34 eb 02 40 d9 32 7a 40 4a 26 81 3f
       -0.08731406 2.0456057 3.9093535 1.008981
000120 69 c3 58 bf 24 a2 d5 3f 33 75 97 3f 3d 1e e3 be
       -0.8467317 1.6690106 1.1832641 -0.44359007
000130 30 3a ff bf bd 92 c8 40 35 7d bc 3f 20 74 38 c0
       -1.9939632 6.2679124 1.472571 -2.8820877
000140 d6 03 91 be 9a 0b b7 3f 5a 79 1d 3f e8 c1 4a 3f
       -0.2832324 1.4300416 0.6151329 0.7920213
000150 52 a0 c5 3f 54 af f8 3f ae a2 ed 3f f7 a3 88 c0
       1.5439551 1.9428506 1.8565271 -4.2700152
000160 0a ff f5 3f 9c ee c1 3f dd e9 16 c0 2f 2e bf bf
       1.9218457 1.5150943 -2.358024 -1.4935969
000170 67 b5 46 3f 61 ce 25 bf 3e eb 3b 3f 57 2a c6 be
       0.7762055 -0.64768034 0.73405826 -0.38704178
000180 fe b7 a3 bf a1 5f dc be 86 79 89 c0 77 2e cd 3f
       -1.2790525 -0.4304171 -4.2960844 1.6029805
000190 e7 16 6a 3d 6b de 03 c0 ba 8c ee bf 47 db 1d 40
       0.057150748 -2.0604503 -1.8636696 2.4665086
0001a0 6d 46 f3 3f 43 e7 c8 be 4e 28 b9 3f 7b 02 1a 40
       1.9005867 -0.3923894 1.4465425 2.4064014
0001b0 1c 04 54 bf ee e0 ef 3f d4 78 89 bf 86 29 e8 3f
       -0.8281877 1.8740518 -1.0739999 1.8137672
0001c0 70 16 fe bf 42 44 02 3e c5 97 d5 3e 48 f3 2a bf
       -1.9850597 0.12721351 0.41717353 -0.6677747
0001d0 bc 1d 75 3f bb 4b cb bf 17 83 35 c0 eb 50 0a 3e
       0.95748496 -1.5882486 -2.836126 0.1350743
0001e0 9e 8e 96 be 34 28 b6 bd 63 2b 1a 3f 07 fe 49 3f
       -0.29405683 -0.08894387 0.6022245 0.7890324
0001f0 92 96 de bf e0 c0 32 3f 69 77 60 c0 04 5d 4b 3f
       -1.73897 0.69825554 -3.5072882 0.79438806
000200 04 d1 36 40 76 94 06 40 e5 f4 4f 3f 22 ca d2 3e
       2.8565073 2.1028113 0.81233054 0.4116984
000210 ef 82 ce 3f 13 43 28 bd 3b e6 0b 40 20 30 50 40
       1.6133708 -0.041079592 2.1859272 3.2529373
000220 5d 67 15 bf a4 75 0b c0 92 16 e4 3e a9 fa 51 3f
       -0.58360845 -2.1790552 0.4454847 0.820231
000230 92 54 52 bf 6a a0 fd bf c8 92 c7 bf 75 79 8e 3f
       -0.82160294 -1.981458 -1.5591669 1.1130816
000240 74 99 8d 3f 0f 69 0b 40 da c5 d9 3d 55 c8 dc 3e
       1.1062455 2.1782873 0.1063344 0.4312159
000250 fc 39 cc 3d 98 20 8e 3f 82 39 04 c0 2a 89 cb be
       0.09971997 1.1103697 -2.06601 -0.39753085
000260 f8 e9 1e 3d 92 88 33 c0 24 d4 e2 3e 26 4a 03 c0
       0.03879735 -2.8052106 0.44302475 -2.0514007
000270 fd 52 16 c0 a7 55 f8 3f ce bb e4 3f 24 fc 20 3f
       -2.3488152 1.9401139 1.7869813 0.62884736
000280 02 30 da c0 51 86 46 c0 9a 96 1b c0 bf 70 4c 3e
       -6.8183603 -3.101948 -2.431067 0.19964884
000290 95 ac f7 bf 38 45 8f be a3 3c e5 be 70 4e 38 40
       -1.9349543 -0.27982497 -0.44772825 2.8797874
0002a0 de 05 38 40 87 d0 ce bf 92 c4 39 bf 78 e8 a7 3e
       2.875358 -1.6157387 -0.7256557 0.32794547
0002b0 8d 42 4c 3f 3e b5 1c 40 82 4c 81 40 0a 64 62 40
       0.7978905 2.4485621 4.0405893 3.537356
0002c0 77 42 4d 3f 2a 2f a6 3f 3c d2 45 bf 0c 9a 38 3f
       0.8017954 1.2983143 -0.7727392 0.72110057
0002d0 5e e9 9b 3f 6a 41 03 3f 51 eb bd 3e 4c 02 83 bf
       1.2180593 0.5127169 0.37093595 -1.0235076
0002e0 b5 9d 1a 40 23 47 9f bf 06 92 70 3f 0f 8a 37 c0
       2.4158757 -1.2443584 0.93972814 -2.8678014
0002f0 3c e8 20 c0 4c a8 2a bf 46 fc 19 40 ce ea 02 3e
       -2.5141745 -0.6666305 2.4060225 0.12784883
000300 e9 ff 38 c0 c7 b0 94 bf ea 69 13 c0 24 eb 4b 3e
       -2.8906195 -1.1616448 -2.3033395 0.19913918
000310 b7 d6 dc 3f 4a ef f4 bf 35 d3 6d c0 24 60 31 bf
       1.7253026 -1.9135525 -3.716016 -0.69287324
000320 ef 1c 97 3e ce 3b 02 bf 19 e7 78 bf 95 ce bf 3f
       0.29514262 -0.50872505 -0.9722763 1.4984919
000330 c2 32 1e c0 57 f5 77 40 f4 3c f0 3d 7f cc 53 bf
       -2.471848 3.8743494 0.11730376 -0.8273391
000340 04 3e 0d c0 89 77 2d c0 59 03 e8 be 2b a4 5c 40
       -2.2069101 -2.7104208 -0.45315054 3.44752
000350 ef 56 c4 bf 4d 24 a3 bf e2 e2 3e bf ac c5 19 3f
       -1.533903 -1.2745453 -0.74564946 0.6006725
000360 17 dd f4 3f 17 2f ca 3e 21 ea 34 c0 20 e8 55 3e
       1.9129971 0.39489052 -2.82679 0.2088933
000370 32 dd ae 3f ba bc 03 40 c8 16 a8 3f 98 27 61 c0
       1.3661253 2.058394 1.3131952 -3.5180416
000380 2f cd cd bf a3 06 d5 3f 4d d5 46 c0 b6 ff 57 3f
       -1.6078242 1.664265 -3.1067688 0.8437456
000390 7b 42 b2 3f c4 95 2f 3f 1d cd c6 bf f6 89 cb 3f
       1.3926538 0.685879 -1.5531346 1.5901477
0003a0 a6 29 15 3e 76 b8 ab bf 77 02 a6 3d b3 2c 0c c0
       0.14566669 -1.3415668 0.08105939 -2.1902282
0003b0 b2 5a d6 3f 41 8b 80 40 e6 9b 44 bf e6 2a 10 bf
       1.6746428 4.016999 -0.7680038 -0.5631546
0003c0 1f 1c 59 bd 24 e1 1d 40 90 f1 48 3f 37 07 db bf
       -0.053005334 2.4668665 0.78493595 -1.7111577
0003d0 8f 26 b7 3f 56 e4 5a 3d 2d 4e 9f bd 8f 04 91 3f
       1.4308642 0.053440414 -0.07778583 1.1329516
0003e0 f9 7f fc 3f c5 4e e0 bf f6 de 1a c0 c8 54 28 3e
       1.9726554 -1.7524039 -2.4198585 0.16438591
0003f0 f0 62 02 c0 76 fd 16 3f a9 44 e7 bf 15 76 d3 bf
       -2.0372887 0.589805 -1.8067828 -1.6520411

MLP.0.bias f4 [128]
000000 ab 91 45 c0 03 64 21 bf 43 95 97 c0 a7 ce 82 c0
       -3.0870159 -0.6304323 -4.7369704 -4.087726
000010 1d 90 0e c0 42 ad 07 c0 9a 6b ce bf a0 30 75 c0
       -2.227546 -2.1199498 -1.6126587 -3.8310928
000020 82 8b 35 c0 64 2b dd bf 88 ea 02 bf 6a 30 0b c0
       -2.83664 -1.7278867 -0.51139116 -2.17483
000030 8f 48 fd be 9b d5 01 c0 9b 93 80 be c3 e6 6c c0
       -0.4946942 -2.0286624 -0.25112614 -3.7015846
000040 7c 74 3d c0 9a ba d0 bf eb 68 35 c0 59 6b 47 c0
       -2.9602346 -1.6306946 -2.8345287 -3.115927
000050 20 cd 6a c0 33 9b dc c0 e4 56 61 c0 44 e2 e4 3e
       -3.6687698 -6.893945 -3.5209284 0.44703877
000060 09 57 a5 bf ab 94 e5 bf ab d5 e6 bf a5 a9 0e c0
       -1.2917186 -1.7935995 -1.8033956 -2.2291043
000070 11 e0 f0 bf b8 9d 5b c0 4d df eb bf 4f 11 ae 3f
       -1.881838 -3.4315014 -1.8427521 1.3599032
000080 58 be 17 c0 d6 b0 56 c0 0f 34 25 3f 6d e1 b6 c0
       -2.3709927 -3.3545432 0.6453256 -5.715018
000090 ac 11 85 3e 70 a0 02 be 28 5a 35 c0 e9 05 59 c0
       0.25990045 -0.12756515 -2.8336277 -3.3909857
0000a0 98 d3 db bf 11 9b f9 bf c7 50 76 bf c3 ab 39 c0
       -1.7173948 -1.9500448 -0.96217006 -2.9011085
0000b0 9e 70 8f c0 73 c5 1b c0 90 41 47 c0 f9 a3 82 c0
       -4.482497 -2.4339263 -3.1133766 -4.082516
0000c0 d6 70 41 bf 1e 1b 2d bf 31 46 17 c0 99 23 8a bf
       -0.755628 -0.676195 -2.3636591 -1.0792114
0000d0 3b b2 1d bf ad 03 b8 3e ce 08 50 3d 6e e4 d1 bd
       -0.61600083 0.35940304 0.050789647 -0.10248648
0000e0 78 0b 0d c0 7e 22 02 c0 fc 50 2e c0 ac c5 20 3e
       -2.203825 -2.0333552 -2.723693 0.15700406
0000f0 f0 c8 b5 bf 4c 06 35 c0 ce 4f 16 3e 68 79 96 c0
       -1.4201946 -2.8285093 0.1467888 -4.70232
000100 b1 fb ac bf f1 32 0b c0 9f 30 89 bf 4b 0c 8e bf
       -1.351431 -2.1749842 -1.0717963 -1.1097502
000110 e5 1f 05 be 46 e9 3d c0 90 cc c7 bf fc a3 0c c0
       -0.13000448 -2.9673629 -1.5609303 -2.1975088
000120 50 32 a2 3d 92 5f 89 c0 d3 47 d1 bf 68 34 20 bf
       0.079197526 -4.2929163 -1.6350044 -0.62579966
000130 ea 3b dd bf fc 6d aa c0 cb 48 27 c0 22 1d e3 bf
       -1.7283909 -5.325926 -2.613818 -1.7743266
000140 bf a8 77 3d e0 d7 50 c0 46 a4 24 bf e5 1f 2a c0
       0.060463663 -3.263176 -0.6431316 -2.6581967
000150 5c 8e a6 be bf ea 28 be 88 ef e4 be 9a a1 0e c0
       -0.32530487 -0.16495799 -0.44713998 -2.2286134
000160 d9 4b 25 bf fe bd 3a c0 bf 32 4c c0 3d bd d7 bf
       -0.6456886 -2.9178462 -3.1905973 -1.6854626
000170 b2 d6 69 be 09 01 17 c0 63 91 5b c0 f6 6f 2c c0
       -0.22835806 -2.3594382 -3.4307487 -2.6943336
000180 6e ad 95 c0 2d 9f 61 3f 24 24 7b c0 4f 96 53 bf
       -4.6774206 0.8813351 -3.9240808 -0.8265123
000190 da 67 30 c0 a1 19 69 c0 86 31 11 bf c6 7a e2 bf
       -2.7563386 -3.6421893 -0.5671619 -1.7693717
0001a0 e1 53 13 c0 0c cd 41 c0 58 f0 fd bf 1a 4d d5 be
       -2.3019946 -3.02814 -1.9838972 -0.41660386
0001b0 5e 93 92 bf 83 d6 3e c0 47 d2 5f c0 9a 39 5c c0
       -1.1451223 -2.9818428 -3.4972093 -3.4410157
0001c0 95 03 1f c0 3a e7 bc 3e 7a 33 30 c0 5e ab 54 c0
       -2.4845936 0.36895162 -2.7531419 -3.3229594
0001d0 86 83 78 c0 2b 07 08 c0 7e bd 06 c0 a9 dd c1 3f
       -3.8830276 -2.1254375 -2.1053157 1.514577
0001e0 4a 85 d4 bf 17 e4 1d c0 0e 9f 9a bf 3f 44 22 c0
       -1.6603177 -2.4670465 -1.207979 -2.5354154
0001f0 82 03 61 c0 6e 1e b5 c0 8f 61 92 bf 54 15 a4 c0
       -3.515839 -5.6599646 -1.1436023 -5.1276035

MLP.2.weight f4 [64, 128]
000000 ac 9c 85 3f e0 ab ea bf 03 b5 93 bf 15 0d 8c 3e
       1.0438437 -1.8333702 -1.1539615 0.2735373
000010 69 48 90 3f 50 ab f0 bf 5c 97 c3 be a7 f8 92 3e
       1.1272098 -1.880228 -0.38201416 0.28705332
000020 fb 8d 59 3f a6 30 06 c0 78 6c 46 bf 00 10 5f 3e
       0.8498227 -2.0967193 -0.7750926 0.21783447
000030 86 04 d6 bf 5b 27 97 3f 8b 40 81 3f bc 61 57 3f
       -1.672013 1.1808885 1.0097822 0.84133506
000040 5b cf 88 bf 74 f2 67 bf cc 21 ea 3f cc 31 5e 3f
       -1.068828 -0.9060433 1.8291564 0.86794734
000050 76 ba d0 3e 69 8a 41 40 d9 d6 c4 3f 90 40 dd bf
       0.40767258 3.024073 1.5378066 -1.7285328
000060 2c 78 57 3f c0 03 4e 3c 65 35 50 40 bc 78 3f 40
       0.8416774 0.012574136 3.253259 2.991744
000070 30 bc 0b 3f 73 34 c0 3e 6b 1e 83 40 ab e9 1a 3f
       0.54584026 0.37540016 4.097463 0.605128
000080 ef 8b 0d 3f b3 4c a7 3e 6a 96 df 3e 1b a9 2d bf
       0.55291647 0.32675704 0.43669444 -0.6783616
000090 bf af cf 3e 81 a5 cc 3f 6b 99 f3 3f 22 1c e3 bf
       0.4056377 1.5988008 1.9031194 -1.774296
0000a0 59 db 3d 40 26 20 26 3f e1 2c 2e 3f a9 f4 9b 3f
       2.966513 0.64892805 0.6803723 1.2184039
0000b0 9a 7d d9 3f f8 f9 1a 40 60 9c ac bf 01 91 50 40
       1.6991456 2.421507 -1.3485222 3.2588503
0000c0 b8 3e f9 be 65 45 d8 3f 78 29 9b be b8 44 8a bd
       -0.48680663 1.6896178 -0.30305076 -0.06751388
0000d0 31 47 5a 40 1e 47 8a 3e 6b 21 b1 3f 16 92 ac 3f
       3.4105952 0.27007383 1.3838323 1.3482082
0000e0 25 52 b1 bf 53 49 bd 3d f3 42 e6 bd 69 ba 1d 40
       -1.3853194 0.09242501 -0.11243238 2.4645026
0000f0 28 9b 59 40 b3 45 da be 29 c6 05 be 32 a5 18 40
       3.400095 -0.426313 -0.13063873 2.3850827
000100 37 07 c5 bf a3 cd aa bf 7e f2 b3 bd 95 41 04 bf
       -1.5392827 -1.3344005 -0.08786486 -0.5166257
000110 a0 00 7d bf cc a4 cb bf d2 73 17 40 75 12 a4 bf
       -0.9882908 -1.5909667 2.366444 -1.2818133
000120 4f 86 a2 3f 06 1f 84 bf 68 8f 09 c0 ff 5f 3c 40
       1.2697238 -1.0321968 -2.1493778 2.9433591
000130 c5 4b cc bf 96 57 a0 3f e8 69 b8 3f 6e 20 04 40
       -1.5960623 1.2526729 1.440732 2.0644794
000140 f6 71 48 3f b4 4b a7 3f 88 2a 3f bf 28 73 c4 3f
       0.7829889 1.3069978 -0.7467427 1.5347643
000150 b8 57 26 40 37 57 ab 3f 0b 40 bd be 40 75 ce 3f
       2.599104 1.3385991 -0.36962923 1.6129532
000160 f3 fc 20 3f 5f b0 00 40 e1 f5 8c 40 8c 93 bd bf
       0.6288597 2.0107648 4.4050145 -1.4810653
000170 fb b4 71 3f e0 a8 e2 3f c8 45 3b 40 4f 5d 3c 40
       0.9441678 1.7707787 2.926134 2.943195
000180 d8 a3 41 40 06 a8 d9 3e 0d 60 67 bf 5f 59 54 40
       3.0256252 0.42511004 -0.90380937 3.3179548
000190 3b 5c 57 40 70 ef e2 3f e4 8f 82 3e 12 37 c2 bf
       3.3650043 1.772932 0.25500405 -1.5173056
0001a0 d2 e9 31 40 25 ce 5b 3f 4f 25 9c bf 4f 09 d6 3e
       2.7798963 0.85861427 -1.2198886 0.41803977
0001b0 10 71 fd 3f 78 76 20 c0 42 82 15 40 34 14 9b 3e
       1.9800129 -2.5072308 2.3360753 0.3028885
0001c0 ab 50 1a c0 65 d5 58 3e e5 bc bf 3f 3f 2d 9a 3e
       -2.4111736 0.21175154 1.4979521 0.30112645
0001d0 bf 92 50 3f c3 3d 42 3f 69 e5 50 bf 09 e6 de be
       0.81473917 0.7587549 -0.8160005 -0.43534878
0001e0 cf 02 c6 3f c6 29 df be b4 9e 88 3f cc 97 cc bd
       1.5469607 -0.43586558 1.0673432 -0.099898905
0001f0 9e e4 c5 3f fa 56 07 40 af f7 58 bf 88 fa 31 3f
       1.5460393 2.1146836 -0.84752935 0.69522905
000200 a1 8e aa be 9b 7c be 3f 1c 7b 19 c0 c3 9a b9 bf
       -0.33311942 1.4881777 -2.398139 -1.4500355
000210 c8 14 83 bf 97 38 ce 3f 7a d3 38 40 ad f6 a8 bf
       -1.0240717 1.611102 2.8879075 -1.320028
000220 53 82 1e 3e ed 47 2a 40 95 40 93 3e 58 34 a2 3f
       0.15479402 2.66064 0.2876021 1.2672224
000230 c2 34 23 40 3c 84 1c c0 5c f4 6c 40 38 41 de bd
       2.550095 -2.445571 3.7024145 -0.10852283
000240 ee 9c 95 bf b7 8b 77 40 3a 6b 53 bf 41 a1 03 40
       -1.1688516 3.8679025 -0.8258549 2.0567172
000250 e5 1d 21 c0 1f b7 12 bf 3e 26 23 40 79 6d 7c 3f
       -2.5174496 -0.5731067 2.549209 0.9860454
000260 8c dd 7e 3f bc 6f 04 40 1d 4e 9f 3f 75 8b 26 3f
       0.99556804 2.0693197 1.2445713 0.65056545
000270 1a ab ed bf 3f 87 5f be 35 a9 5b bf 41 64 44 3f
       -1.8567841 -0.21828936 -0.85805064 0.76715475
000280 6d 98 0c c0 cf 29 19 c0 34 c3 57 3f 28 bd 8f 3f
       -2.1968033 -2.3931768 0.8428223 1.1229601
000290 13 14 16 bf 1c d5 40 bf 20 ed 2a 3d 8f e2 2c 40
       -0.5862438 -0.7532518 0.041730046 2.701328
0002a0 a0 29 34 bf d3 c4 00 bf d0 ce 05 40 8d 94 29 3d
       -0.70376015 -0.5030033 2.0907478 0.041401435
0002b0 64 89 2e c0 59 3a b4 3f da 1f 72 3f ad 98 3b c0
       -2.7271357 1.4080306 0.9457985 -2.9311936
0002c0 a2 72 4f bf 66 49 13 40 c1 e3 22 3f 7f d1 02 3f
       -0.8103429 2.301355 0.63628775 0.51100916
0002d0 75 60 e5 bf d2 64 0b 40 97 a2 9d 3f a7 9a 98 3f
       -1.7920061 2.1780286 1.2315243 1.1922196
0002e0 94 8f 66 bf 51 4b b0 3e 1c c1 08 40 75 3f 02 c0
       -0.9006283 0.34432462 2.1367865 -2.035123
0002f0 c9 4d 34 40 4f 2b b5 3f 9c f7 40 c0 39 14 57 3e
       2.8172476 1.4153842 -3.0151129 0.21003808
000300 66 bf 3d 3f c0 80 48 3f 67 c6 49 c0 be 53 fa bf
       0.74120176 0.78321457 -3.1527345 -1.9556806
000310 e5 4c b9 be 60 8a 93 be 26 c5 af 3e d7 00 be 3f
       -0.36191478 -0.2881651 0.343301 1.4844006
000320 f5 a4 ac bf fe 11 3d 3f 85 c5 9d bf 0b de 9f bf
       -1.3487841 0.7385558 -1.2325903 -1.2489637
000330 fe 3c 11 c0 cd 6d 0d c0 de 12 34 c0 df e7 5a bf
       -2.2693477 -2.2098267 -2.8136516 -0.8551006
000340 ae 1b d1 3f 98 59 a0 bf 46 f8 82 be fb 69 67 3f
       1.6336572 -1.2527342 -0.25580043 0.9039609
000350 41 fc f8 bf 24 15 5b 40 c1 59 cd be 95 43 ae bf
       -1.9451982 3.4231653 -0.4010754 -1.3614374
000360 05 01 05 40 ce 2c 6b be 04 a6 c9 3f b0 33 07 40
       2.0781872 -0.2296631 1.5753789 2.1125298
000370 43 45 34 40 42 50 2d bf f5 0c b9 3f 2e 41 8f be
       2.8167274 -0.6770059 1.4457079 -0.27979416
000380 b1 14 9c 3e 57 1c 10 c0 88 de c1 3f 88 65 21 c0
       0.30484536 -2.2517297 1.5146036 -2.521822
000390 7f 07 e0 3f 60 58 98 bf 8c fa 87 3f f4 8e 9e 3e
       1.7502288 -1.190197 1.0623336 0.3096844
0003a0 5c e7 d6 bf 53 f6 0f 40 3a 02 e4 bf 61 38 a8 be
       -1.6789355 2.2494094 -1.781318 -0.32855514
0003b0 74 ff c6 bf 3f 7d a7 be b5 10 1a be 2d 26 db 3f
       -1.5546708 -0.32712743 -0.15045436 1.7121025
0003c0 45 24 01 bf 72 cf 47 3f 8f 4a 1c 40 57 d6 59 c0
       -0.5044597 0.7805091 2.4420507 -3.4037073
0003d0 2f a4 d4 bc 9b b4 ec 3f 9b ef 0b 40 e0 13 2c bf
       -0.025957195 1.8492616 2.1864994 -0.67217827
0003e0 99 01 88 3d dd 3d b6 bf 1d 1f 92 bf fd d5 44 40
       0.0664093 -1.4237629 -1.1415745 3.0755608
0003f0 a5 4d 60 3f 86 5b dd bf e2 3a c6 3f 1b a1 cb 3f
       0.87618476 -1.7293556 1.548672 1.590854

MLP.2.bias f4 [64]
000000 eb 2b 76 3f 96 11 d3 3e 4e 32 d7 3e 1a f6 6a bd
       0.96160764 0.41224355 0.42030567 -0.057363607
000010 e6 0e d8 3e 49 31 07 be f9 20 bb bf 28 87 91 3f
       0.42198867 -0.13202395 -1.4619437 1.1369371
000020 c1 a8 d6 bd 23 dc c1 3d 1a f3 15 be ad fb 13 c0
       -0.10481406 0.09465816 -0.14643517 -2.312236
000030 7a 97 e7 bf 21 92 26 3f dd 56 76 bf 78 1f a5 bf
       -1.8093102 0.65066725 -0.9622629 -1.2900229
000040 c1 fd 9f bd c9 c6 e1 3e 54 f2 9b bf 52 9e 88 bd
       -0.078120716 0.44096974 -1.2183328 -0.06670822
000050 01 07 b1 bc 97 2d 03 c0 42 ee 02 40 6c 6d 60 bd
       -0.021609785 -2.0496576 2.045792 -0.054791853
000060 a1 a9 2a 3d b6 64 39 bf e5 c8 aa bf 6c d3 3d 3f
       0.041665677 -0.724193 -1.3342558 0.7415073
000070 12 a3 f1 bd 14 d7 33 3f 9e 7c 7c be 76 1a 2c be
       -0.11798681 0.7025006 -0.24656913 -0.16806969
000080 18 f8 bd bd 02 1c d4 3d f5 bf 35 3f ef 58 0e be
       -0.09275836 0.103569046 0.7099603 -0.13901113
000090 5a ea 9e 3f 2d 88 8f 3e bb bd 26 bf 6d fe d4 bf
       1.2415268 0.2803358 -0.65133256 -1.6640145
0000a0 ef 7c 86 bf 86 59 8b bf d8 07 cd bd 21 fe e7 bf
       -1.0506877 -1.0886695 -0.10011262 -1.8124429
0000b0 7a 53 21 bf b1 38 c3 bc 9f 07 6f 3f 30 d6 e3 bc
       -0.63018 -0.023830744 0.93371004 -0.027812093
0000c0 44 fa 55 bf 36 f8 66 be 50 01 3e 3e 4c 00 f1 3e
       -0.83585 -0.22555622 0.18555188 0.4707054
0000d0 99 95 fd bd 83 6a b0 bd 7d 7d ac 3e ef 4c cd 3f
       -0.12382049 -0.086140655 0.3368949 1.6039103
0000e0 f6 29 93 bd bb 43 7b bf 78 8d d5 3e 6c da bb 3d
       -0.07185738 -0.98150223 0.41709495 0.0917252
0000f0 87 68 52 3f 62 c2 c5 be 2f 82 3c bf 23 df b8 3f
       0.82190746 -0.38624865 -0.73636144 1.4443096

MLP.4.weight f4 [28, 64]
000000 af 98 1a 3f 31 25 d9 bd ef f8 0b c0 c7 b8 bb bd
       0.60389227 -0.10602797 -2.1870687 -0.09166103
000010 61 4a 38 3d 12 45 e9 bc 6b 91 10 c0 b6 10 0d 3f
       0.04499281 -0.028475318 -2.2588756 0.55103624
000020 af 2a b7 bd 61 15 d7 3f d3 7d 55 3c 9a d9 2b 40
       -0.08943688 1.6803399 0.013030487 2.6851563
000030 89 02 39 bf 95 32 9e bf 60 5a 52 3f 16 92 92 be
       -0.72269493 -1.2359186 0.8216915 -0.2862708
000040 cf 29 aa bf 3f 5b 1b c0 a4 a1 c1 bf 59 10 d2 3c
       -1.3294009 -2.4274442 -1.5127454 0.02564256
000050 3f cf 8f bc 5b e2 bc be 1d 81 70 bf 3e 4b 0b be
       -0.017554877 -0.36891446 -0.9394701 -0.13602921
000060 bb c2 93 3e fe 38 11 40 6a d2 43 bf 64 d4 ff bf
       0.28859505 2.2691035 -0.7649294 -1.9986691
000070 ed 37 8c bd 8b 03 39 40 a4 54 67 3f 12 8b 51 bd
       -0.068466045 2.8908412 0.90363526 -0.05115802
000080 37 95 03 be 68 f6 12 c0 5e 5d 24 c0 c5 6f 64 be
       -0.1284989 -2.2962894 -2.5681987 -0.22308262
000090 61 11 c2 bf 7a 34 4b 40 de 81 20 be 93 22 86 be
       -1.5161554 3.175078 -0.1567454 -0.26198253
0000a0 d9 fa 3b bf 0a 7b 6d bf 59 f6 e1 bd cb a3 57 bf
       -0.7342964 -0.9276587 -0.11033315 -0.84234303
0000b0 d4 7c 83 be a7 f0 72 bd 92 b0 c0 bf 13 b3 14 be
       -0.25681174 -0.059311535 -1.5053885 -0.14521436
0000c0 aa 7a 0c c0 e4 c6 e8 3e c7 07 f8 bf e8 a5 26 40
       -2.1949868 0.45464242 -1.9377373 2.603876
0000d0 dc 3d 01 c0 94 6b f5 bd e8 57 20 bf 63 e5 36 c0
       -2.0194006 -0.119834095 -0.62634134 -2.8577507
0000e0 b9 8d a3 ba 56 13 b2 bf 8c 3a 40 40 e8 2f 05 be
       -0.001247815 -1.3912151 3.0035734 -0.13006556
0000f0 bd a6 84 3f 59 57 7f bf 39 69 0c c0 64 3d 19 c0
       1.0363384 -0.99742657 -2.1939223 -2.394372
000100 b6 1c 3d 3e 81 dd 70 bc 39 fc 57 be e6 57 3a be
       0.18467984 -0.014701248 -0.21092309 -0.18197593
000110 39 67 28 bd 40 27 18 be 7c e9 cb bd 3e f4 68 bd
       -0.041114066 -0.14858723 -0.09956643 -0.056873553
000120 f0 df cd bd f1 44 3f be 0a 7a 5e be a5 56 9a be
       -0.10052478 -0.18678643 -0.21726242 -0.3014423
000130 a0 1e ac be 45 fb 0e bb ec 7c ff be c5 6c 89 3d
       -0.33617115 -0.0021817249 -0.49899995 0.06710199
000140 eb eb 65 be 68 91 1a 3e 24 db 5f bc f1 9e 6d bd
       -0.22453277 0.1509453 -0.013663087 -0.058012906
000150 af de 8f bd 0f 4d 4c be ed 4a 52 be 28 6a e1 bd
       -0.070248954 -0.1995127 -0.20536394 -0.11006576
000160 7a f3 41 bc c7 ab 01 bf 53 42 da bd 6a 19 33 3e
       -0.0118378345 -0.50652736 -0.106571816 0.17490163
000170 01 bc 28 3b 26 fc b3 3d c8 09 29 be d8 ff 0e 3c
       0.0025746825 0.08788328 -0.16507638 0.00872799
000180 d9 d5 2c bd e7 00 d0 bd 43 c0 19 be 62 3c 13 bd
       -0.04219613 -0.10156422 -0.15014748 -0.035946257
000190 f9 ff 33 be 97 7f a5 bd ba d0 ac be bb 8c 83 bd
       -0.17578115 -0.080809765 -0.33752996 -0.064233266
0001a0 5d 13 aa be 94 4c 27 be 77 8b db bd f0 b1 9b bd
       -0.33217898 -0.16337806 -0.1071996 -0.07602298
0001b0 0c 04 3f be 50 37 23 be d7 7e 81 be 8f 10 8b bc
       -0.18653888 -0.15939069 -0.25292084 -0.01697567
0001c0 c5 f2 1b bd 57 db 80 be f2 51 2c be 62 22 6f be
       -0.03807332 -0.25167343 -0.16828135 -0.2335296
0001d0 04 01 b5 3b d8 15 bb bd 08 87 a1 be 5f 17 99 3c
       0.0055238027 -0.09135026 -0.31548333 0.018687902
0001e0 f7 fa 9e bd 90 56 98 3e cb e8 47 3d a2 5a a2 bd
       -0.077627115 0.29753542 0.048805993 -0.07927443
0001f0 2f 04 ed 3c e2 86 52 be c7 13 03 3e 76 f8 27 3d
       0.028932659 -0.20559266 0.12800513 0.041008435
000200 0f 96 93 be d3 90 d9 bf d8 5e b0 bf 9c 8b 68 3c
       -0.28825423 -1.6997322 -1.3778944 0.014193442
000210 c3 80 f6 3e 07 fe 31 bd 12 8e bd bf 85 e4 b7 3f
       0.48145112 -0.04345515 -1.4808981 1.4366614
000220 26 d3 58 bd b9 55 9c bf dd 31 54 be cc d7 e3 bf
       -0.05293574 -1.221366 -0.20722146 -1.7800231
000230 36 ad c5 bf 0d 76 ba 3f db a8 d5 3e 08 fc 53 40
       -1.5443485 1.4567276 0.4173039 3.3122578
000240 6b 3c a2 be 8e 72 be be 07 c7 2a 40 99 82 07 3e
       -0.3168672 -0.37196773 2.6683977 0.13233413
000250 ab f4 a5 bc ea 14 14 bf 0c b2 8e 3f 2d 0a 69 3d
       -0.020258268 -0.5784441 1.1148086 0.05689447
000260 fd 55 16 3f 94 91 ea 3f 2c 94 0b 40 95 77 86 be
       0.5872496 1.8325677 2.1809187 -0.2626311
000270 5a ea 0e 3e e5 18 af 3b a3 28 df 3f 6f 9b 57 bd
       0.13956586 0.005343544 1.7434276 -0.052638467
000280 d9 c0 c7 bd 41 83 5c bf bf 81 bb 3f d4 ba 1b bf
       -0.0975358 -0.8613778 1.464897 -0.6083195
000290 96 d4 c3 bf f5 51 3f bf 01 c3 08 3f 6b 75 da 3e
       -1.5299251 -0.7473443 0.5342255 0.42667708
0002a0 9c 8c 26 40 9e be c9 be b4 39 e2 3d 40 6c 84 bf
       2.602332 -0.39403242 0.11046162 -1.0345535
0002b0 81 ef 61 bf 15 7e 31 bd 08 6c a0 be c9 49 8b bc
       -0.8825608 -0.04333313 -0.3133242 -0.017002957
0002c0 1a df 33 3f ea 35 0e 3f a9 07 01 bf f0 c2 a1 3f
       0.702623 0.55551016 -0.50402313 1.2637615
0002d0 bb 01 7d 3d b1 97 de bd 6f db d5 be 44 28 0c be
       0.06176923 -0.108687766 -0.41768977 -0.13687235
0002e0 f1 bc 7d bc c4 14 b4 3f 9b cb 21 40 75 a1 f0 bf
       -0.015486942 1.4068837 2.528052 -1.8799273
0002f0 3d f3 b8 be e8 d8 43 bf 40 a6 e7 3a 05 ed d0 bf
       -0.36123076 -0.7650285 0.0017673448 -1.6322333
000300 4f 8e 31 bf 06 1f 14 bf ce 91 b6 bf f3 fa 47 3d
       -0.6935777 -0.5785984 -1.4263246 0.04882331
000310 81 2a 51 40 d6 3b 62 be 7e 31 00 40 4e 23 19 3f
       3.2682192 -0.22093138 2.0030208 0.59819496
000320 88 ef ab bd 78 45 b9 3e 08 6c ab 3c d7 47 2d bf
       -0.08395296 0.36185813 0.020925537 -0.67687744
000330 0f f0 b1 3e 81 23 68 bf ac 40 fa be 3c 83 97 3f
       0.34753463 -0.90679175 -0.48877466 1.1836925
000340 bd 63 83 bf 06 7d 54 bf 75 dd dc bf 44 1d d6 bd
       -1.0264813 -0.8300327 -1.7255083 -0.10454801
000350 e3 af 12 3d 0e 97 20 3f 02 50 45 bf 1e 03 b2 3c
       0.03581227 0.6273049 -0.7707521 0.021730002
000360 6d ba 2e bf 6c 45 16 bf e4 0e 08 c0 a5 08 f2 bd
       -0.68253213 -0.5869968 -2.1259089 -0.11818055
000370 70 a9 94 ba bc 00 8f bf 8e 6c e5 bf 62 bd b5 bd
       -0.0011342 -1.1172099 -1.7923753 -0.088740125
000380 e4 c9 a7 3d 53 cc 11 40 6e ed c7 be 68 65 b0 bf
       0.081928045 2.278096 -0.39048332 -1.3780947
000390 64 62 d6 3d 6c 71 ab bd 6a 5b 8e 3d 91 bc dc 3f
       0.10467985 -0.08371243 0.069510296 1.7245046
0003a0 25 a7 e0 bf c4 9e 56 3e 51 6b 0a be 31 ca a5 3e
       -1.7551008 0.20959002 -0.135175 0.32380822
0003b0 a8 ff 85 bf cf 72 f5 bd e9 39 38 40 66 30 1d bc
       -1.0468645 -0.119847886 2.8785346 -0.009594059
0003c0 4e e3 8f bf 54 21 23 bf bc 72 dc bf 82 f8 09 be
       -1.1241243 -0.6372273 -1.7222514 -0.13473704
0003d0 c3 55 b3 bf 58 7f 40 bc 53 42 1c c0 1a 4b 11 40
       -1.4010547 -0.011749111 -2.441548 2.2702088
0003e0 ee 8b 51 bd 79 30 f5 bf ac ac 14 3f 14 79 86 bf
       -0.051158838 -1.9155418 0.58075976 -1.05057
0003f0 e9 a4 0b c0 44 80 19 40 cb 80 e4 bf 7d 5f 12 40
       -2.1819403 2.3984537 -1.7851804 2.2870781

MLP.4.bias f4 [28]
000000 8e ca a6 3f 59 28 2c be 07 51 c5 bd 1c f3 10 3f
       1.3030565 -0.16812266 -0.09634595 0.56620955
000010 de 87 5c 3f f8 89 20 bf 24 14 04 bb f4 59 0f bf
       0.86144817 -0.62710524 -0.0020153606 -0.5599663
000020 99 f0 8f 3e 1c 51 cb 3e b6 14 6c 3f 9a dc 70 be
       0.2811325 0.3971032 0.922191 -0.23521653
000030 10 14 5d 3e 3d b7 8e 3e 5c d8 ad 3f 26 75 24 be
       0.21589684 0.27874175 1.3581653 -0.16060314
000040 d9 7d 98 3f 35 a0 66 bd b0 50 15 be 1f 95 9f bd
       1.1913406 -0.05630513 -0.14581561 -0.077921145
000050 c6 f2 5f 3f 58 e0 19 be f6 8d de 3f db a4 40 be
       0.8747982 -0.15026987 1.7387073 -0.18812887
000060 53 4b 21 3f fd 10 a0 bc 3e 2a 1e be fa c4 9c be
       0.6300556 -0.01953935 -0.15445802 -0.3061903

exp_avg f4 [128, 284]
000000 93 80 0e 2a 78 d8 8e 29 5f 51 7a 2a 38 ba 12 a9
       1.2656742e-13 6.343618e-14 2.2232692e-13 -3.258003e-14
000010 ab bc 0f 2a a0 9d 2d 2a ec 9f b2 a9 ac 5e 9b 2a
       1.2766409e-13 1.5420174e-13 -7.93253e-14 2.7599223e-13
000020 59 b7 06 28 87 9b fe 27 31 37 8e 29 88 96 cf a9
       7.4782515e-15 7.0667785e-15 6.315641e-14 -9.2187597e-14
000030 e4 70 16 29 6f e9 b4 29 47 cb 84 29 cb 3c 23 28
       3.3404608e-14 8.0341e-14 5.8972406e-14 9.0615e-15
000040 bc 3d 5c a9 16 92 0c 2a d3 89 18 29 6e d2 1e a9
       -4.890336e-14 1.2485182e-13 3.3870323e-14 -3.5265566e-14
000050 d1 bd 97 26 5f ca 57 aa 23 47 dc 27 a1 ba f2 29
       1.052918e-15 -1.9166048e-13 6.1139393e-15 1.0779334e-13
000060 42 71 23 28 f8 ed 1d a9 4c 1a 6b 29 bb 6e 75 a8
       9.0728765e-15 -3.5067408e-14 5.220329e-14 -1.3624243e-14
000070 58 54 ad a9 4e 8b 15 aa 63 45 ec a7 d1 40 c9 a7
       -7.6973746e-14 -1.328219e-13 -6.5578388e-15 -5.585898e-15
000080 ae 98 96 28 01 8e a1 a6 87 1a 46 28 56 79 b1 a8
       1.671956e-14 -1.1210109e-15 1.099696e-14 -1.9703569e-14
000090 7e 78 83 29 da d7 16 29 ff 49 3a 29 93 0f 8a a8
       5.838471e-14 3.3493912e-14 4.1364478e-14 -1.5327832e-14
0000a0 8f 41 d7 a9 8d 63 b0 a5 db 68 3b 29 33 8c ce 28
       -9.5592906e-14 -3.0598591e-16 4.161329e-14 2.2931396e-14
0000b0 9f 4f 50 a8 c0 4d 5d 28 5f 57 25 29 a6 a5 8a a8
       -1.15635845e-14 1.2284824e-14 3.6713142e-14 -1.5392916e-14
0000c0 2c b5 d9 27 9a 6e 32 a9 da 19 09 29 85 06 19 a9
       6.0426026e-15 -3.961987e-14 3.0442534e-14 -3.397848e-14
0000d0 c0 78 9a 28 64 b1 4c a8 e1 a5 0e 28 c9 42 c2 a8
       1.7149802e-14 -1.136274e-14 7.918553e-15 -2.156729e-14
0000e0 8f dc 2c 29 5a 79 f4 28 7f 28 2a 28 5e 2a df 27
       3.8382976e-14 2.714207e-14 9.445677e-15 6.194087e-15
0000f0 94 dd 08 29 b9 d8 67 a9 30 48 10 28 98 a0 bb 29
       3.0390255e-14 -5.148028e-14 8.009259e-15 8.332327e-14
000100 14 aa c7 26 79 5f d7 a8 5e 3d 1c a8 9d 3a 11 a8
       1.3854499e-15 -2.39112e-14 -8.6730465e-15 -8.061827e-15
000110 8c f6 1f 29 cf af 14 29 c1 d3 a1 27 ba 10 f1 26
       3.5518938e-14 3.301509e-14 4.491606e-15 1.6727268e-15
000120 7d ce e1 a7 b8 36 bf a8 0e e0 00 a8 3f 3a 3c 27
       -6.267392e-15 -2.122899e-14 -7.1540115e-15 2.6121816e-15
000130 f7 90 a6 a8 b8 fe 4f 28 1c 5c b6 28 ed 2e 79 a9
       -1.849257e-14 1.1546042e-14 2.0246005e-14 -5.5329808e-14
000140 74 2b 28 a9 87 a6 5a a7 84 2e c0 a7 5c 42 12 a9
       -3.7341183e-14 -3.0343852e-15 -5.3341138e-15 -3.247607e-14
000150 1f 9f 1b 29 20 3f cd 29 85 e3 2d 29 05 2b ec 27
       3.455493e-14 9.114779e-14 3.861106e-14 6.55498e-15
000160 dd 04 ce a8 47 23 7e a8 91 74 65 29 a7 13 65 a8
       -2.2872703e-14 -1.4107482e-14 5.094932e-14 -1.2716315e-14
000170 da 6a d6 28 ee 37 2b 28 c3 fc 94 26 fa ec 62 a9
       2.3805112e-14 9.504535e-15 1.0338074e-15 -5.0387625e-14
000180 d1 ee f2 a7 8b a0 3e 29 f0 60 5c a8 3d d6 89 a8
       -6.742742e-15 4.2327724e-14 -1.2233473e-14 -1.5302966e-14
000190 b7 81 08 28 92 cf 8f a8 71 09 c2 a7 b0 d7 8e 28
       7.577644e-15 -1.5966209e-14 -5.3856053e-15 1.5858706e-14
0001a0 44 c8 61 a7 87 d7 4c 28 1c d3 12 a9 59 38 56 a9
       -3.1333587e-15 1.137101e-14 -3.260162e-14 -4.756642e-14
0001b0 33 7f 96 28 42 0c bd 28 00 28 4f a7 ef da 9a a7
       1.670851e-14 2.0988531e-14 -2.8748705e-15 -4.2980955e-15
0001c0 0c b7 6f a7 45 ea fd a7 57 a2 d4 a8 56 55 c5 28
       -3.3267143e-15 -7.04756e-15 -2.3607132e-14 2.1908402e-14
0001d0 b8 09 e2 28 b3 7b 4d a8 ce 8f a6 a7 f9 e3 d8 24
       2.5095255e-14 -1.1406609e-14 -4.623017e-15 9.406127e-17
0001e0 98 b7 9d 28 06 df c6 a7 91 8f c7 28 8c a3 03 a8
       1.7510123e-14 -5.5197842e-15 2.21557e-14 -7.307424e-15
0001f0 9f d2 6a a8 a7 58 be 28 e5 55 07 a9 bd c4 de a8
       -1.30352806e-14 2.1132684e-14 -3.0050523e-14 -2.4732273e-14
000200 f6 ff b3 a8 69 c7 40 a7 ee ec b2 28 87 6b 34 29
       -1.9983998e-14 -2.6753453e-15 1.9864722e-14 4.0061294e-14
000210 7f 8b 5b 29 a0 3d b1 27 7a 1b da 28 81 fe 4e a8
       4.8748762e-14 4.9194183e-15 2.4214778e-14 -1.1490484e-14
000220 e7 aa 4f a8 49 fa ed a8 f1 46 c0 a8 3e f1 d0 28
       -1.1527867e-14 -2.642083e-14 -2.1347048e-14 2.3197261e-14
000230 9f 14 de a8 f2 f1 ea 28 27 80 21 27 c5 1f 0c 29
       -2.4655894e-14 2.6084146e-14 2.241271e-15 3.11138e-14
000240 06 08 cc a8 b8 20 3d a8 dc f7 07 a9 fe b2 59 a8
       -2.265203e-14 -1.0498702e-14 -3.0191005e-14 -1.20847326e-14
000250 cb ca 6f a9 00 b4 b0 a7 37 6b 89 a8 aa ee ed a8
       -5.3244555e-14 -4.904497e-15 -1.5256552e-14 -2.641579e-14
000260 85 f6 41 28 49 6a 98 28 14 87 23 a8 76 6a c2 28
       1.0767108e-14 1.6921484e-14 -9.077608e-15 2.1584497e-14
000270 2c e2 2f a8 3b 79 b8 a8 7f 7e ab 28 d0 ef f8 a7
       -9.763495e-15 -2.0480679e-14 1.9039673e-14 -6.9093833e-15
000280 7e 3e b9 28 82 b2 30 a9 4d 14 54 28 d2 7f 95 a8
       2.0566228e-14 -3.923468e-14 1.1772766e-14 -1.6597756e-14
000290 76 a7 10 28 12 3c ff a8 b2 9d 12 a8 6b 23 b6 28
       8.029918e-15 -2.8336738e-14 -8.138823e-15 2.0221419e-14
0002a0 04 66 3a a7 b9 b2 b1 a8 73 d5 41 28 0d df 2f a8
       -2.5867988e-15 -1.9728456e-14 1.0759937e-14 -9.762818e-15
0002b0 bf 2b e9 28 9e 5b 0e a8 5d 5d ed a8 f9 a9 4c 28
       2.5887168e-14 -7.90245e-15 -2.6352776e-14 1.1361132e-14
0002c0 21 7f 4c 29 57 ed 40 a9 0e 88 15 29 63 62 44 a8
       4.5407366e-14 -4.2838424e-14 3.3202655e-14 -1.090152e-14
0002d0 83 0e c9 28 ea 88 75 27 0e f0 85 28 e9 bb d5 28
       2.2321776e-14 3.4074801e-15 1.4870073e-14 2.3729243e-14
0002e0 8a d1 23 a9 a3 ba 3e a6 4c 10 15 a9 70 ee 08 29
       -3.6375017e-14 -6.617243e-16 -3.309878e-14 3.0404878e-14
0002f0 fa fc e5 27 f8 20 f3 a8 f4 63 b2 27 8e 87 1e a6
       6.3834546e-15 -2.6992717e-14 4.9513294e-15 -5.5000973e-16
000300 5a ea 28 a8 c2 8c 0f a9 32 88 20 a8 cb 86 86 26
       -9.37669e-15 -3.1874466e-14 -8.911317e-15 9.334654e-16
000310 7c 6d 57 29 ed 7c b7 a8 78 23 60 a7 66 71 79 a8
       4.7834553e-14 -2.037126e-14 -3.1105472e-15 -1.3846866e-14
000320 6c 3c b5 a7 4a de c6 a8 58 ee fa 28 ce 7b 6a a8
       -5.03031e-15 -2.2078818e-14 2.785894e-14 -1.3016455e-14
000330 27 0b dd 28 af 77 b0 28 dd 2f 01 28 a6 e8 82 a8
       2.4540765e-14 1.959183e-14 7.171317e-15 -1.4533794e-14
000340 28 7d 1e a8 eb 03 20 28 37 52 ef a8 94 07 70 a7
       -8.797901e-15 8.882634e-15 -2.6569985e-14 -3.3310799e-15
000350 8c 12 d7 23 5a d9 02 28 5f 26 80 28 9f 23 b3 a7
       2.3318202e-17 7.26358e-15 1.4227496e-14 -4.97211e-15
000360 d1 e1 cd a8 de a1 b3 27 96 94 ab 28 04 f8 92 a7
       -2.2857504e-14 4.9857977e-15 1.9049253e-14 -4.079204e-15
000370 14 ac 2b a6 3b ce 51 28 25 8c e7 a7 fa 73 d3 27
       -5.956075e-16 1.164655e-14 -6.4267325e-15 5.8690007e-15
000380 7b 1b 50 a8 76 71 dc 27 dd bf 02 29 95 44 cf a8
       -1.1552278e-14 6.118528e-15 2.9032214e-14 -2.301136e-14
000390 96 f5 1d a9 41 23 84 28 98 18 b4 a8 ff 92 28 a8
       -3.5074015e-14 1.4670233e-14 -1.999468e-14 -9.357748e-15
0003a0 e0 4f a9 26 0f d7 c8 27 47 48 ed 27 78 14 7b a8
       1.1748381e-15 5.574432e-15 6.5859077e-15 -1.3937737e-14
0003b0 8c 9f 7c a5 a7 b2 f4 26 81 b8 41 27 51 06 f4 a8
       -2.1911572e-16 1.6979325e-15 2.688415e-15 -2.7092181e-14
0003c0 14 f5 ba a7 05 1c 47 27 42 bd 5b 27 76 20 a9 27
       -5.1891085e-15 2.7631987e-15 3.0494952e-15 4.6942117e-15
0003d0 30 fd b7 a8 5f 0c 92 a8 a8 f3 18 a8 c2 7d 2a 28
       -2.0426884e-14 -1.6214621e-14 -8.4905295e-15 9.464165e-15
0003e0 7f c4 eb a8 99 43 be a7 6c 40 f7 a7 0a 4a bf a7
       -2.6175458e-14 -5.2808883e-15 -6.862612e-15 -5.3093423e-15
0003f0 d8 e3 9d a8 9b b4 00 29 c6 12 c0 a8 b5 a8 e9 28
       -1.7529313e-14 2.857836e-14 -2.1324424e-14 2.5941361e-14

exp_avg_sq f4 [128, 284]
000000 01 c8 8f 38 5c 12 8f 37 53 05 3c 37 11 fd 9b 36
       6.856025e-05 1.7055478e-05 1.1206913e-05 4.648821e-06
000010 50 89 77 36 e1 7d 62 37 6f 19 c8 36 6c 72 c3 35
       3.6885795e-06 1.3499958e-05 5.9634253e-06 1.4561933e-06
000020 50 9f 42 36 75 73 a0 36 ae 4e e3 35 94 0b 05 36
       2.9000985e-06 4.7818125e-06 1.6935717e-06 1.9825284e-06
000030 3f 42 52 35 58 e8 fb 35 ed e9 80 35 de ca ac 35
       7.8327497e-07 1.8768578e-06 9.604825e-07 1.2874041e-06
000040 b1 a6 a5 36 7e 36 24 36 9f 1f 21 36 e6 ba 21 36
       4.9367886e-06 2.4469623e-06 2.4009275e-06 2.4099659e-06
000050 92 f3 bc 35 ef 12 a8 36 0b c0 95 35 80 3f 74 36
       1.407798e-06 5.0089943e-06 1.1157257e-06 3.6395795e-06
000060 80 e0 b2 34 df b0 89 35 71 35 9a 35 59 88 f4 35
       3.331843e-07 1.0258772e-06 1.1489448e-06 1.8219099e-06
000070 64 bd 4f 35 69 d8 ad 36 16 ee 9b 36 24 41 d0 35
       7.738911e-07 5.1809952e-06 4.647077e-06 1.5516166e-06
000080 b4 46 d3 35 90 77 0e 36 cc 0d c1 34 e1 d5 54 35
       1.5741302e-06 2.1229243e-06 3.595909e-07 7.928739e-07
000090 48 c1 03 36 56 31 ae 35 56 03 a6 34 98 45 36 35
       1.9633026e-06 1.2978369e-06 3.0922337e-07 6.7901556e-07
0000a0 3f 22 79 35 60 8f 2b 36 4a 09 13 35 d4 b6 16 36
       9.2809563e-07 2.556444e-06 5.4775285e-07 2.2458162e-06
0000b0 fe 8b 94 36 c9 f1 60 34 27 52 1c 34 54 62 0b 35
       4.427041e-06 2.0949587e-07 1.4558519e-07 5.192462e-07
0000c0 90 3a 1c 35 11 72 e7 34 d7 de 37 36 c9 8d c8 34
       5.819975e-07 4.3110097e-07 2.7398835e-06 3.7356065e-07
0000d0 7a 45 10 36 10 46 13 36 e0 57 8e 34 8b d9 97 35
       2.1498113e-06 2.1945489e-06 2.65135e-07 1.131369e-06
0000e0 ac 1a 03 34 77 b6 5f 35 e4 6b a3 35 d0 b7 22 35
       1.2210029e-07 8.3339495e-07 1.2175847e-06 6.0617185e-07
0000f0 b8 9f 44 35 84 24 36 34 5f 36 ff 35 82 34 13 35
       7.324811e-07 1.6963355e-07 1.9014805e-06 5.4838176e-07
000100 e6 16 87 33 10 06 5c 35 20 13 d1 35 4b 1f 3d 35
       6.2905926e-08 8.196521e-07 1.557728e-06 7.0453524e-07
000110 6e 40 c2 33 f1 6f 49 35 bd 1f dd 33 a5 ec d1 34
       9.045549e-08 7.504123e-07 1.02968876e-07 3.9101465e-07
000120 a1 68 f7 34 41 75 57 34 8d f6 6c 33 37 0f f9 34
       4.6083463e-07 2.0066092e-07 5.517227e-08 4.6390934e-07
000130 49 b3 15 34 7d a8 3c 35 40 d7 45 34 47 a3 b9 34
       1.394193e-07 7.028064e-07 1.8425362e-07 3.4577735e-07
000140 8b dd 42 34 47 ea 41 35 b5 65 e9 35 64 f5 19 35
       1.8148255e-07 7.223902e-07 1.7389453e-06 5.735403e-07
000150 c7 3d 97 33 05 35 1e 33 a1 cb 7a 35 f4 55 82 35
       7.042723e-08 3.6835463e-08 9.3428577e-07 9.71077e-07
000160 be 62 88 34 b7 6d 06 34 68 65 77 33 70 a0 db 34
       2.5403818e-07 1.2519637e-07 5.7601397e-08 4.0908662e-07
000170 9d 75 a4 32 e0 05 e4 35 36 5d 01 34 35 bb de 34
       1.9145597e-08 1.6989034e-06 1.2047971e-07 4.1486933e-07
000180 e1 aa 2a 35 69 83 b1 33 73 7e 0e 35 ae ca 6c 34
       6.3578597e-07 8.266108e-08 5.308313e-07 2.2052947e-07
000190 1d ba 23 35 0f 02 dd 34 5f a1 d0 34 18 24 1e 34
       6.099306e-07 4.1165956e-07 3.8860432e-07 1.4728028e-07
0001a0 68 59 d8 33 b2 8b f2 33 43 1c 90 34 c7 25 f7 34
       1.0074547e-07 1.12944136e-07 2.6842653e-07 4.6034822e-07
0001b0 bb a5 ba 34 77 d2 01 35 a7 b3 b6 34 6c 1f 8f 33
       3.4765785e-07 4.836251e-07 3.4030856e-07 6.664672e-08
0001c0 ea 2b 0d 35 d6 b4 57 34 03 38 83 34 2f 39 b7 34
       5.2590497e-07 2.0089223e-07 2.4441405e-07 3.4128013e-07
0001d0 19 a8 3c 34 73 f2 b5 33 a6 0e be 33 ca 79 dc 33
       1.7570018e-07 8.4725706e-08 8.850229e-08 1.02667016e-07
0001e0 15 fa 98 33 e6 0a b4 33 ad 0a 35 35 e7 04 fb 33
       7.123541e-08 8.3838856e-08 6.744329e-07 1.168899e-07
0001f0 f8 ba 55 33 eb fc ad 34 8c d3 1d 35 76 92 00 34
       4.9762974e-08 3.2407783e-07 5.87949e-07 1.1974211e-07
000200 3a 3c 49 34 9d 8a ed 34 6d 78 d0 34 f6 da b1 33
       1.8741494e-07 4.4245544e-07 3.883064e-07 8.2820335e-08
000210 40 5e 95 34 80 6b 44 34 e7 4f 7e 34 58 1a b4 33
       2.782199e-07 1.8293031e-07 2.3684662e-07 8.386695e-08
000220 93 b0 a1 34 3c 78 ae 33 dd e2 b1 33 6f ed 2c 33
       3.0117062e-07 8.124377e-08 8.283471e-08 4.0262815e-08
000230 19 16 e1 34 88 cb 8c 33 cd b6 a2 32 89 8b a4 32
       4.1925594e-07 6.55628e-08 1.894241e-08 1.9155566e-08
000240 a4 40 0b 34 b9 1b c4 34 55 27 25 34 92 fa e8 33
       1.29689e-07 3.6528016e-07 1.5381131e-07 1.084892e-07
000250 1e 62 68 33 42 e2 a7 34 fa fc 11 35 65 06 38 34
       5.4105946e-08 3.1270798e-07 5.438484e-07 1.7138662e-07
000260 3d 90 4f 35 0b 73 78 34 1c 6c 21 33 9a ee e4 33
       7.7323404e-07 2.3138652e-07 3.758406e-08 1.0660479e-07
000270 b6 dc 15 35 8b 79 6d 33 1b 25 2e 35 eb 8e 59 34
       5.5828e-07 5.5291405e-08 6.4874047e-07 2.0261693e-07
000280 0d b8 f8 32 c0 79 bb 34 39 53 a9 34 74 b0 82 32
       2.8954696e-08 3.492005e-07 3.1539255e-07 1.5214233e-08
000290 d9 2d 3a 34 a5 80 eb 33 0e 27 50 34 2e 06 8d 34
       1.7339279e-07 1.09664406e-07 1.9385718e-07 2.6267793e-07
0002a0 6b 97 fd 33 41 83 ef 34 c5 e8 c7 32 88 b7 96 34
       1.1808773e-07 4.461272e-07 2.32725e-08 2.8073214e-07
0002b0 52 73 74 35 66 5e 04 34 b8 f1 b8 33 86 e8 f7 33
       9.1064896e-07 1.23278e-07 8.612136e-08 1.15441296e-07
0002c0 7d 61 fc 33 78 5b a3 32 f1 c0 df 34 43 8d e0 33
       1.17523975e-07 1.9017293e-08 4.167737e-07 1.0456508e-07
0002d0 81 53 fd 33 21 8f 8d 34 f4 19 be 33 81 21 0d 35
       1.179642e-07 2.6367437e-07 8.852285e-08 5.257535e-07
0002e0 cf 19 ba 33 37 01 0c 33 6d 28 cf 33 e7 6a ef 34
       8.6659945e-08 3.2597395e-08 9.646542e-08 4.4595e-07
0002f0 e9 28 85 34 b0 f1 fc 34 d0 e5 03 34 99 5b e5 33
       2.4802947e-07 4.7114509e-07 1.2283931e-07 1.0680305e-07
000300 36 bb 67 33 03 51 93 33 40 21 13 34 61 b3 24 35
       5.3954146e-08 6.859957e-08 1.3702538e-07 6.135579e-07
000310 d2 b9 9a 33 65 d7 a1 32 a8 cd 25 33 80 8c 1c 33
       7.204984e-08 1.8840817e-08 3.86041e-08 3.6449364e-08
000320 df 43 ab 33 39 d4 56 34 cb ba 36 35 33 68 40 33
       7.975154e-08 2.0007509e-07 6.8072103e-07 4.4798252e-08
000330 fb a5 d8 33 99 78 b5 34 ae f4 30 33 68 cf db 33
       1.00884755e-07 3.3801624e-07 4.1200728e-08 1.0235709e-07
000340 19 39 02 34 ba a4 fd 33 ce 49 c3 32 ac a4 00 32
       1.2127965e-07 1.1811194e-07 2.273455e-08 7.488023e-09
000350 95 b5 ba 32 2b 3d 26 34 04 5d a7 34 bd 4b 68 34
       2.1735824e-08 1.5482208e-07 3.1173852e-07 2.1634237e-07
000360 b4 2c 00 34 d6 64 56 33 9a 20 9b 32 be 0a 9b 33
       1.1937192e-07 4.9917467e-08 1.80592e-08 7.219704e-08
000370 40 80 0a 34 99 c4 32 33 f1 ba de 33 16 70 39 34
       1.2898909e-07 4.162266e-08 1.0371685e-07 1.7270244e-07
000380 ad f8 d3 33 bd 2a 2e 33 d4 d6 c6 33 64 d3 e3 31
       9.870687e-08 4.0551402e-08 9.2591705e-08 6.630602e-09
000390 9c 98 86 32 71 06 25 34 dd 9a 00 34 44 2a f2 33
       1.5669052e-08 1.5369166e-07 1.1977268e-07 1.1276691e-07
0003a0 ab d7 1f 34 66 c0 94 34 a7 bd c2 33 fd 16 95 32
       1.4886488e-07 2.7707136e-07 9.0683265e-08 1.7356337e-08
0003b0 ec d0 cb 34 ed 9a 3f 34 99 e4 e4 31 fa 81 15 33
       3.7963707e-07 1.7844623e-07 6.661662e-09 3.480998e-08
0003c0 9a b1 45 34 6c d8 c0 33 8f 0d a2 33 53 18 0d 33
       1.8411666e-07 8.9800636e-08 7.546179e-08 3.2851244e-08
0003d0 45 69 e0 33 7e 98 01 34 9e 5b a6 33 48 d3 47 34
       1.0449961e-07 1.2069538e-07 7.7466424e-08 1.8610183e-07
0003e0 54 ed 84 33 f3 62 51 33 bd e2 da 32 b6 8d 7f 33
       6.189899e-08 4.87516e-08 2.5481649e-08 5.95007e-08
0003f0 f8 ac 1b 34 a6 c2 81 34 5a 01 2d 33 39 31 d8 33
       1.4498426e-07 2.4169748e-07 4.028093e-08 1.0067237e-07

exp_avg f4 [128]
000000 08 4d e7 28 e2 c6 6e b5 68 6b 0d 27 bb 2c b5 b5
       2.5679559e-14 -8.895132e-07 1.9625906e-15 -1.3498569e-06
000010 70 f0 01 2d 9b 70 4c b6 8a c3 19 2c bf fb 6a ac
       7.386189e-12 -3.0463914e-06 2.1851154e-12 -3.3393147e-12
000020 5a a9 81 2b 2b c5 f0 35 84 2f 20 ad 16 59 18 ac
       9.213006e-13 1.7938777e-06 -9.105498e-12 -2.1649952e-12
000030 f7 16 d0 b5 34 ad 4b 2d 10 5b aa 2b a8 6d 06 b6
       -1.5503891e-06 1.1577673e-11 1.2104501e-12 -2.0031384e-06
000040 49 f1 0f 29 3e 9d 51 2d 4b 4a 16 b5 2b 6f c0 2b
       3.196166e-14 1.1915189e-11 -5.5987465e-07 1.3673276e-12
000050 17 14 57 34 db 4f 87 b5 6d da 08 b5 e1 30 99 2b
       2.0030744e-07 -1.0081525e-06 -5.09818e-07 1.088487e-12
000060 00 3c ee 35 7b 7f 34 34 e8 d7 5b b5 23 c0 d2 b5
       1.7749844e-06 1.6810183e-07 -8.189804e-07 -1.5702138e-06
000070 0c 05 f0 ac 8a ae 1a b6 24 59 8b 34 76 e6 8b 2c
       -6.8217706e-12 -2.3049383e-06 2.5955626e-07 3.976204e-12
000080 58 5c 33 ad ba d3 2b a7 fb 4d b2 ab 5a 28 e9 2a
       -1.0195476e-11 -2.3845794e-15 -1.2669305e-12 4.1417114e-13
000090 a1 ad 1b ad fb 7b 0a 2c 1e fe 4f 35 8f e8 32 36
       -8.849283e-12 1.9679802e-12 7.74833e-07 2.6659434e-06
0000a0 f0 b0 44 35 a2 2e 6b b5 1c 52 53 2d c9 0f b9 ac
       7.327317e-07 -8.761218e-07 1.2012193e-11 -5.2597687e-12
0000b0 0e 64 8e ab ff cf 12 35 85 c4 24 ad 0c f7 c6 b5
       -1.0117478e-12 5.469191e-07 -9.365957e-12 -1.482405e-06
0000c0 77 72 20 2b 0e 99 b0 2c 13 08 ef 2c 47 9e 0b a7
       5.700227e-13 5.0192133e-12 6.793685e-12 -1.9375927e-15
0000d0 1a 5c c5 35 57 5f e0 35 2d 07 80 b4 5c af 0a 2d
       1.4704449e-06 1.6717048e-06 -2.384708e-07 7.883329e-12
0000e0 76 e1 11 2c c0 c4 8b 2a 75 81 87 2c ff 1e 04 2d
       2.0730895e-12 2.4827883e-13 3.8513034e-12 7.510214e-12
0000f0 f4 b2 45 36 d8 a2 80 b6 cd b6 c1 ad 2c 47 13 2c
       2.9459452e-06 -3.833655e-06 -2.202274e-11 2.0929465e-12
000100 ca 27 90 a6 e8 9b 01 b5 8a 8c 8c a3 b7 92 3d 28
       -1.0002792e-15 -4.828312e-07 -1.5238351e-17 1.0523421e-14
000110 d4 6c 06 ad ed b9 80 b5 30 b7 59 35 71 38 4a a8
       -7.641183e-12 -9.590855e-07 8.110537e-07 -1.1225491e-14
000120 bf 67 c0 2c 7a fe eb 33 53 2c 45 b6 6e c3 b6 b4
       5.4684863e-12 1.0989329e-07 -2.9381088e-06 -3.4042336e-07
000130 76 18 86 2c d8 78 cd b5 58 cb 50 2c ca f3 ce b4
       3.8112248e-12 -1.530886e-06 2.9671456e-12 -3.854787e-07
000140 82 7b 4e b5 44 aa 0c 2d f9 d3 42 2c 53 20 63 b4
       -7.692071e-07 7.995885e-12 2.7686727e-12 -2.1152782e-07
000150 20 51 3c b4 74 77 20 35 c2 ed 34 b6 01 e6 6e 2a
       -1.7538378e-07 5.977847e-07 -2.6960483e-06 2.1218445e-13
000160 c7 09 ff 2b 07 18 1a ac d4 aa a7 35 4d a4 f3 35
       1.8121554e-12 -2.1898054e-12 1.2492187e-06 1.8152729e-06
000170 22 32 ac ab 1c ab 14 2c 32 a3 29 a9 e5 f9 a5 35
       -1.223525e-12 2.112705e-12 -3.7667088e-14 1.2366187e-06
000180 25 7e 49 34 0f 5d fe 34 46 c5 44 b6 ec e5 44 b5
       1.8765475e-07 4.7378896e-07 -2.9321104e-06 -7.335027e-07
000190 b7 93 2c 36 a7 b9 ad 2b c8 5f 99 a8 5b ea 07 b4
       2.5715979e-06 1.2343918e-12 -1.702795e-14 -1.2658113e-07
0001a0 78 98 bf 2c 1a 64 2d 36 6f 8e 86 2b 35 07 af b5
       5.445474e-12 2.5837276e-06 9.560806e-13 -1.3040614e-06
0001b0 99 be e5 34 ea 1b 8f b5 0a 2e e3 35 73 48 e6 b3
       4.2793252e-07 -1.0662454e-06 1.6926217e-06 -1.0723388e-07
0001c0 62 07 bf ab 12 ef 98 ac 59 74 5b ac 85 b4 8e b5
       -1.3573415e-12 -4.346642e-12 -3.1186358e-12 -1.0632363e-06
0001d0 9e 2f 1a 2a f7 7a ce b4 94 7f 20 b4 75 19 76 2d
       1.3694468e-13 -3.845996e-07 -1.4947574e-07 1.3989134e-11
0001e0 3e 27 d2 a7 fb c9 18 2c 2d 4e 18 ad b2 ed c0 35
       -5.8329255e-15 2.171262e-12 -8.657558e-12 1.4374293e-06
0001f0 19 33 64 35 9d 1b a5 34 86 dc ee b5 4a b2 6f 2b
       8.5010976e-07 3.0753736e-07 -1.7796563e-06 8.515728e-13

exp_avg_sq f4 [128]
000000 d7 4f 9d 35 ab 20 02 38 f7 48 e7 36 d3 e4 04 37
       1.1720648e-06 3.102484e-05 6.8928307e-06 7.92109e-06
000010 db 57 94 36 b0 61 ff 36 bd 39 1e 36 c0 f3 d3 37
       4.4209714e-06 7.6109645e-06 2.3577443e-06 2.5266665e-05
000020 55 a6 a6 35 41 71 63 34 42 9f 38 37 ab 67 0a 37
       1.2416373e-06 2.1182224e-07 1.1004335e-05 8.249578e-06
000030 81 8b a0 37 82 1b 37 37 e7 4e 9d 36 9b 0e ee 38
       1.9138448e-05 1.0914055e-05 4.68815e-06 0.00011351445
000040 47 8a 22 38 fa 17 c5 39 54 e4 c6 33 f0 d1 15 37
       3.875259e-05 0.00037592632 9.261626e-08 8.929972e-06
000050 f1 c5 14 35 bb fa e9 34 d8 59 1b 35 cf 06 56 35
       5.542234e-07 4.3582062e-07 5.787274e-07 7.973112e-07
000060 50 ce 25 39 82 79 04 37 4e 73 9e 38 a4 dd 5f 36
       0.00015812484 7.896104e-06 7.555504e-05 3.3358601e-06
000070 63 0c 88 36 9b a0 22 38 b9 cf 97 35 63 c6 b3 37
       4.054558e-06 3.8773385e-05 1.1310832e-06 2.1430844e-05
000080 da b3 0e 38 fe 78 88 36 be f3 83 36 20 fd d1 35
       3.4022938e-05 4.067201e-06 3.9324796e-06 1.5645383e-06
000090 77 fc da 36 71 c5 99 36 97 3b 23 38 44 dd 3c 36
       6.526297e-06 4.5827405e-06 3.8917726e-05 2.8142977e-06
0000a0 65 55 15 36 8d d5 a8 36 1b f3 81 37 f3 08 06 37
       2.2252436e-06 5.0316507e-06 1.5491203e-05 7.989106e-06
0000b0 db 02 93 37 b7 6c 86 36 05 6e 5a 36 cb be ae 36
       1.7525095e-05 4.0061673e-06 3.2548571e-06 5.2078153e-06
0000c0 0f b6 74 36 d3 07 ac 36 20 39 c2 36 b9 0b 4d 36
       3.6464805e-06 5.1269103e-06 5.7883008e-06 3.0554204e-06
0000d0 73 57 92 37 df 64 da 38 8d 0e 04 37 b9 66 a4 35
       1.7445278e-05 0.00010413839 7.871201e-06 1.2248848e-06
0000e0 e1 d9 33 39 8b 2c 3b 35 1a 0e 50 39 ef 94 65 37
       0.00017151936 6.9727747e-07 0.00019841679 1.368414e-05
0000f0 ac d3 3e 34 f5 36 11 37 c4 28 cd 37 33 f3 88 36
       1.7772135e-07 8.655469e-06 2.4456887e-05 4.081428e-06
000100 e4 13 fd 38 6d 35 48 38 20 ff bf 37 55 2e ad 35
       0.00012067685 4.7733472e-05 2.2887776e-05 1.2902989e-06
000110 27 6b 03 37 45 cb 02 36 d3 6a 4a 36 7a 28 34 39
       7.833157e-06 1.9489828e-06 3.0162525e-06 0.00017181216
000120 d4 f1 33 36 32 9a b8 35 a5 13 39 37 4c e4 bf 36
       2.681384e-06 1.3753945e-06 1.1031433e-05 5.718821e-06
000130 5d b2 90 36 28 02 2b 37 df 8c c5 36 8a fc 31 37
       4.3122986e-06 1.0192896e-05 5.887457e-06 1.0608821e-05
000140 66 b4 33 38 c9 87 83 35 3f 6f b1 39 53 ef a8 38
       4.2844935e-05 9.799779e-07 0.00033842956 8.055442e-05
000150 7a 69 b0 37 4f e0 0a 39 d5 43 02 37 73 c0 95 35
       2.1029951e-05 0.00013244267 7.764397e-06 1.1157375e-06
000160 6e 47 12 36 54 49 94 37 d1 02 2e 37 51 c6 94 35
       2.1797273e-06 1.7677121e-05 1.0371864e-05 1.1084577e-06
000170 a6 51 27 37 18 ec 46 37 ca 1b 5c 35 c3 09 bf 37
       9.972986e-06 1.18566895e-05 8.1996825e-07 2.277352e-05
000180 a2 73 35 37 41 62 95 36 da 57 14 37 94 36 b0 35
       1.0815364e-05 4.4519843e-06 8.841942e-06 1.3128906e-06
000190 fe e8 4e 37 85 64 b7 36 22 ef 97 38 85 b0 d7 38
       1.23328045e-05 5.465527e-06 7.244783e-05 0.00010284878
0001a0 55 6d 16 36 2a ba 9f 35 8b a3 18 36 60 e8 af 36
       2.2415381e-06 1.1900604e-06 2.274496e-06 5.2424584e-06
0001b0 c9 90 5c 37 cd 6f b5 35 05 83 d7 36 97 7f f1 39
       1.3146732e-05 1.3518089e-06 6.422752e-06 0.00046062164
0001c0 9d 36 7c 35 b0 ec 3e 35 ab 88 af 36 37 db e2 35
       9.395679e-07 7.112494e-07 5.2313167e-06 1.6902112e-06
0001d0 ff 72 cd 36 79 a4 8b 38 fd e5 2d 36 3b 42 ea 38
       6.1228634e-06 6.658672e-05 2.591288e-06 0.00011170326
0001e0 0a 42 9b 36 08 b2 a8 36 5d 15 4d 37 5d 19 26 39
       4.627048e-06 5.0275157e-06 1.2223926e-05 0.00015840442
0001f0 f2 f0 05 37 49 38 9b 35 5c 3d 4b 38 b4 c2 32 38
       7.983517e-06 1.1564781e-06 4.8456117e-05 4.261984e-05
