mlruns/0/eafa1e97fe3b4c59b51a73526175c606/artifacts/model/data/model.pth (torch, 191220 bytes, 6 tensors)

weight f4 [128, 284]
000000 a4 52 dd bf 08 7c 4d 3f 0e ab 04 40 82 74 48 bf
       -1.7290845 0.8026738 2.0729403 -0.78302777
000010 3a f5 86 bf 5e 82 42 3e 47 63 65 be 66 78 30 3f
       -1.0543587 0.18995044 -0.22401153 0.68933713
000020 47 de 4a bf 48 ed 94 3f 06 88 05 c0 ee 39 37 c0
       -0.7924542 1.1634912 -2.0864272 -2.8629107
000030 39 c5 e0 3f 32 c9 10 bf 89 a3 45 40 9c 88 36 3f
       1.7560188 -0.56557 3.0881064 0.713022
000040 b6 30 6c 40 8d 69 e8 bf 3f f3 fb 3c 11 29 2f c0
       3.690473 -1.8157212 0.030755637 -2.7368815
000050 1d b5 65 3d 32 5f b5 3e ae 95 64 40 a2 07 b2 3f
       0.056080926 0.3542419 3.5716357 1.3908579
000060 29 b2 26 40 b2 94 98 c0 60 11 ac c0 06 11 3b 40
       2.604624 -4.7681513 -5.377121 2.922914
000070 0d 66 98 3f f7 41 d7 3f dd fd aa 3e 88 3b b0 3f
       1.1906143 1.6817006 0.33396807 1.3768167
000080 da 31 02 40 8e 43 3b c0 81 f1 b5 3f 35 62 8c bd
       2.0342927 -2.9259982 1.4214326 -0.06854669
000090 b7 78 91 be ab a7 21 3f 5c ca b1 3f b6 0c 15 40
       -0.2841241 0.63146466 1.388988 2.3289008
0000a0 54 ed 4c 40 e5 e8 8b bf 07 65 51 3f 97 8e ee bf
       3.2019854 -1.0930449 0.8179478 -1.8637265
0000b0 7a cf 50 bf b2 b9 3a c0 b5 0e e3 3f b7 2d 1b c0
       -0.81566584 -2.917584 1.7738863 -2.4246652
0000c0 cc f2 a9 3f af 2a bf bf 5b 3d cb bf be e4 05 3f
       1.3277221 -1.4934901 -1.5878099 0.5230216
0000d0 dd 6d a9 3f 9a c8 de 40 7a 97 bf 3f 40 df 53 40
       1.3236653 6.9619875 1.4968102 3.310501
0000e0 01 a1 1f 3e d2 9c 18 3e fd 5b 28 bf 89 50 86 40
       0.15588762 0.14903572 -0.6576536 4.197331
0000f0 f1 24 c5 3f 0f 41 1f bf ae c9 80 bf 0c 46 06 bf
       1.5401899 -0.62208647 -1.0061548 -0.52450633
000100 fa b4 e3 3e 35 ad b2 c0 3d c6 70 3f 33 22 bb 3e
       0.44474012 -5.5836434 0.9405249 0.3654953
000110 9e e8 71 be ec 36 ab bf 38 bd 08 bf 9e bf d7 be
       -0.23623893 -1.3376136 -0.53413725 -0.4213838
000120 15 a4 ba 3f b2 f0 f8 be 18 eb 8a 40 9f 2c 8b 3e
       1.4581324 -0.48621136 4.341198 0.2718248
000130 8c c7 16 3f 57 fc 7f bf d4 63 ac 3f 7b 96 82 bf
       0.58898234 -0.99994415 1.3467965 -1.0202173
000140 cb f3 73 bf 69 12 b5 40 93 76 19 40 57 a5 c9 3f
       -0.95293874 5.6584973 2.3978622 1.5753583
000150 99 9f 08 3e 39 ef bc be c2 67 a0 3f 1b 92 1c 40
       0.13342132 -0.36901262 1.2531664 2.4464176
000160 8e 7f 2c c0 a6 35 9c 3f 20 1a d6 3e 28 d2 b7 be
       -2.6952853 1.2203872 0.41816807 -0.35902524
000170 2b 05 94 c0 40 82 31 40 c3 a4 48 c0 43 c3 ee be
       -4.625631 2.7735748 -3.1350563 -0.46633348
000180 2c 00 51 bf 73 2a c0 bf 74 7f 88 3f 1f 4d d6 be
       -0.8164089 -1.5012954 1.0663896 -0.41855714
000190 b7 b8 f1 3f 33 4b 1b 40 be fc 28 40 eb a6 5f c0
       1.8884495 2.4264648 2.6404262 -3.4945629
0001a0 50 7b 9f 40 da 19 95 3f d0 6d 02 c0 f6 41 8a 40
       4.983803 1.1648514 -2.0379524 4.320552
0001b0 33 36 39 c0 6b 8a 49 3e 9b 22 22 bc 06 1d ea 3f
       -2.893933 0.19681709 -0.009895946 1.8290107
0001c0 72 dd 83 40 7d 1a 97 3f 4a ee 10 3f a4 dd 5e 3f
       4.120782 1.1804959 0.566136 0.87056947
0001d0 e8 6e a4 be e8 68 90 3f 10 ea 67 3f c3 d5 97 3e
       -0.32115865 1.1282015 0.90591526 0.29655275
0001e0 14 1d 3a c0 e5 f0 6a bf bc f6 a8 bf 6c 7e 97 3d
       -2.9080248 -0.91773826 -1.3200297 0.0739716
0001f0 e5 f7 9b 3e e9 91 8d 3f 86 ae fb 3f d1 6d a6 bf
       0.30462566 1.1060153 1.9662635 -1.3002263
000200 35 8c 04 3f c4 df 52 3f e8 d4 00 40 ff fd f3 3f
       0.5177644 0.8237269 2.0129948 1.9061888
000210 ba 29 48 c0 91 e3 ac be 55 fc 36 40 ed 57 ac 3f
       -3.1275468 -0.3376737 2.8591511 1.3464333
000220 9c 58 09 bf 74 5a d3 3e 2a 72 50 bf 04 ac 31 40
       -0.5365083 0.41279948 -0.814242 2.776124
000230 d2 45 01 40 b9 55 03 c0 fb 9b 62 40 72 5e cd be
       2.0198865 -2.052107 3.5407703 -0.4011112
000240 2d 26 b6 bc ad e2 ca bf 39 ea d9 3f 3a a6 ba 3f
       -0.022235 -1.5850426 1.7024604 1.4581978
000250 ae d6 91 3e 32 86 c1 3f c5 82 3b 40 2c 52 f2 3e
       0.284841 1.5119078 2.9298565 0.47328317
000260 54 09 dd be 61 32 6b bf de 2a 84 bf 19 9a cf 3f
       -0.4317118 -0.9187375 -1.0325582 1.6218902
000270 ad 5d c8 bf d0 24 bc 3f 08 e4 d1 bf f7 aa 4d be
       -1.5653588 1.4698734 -1.6397715 -0.20084749
000280 59 3c 02 c0 0d 54 03 40 00 05 cf 3e 4e 16 9d 3f
       -2.0349333 2.052005 0.40433502 1.2272432
000290 f7 ee 8e be 9e c0 ac 3f 12 32 4e bf c3 9c 0e 40
       -0.2791669 1.3496282 -0.8054515 2.228318
0002a0 c3 83 bd bf 6b b3 37 40 4f f2 8a 40 56 66 3b c0
       -1.4805835 2.8703258 4.3420787 -2.928121
0002b0 54 7a a0 3e 8b f2 2a be 63 0c b4 bf 3d 70 cf be
       0.3134333 -0.16694085 -1.406628 -0.4051532
0002c0 54 0e d7 3f 95 23 b8 c0 68 4f 9d bf 40 da dd 3f
       1.6801248 -5.7543435 -1.2289858 1.733223
0002d0 12 4f f6 3f a8 fa e5 bf c3 ff cb 3f c3 e9 83 c0
       1.924288 -1.7967119 1.5937427 -4.1222854
0002e0 b4 a7 a5 bf 9d d1 06 40 6c 3a 85 c0 47 48 18 3f
       -1.2941804 2.1065438 -4.1633816 0.59485286
0002f0 f4 bb 2f be bd 8b da bf a6 b7 b3 bf 63 36 d3 3f
       -0.17161542 -1.7073895 -1.404042 1.6500973
000300 2e 9d 80 3e fe ef 54 c0 de 03 86 bf 55 f2 f8 3e
       0.2511992 -3.327148 -1.046993 0.48622385
000310 b3 66 28 bf 53 8f b6 3f 5e 1a 54 3f 54 9b c1 3e
       -0.65781707 1.4262489 0.82852733 0.37813818
000320 3a 59 f5 3f 7b ab 3e c0 e3 86 1d c0 45 56 9f bf
       1.9167855 -2.9792163 -2.4613578 -1.2448202
000330 ef cc 8e c0 a9 52 e9 bf d2 ad 89 3f 1a ff 4e 3f
       -4.4625163 -1.8228351 1.0756171 0.80858004
000340 4a 95 ea be f2 c6 da 3f 3d e1 73 be e2 32 03 40
       -0.45817024 1.7091963 -0.2381639 2.0499806
000350 12 73 11 c0 b4 64 0b bf f7 1b 32 3e 95 f3 cc bf
       -2.2726483 -0.54450536 0.1739348 -1.6011835
000360 4a ae 2b 3f f8 0c df 40 99 95 1c 40 0e 16 73 40
       0.6706282 6.970333 2.4466307 3.798221
000370 2e cc 17 40 fc aa 29 40 30 87 26 c0 f9 ce 04 3f
       2.3718371 2.651061 -2.6020012 0.51878315
000380 17 a1 14 c0 66 30 e4 be ab b2 24 c0 d1 82 68 40
       -2.3223321 -0.44568175 -2.573405 3.6329844
000390 45 e5 07 c0 ba 85 f2 3f f4 bf 83 c0 fa 24 39 c0
       -2.1233685 1.894706 -4.117182 -2.8928819
0003a0 74 99 cd 3f 06 8e f6 bf cf 53 f1 bf 23 cf d3 be
       1.6062455 -1.9262092 -1.8853701 -0.4136897
0003b0 2c c4 49 3f fd 8b b5 3f 9e b5 d3 be 1e 04 d1 bf
       0.7881496 1.4183346 -0.413495 -1.6329381
0003c0 34 26 a8 3f 0e ec 62 40 43 b6 f5 bf fe d2 30 3e
       1.3136659 3.5456576 -1.9196247 0.17267987
0003d0 7a 24 d6 bf 44 32 7c bf 3e 2f 22 c0 e5 ff 4e bf
       -1.6729882 -0.985142 -2.5341334 -0.80859214
0003e0 cd fa 5e 3d dc 00 5b c0 e7 df 45 bd 3e 9d b9 bf
       0.0544384 -3.4219275 -0.048309233 -1.4501112
0003f0 44 48 89 bf b3 4f b2 3f 25 db c6 3f f3 93 fb 3f
       -1.0725179 1.3930572 1.5535628 1.9654526

bias f4 [128]
000000 43 1e 1e c0 2b 25 5a bf be ed 77 c0 65 e3 4f c0
       -2.470597 -0.85212964 -3.8738856 -3.248254
000010 bc 1d 52 c0 73 cd 5c c0 9e e6 d6 bf 1f 0d 15 c0
       -3.2830648 -3.4500396 -1.6789129 -2.3289258
000020 c0 7b a1 bf 4c 1e 67 c0 d1 13 c9 c0 76 d5 26 bf
       -1.261589 -3.6112242 -6.283669 -0.65169466
000030 ee 67 1f c0 95 a3 d6 be e2 78 f9 bf 38 c1 ac bf
       -2.4907184 -0.41921678 -1.9490016 -1.3496466
000040 78 84 44 be 3c 38 5a bf 55 98 b8 bf da bf a2 bf
       -0.19191158 -0.85242057 -1.4421488 -1.2714798
000050 38 73 be bf 7c 95 ec be ff ba 58 bd 1f b9 7e c0
       -1.4878912 -0.46207798 -0.05291271 -3.980049
000060 fa bc 7d c0 97 ec f6 bf 57 ba 65 bf c1 4d 9d bf
       -3.9646592 -1.9290951 -0.8973746 -1.2289354
000070 81 0c 8a c0 1b 31 ae bf 2c 0b 8d bf 77 8f 89 c0
       -4.3140264 -1.3608736 -1.1019034 -4.298763
000080 f0 da 69 c0 82 72 70 c0 05 b8 38 c0 28 2f c0 bf
       -3.653988 -3.756989 -2.8862317 -1.5014391
000090 cc 10 ba 3d 3b 5b 14 c0 51 b1 4f c0 48 8f 10 c0
       0.09085235 -2.3180683 -3.2451975 -2.2587452
0000a0 ca ab 2a bf 57 a8 29 c0 07 19 09 c0 77 b1 93 c0
       -0.6666838 -2.6508996 -2.1421525 -4.615413
0000b0 f6 e2 35 c0 4e 75 1b c0 b5 5a 8e bf c3 49 3b c0
       -2.8419776 -2.4290347 -1.1121432 -2.926377
0000c0 b5 0d 9f c0 6c a1 28 c0 aa 09 ec bf ec 47 c7 bf
       -4.970423 -2.6348524 -1.8440449 -1.5568824
0000d0 aa 32 32 c0 82 a7 90 bf cc d6 5f c0 60 69 c4 c0
       -2.7843423 -1.1301119 -3.4974852 -6.137863
0000e0 d5 59 98 bf 07 60 3a c0 4a fe 8f c0 db 70 97 3c
       -1.1902415 -2.912111 -4.499791 0.01848643
0000f0 3a cf a4 c0 87 2b e8 bf 30 e5 ef bf 31 ad 2c c0
       -5.150296 -1.8138283 -1.8741817 -2.6980708
000100 cb ed b5 c0 4d 79 d1 be 4a 74 ac c0 47 32 f2 bf
       -5.6852775 -0.40912858 -5.3891954 -1.8921593
000110 7b b9 38 c0 b5 78 5a bf 50 81 a3 c0 b9 4f 42 be
       -2.8863208 -0.85340434 -5.109535 -0.18975724
000120 27 12 63 bf b7 aa 6a c0 85 15 ab c0 ca 69 9a c0
       -0.88699573 -3.6666696 -5.346377 -4.8254137
000130 52 ee 5a c0 0b 63 83 c0 ee fc 83 be f3 99 bd bf
       -3.420796 -4.10584 -0.25778908 -1.4812607
000140 9c 95 35 c0 ca c7 40 c0 f0 e9 37 c0 ca 7e 44 3e
       -2.8372564 -3.0121942 -2.8736534 0.19188991
000150 76 1b 6e c0 11 e6 62 c0 32 be 8d c0 94 c7 4a c0
       -3.720426 -3.5452921 -4.429467 -3.1684313
000160 10 ae 52 c0 ab 81 9e bf 9c 2c 97 c0 09 6e 0c c0
       -3.291874 -1.2383322 -4.7241955 -2.194216
000170 a3 73 29 c0 da aa 84 c0 65 52 1a c0 23 5f 8d c0
       -2.647683 -4.145856 -2.411279 -4.4178634
000180 07 e6 77 bf 36 a5 42 c0 2a c6 01 bf 2d 3d fe bf
       -0.9683537 -3.0413337 -0.50693 -1.9862419
000190 c2 38 12 c0 8d 47 1c 3d 7f 0d a3 c0 c5 f2 03 c0
       -2.2847142 0.038154174 -5.0953975 -2.0616925
0001a0 ee 82 64 c0 54 3b 52 c0 2c 43 4e c0 ab 07 97 c0
       -3.5704913 -3.284871 -3.2228498 -4.719686
0001b0 1c c4 c5 bf cf 5e 95 c0 9f d8 af bf 98 48 05 3e
       -1.5450473 -4.6678233 -1.3737983 0.13015974
0001c0 db b9 23 c0 c2 01 7a c0 0f 75 16 c0 68 0e 1e c0
       -2.5582187 -3.9063573 -2.3508947 -2.4696293
0001d0 b8 3b a6 c0 e2 b5 3e c0 5a 02 59 c0 9c 7a 19 c0
       -5.19479 -2.9798512 -3.3907685 -2.3981085
0001e0 e0 d5 34 c0 28 e3 16 c0 3a 3f 0b bf f6 d1 20 c0
       -2.825554 -2.3576145 -0.5439335 -2.512815
0001f0 45 91 9a c0 61 69 4d c0 88 4e 55 c0 d4 d2 f4 bf
       -4.830233 -3.2095568 -3.3329182 -1.912684

weight f4 [64, 128]
000000 79 53 c3 3e f6 37 d2 bf 50 8d f9 bf 96 fe e8 3d
       0.38149622 -1.6423328 -1.949625 0.113766834
000010 39 8c 88 3f e2 2e f0 bf a3 4e 4f c0 fd 2d a6 3f
       1.0667793 -1.8764307 -3.2391746 1.2982785
000020 de c2 a5 bf 5e e8 85 3e 1c a6 bd bf 39 ce 04 40
       -1.2950094 0.26153845 -1.4816318 2.0750868
000030 8d 82 54 c0 a1 8c 90 bf 1c f9 82 bf 5a 24 fa 3f
       -3.3204682 -1.1292917 -1.0232272 1.9542344
000040 eb ca d3 3e 78 d4 47 c0 73 84 81 bf 97 ba 0c 3f
       0.41365752 -3.122343 -1.0118545 0.54972214
000050 bd 8f c1 bf c1 66 e9 3f 4f 95 8c c0 3c e0 84 3f
       -1.512199 1.8234483 -4.393226 1.0380931
000060 a0 29 84 bf 90 b7 0c c0 bd 12 af 3d 50 e0 a6 3d
       -1.0325203 -2.1987038 0.08548496 0.08148253
000070 c4 65 c2 3f f9 83 07 40 19 61 a3 bf db 33 ee 3e
       1.5187306 2.11743 -1.2764007 0.46523938
000080 6e 92 a1 bf 34 de 55 3f 8f d2 15 c0 97 c2 2b bf
       -1.2622812 0.8354218 -2.3409765 -0.67093796
000090 9e 30 d2 3e 10 4d f8 bd dc 63 0f c0 d2 1a 03 40
       0.41052717 -0.121240735 -2.24047 2.048512
0000a0 80 88 f4 3e 03 17 db 3d 4c 37 90 bf 48 1f 78 be
       0.4776039 0.106977485 -1.1266875 -0.24230683
0000b0 cd 24 02 40 03 51 15 c0 be ac 05 c0 a4 9b 48 3f
       2.0334961 -2.3330696 -2.0886683 0.7836249
0000c0 f7 7f bf bf 8e a1 0a c0 a2 9b 6c c0 7b 4c 83 bf
       -1.4960927 -2.1661105 -3.696999 -1.0257715
0000d0 8b 10 84 bf d0 b1 8b bf b6 35 6f bf d8 0b ae 3e
       -1.0317549 -1.0913639 -0.9344133 0.3399341
0000e0 38 c1 3e c0 46 ce 23 c0 c8 ab 19 3e 2f 56 c3 3f
       -2.9805431 -2.559465 0.15006936 1.5260676
0000f0 7b 5c a0 3f d0 4c cc 3e 8b 69 e6 3f 71 a2 e4 bf
       1.2528223 0.39902353 1.8000959 -1.7862073
000100 7f bf 79 3e bb 19 37 c0 1f 1a 01 bf 26 6b fb 3f
       0.24389456 -2.8609455 -0.5043048 1.9642074
000110 89 14 b3 bf 88 25 70 bf fa df 88 3f 3a 18 81 bf
       -1.3990642 -0.9380727 1.0693352 -1.0085518
000120 10 23 10 c0 2e 1d 97 3f f0 bc 22 40 31 9a 97 3f
       -2.25214 1.180578 2.5427818 1.184393
000130 28 18 69 bf e8 fb 94 bf de 91 95 3f cb 9c 7c be
       -0.91052485 -1.1639376 1.168514 -0.24669187
000140 e6 e8 87 bf db e7 3a c0 71 bd eb bf 9d 20 9a bf
       -1.061795 -2.9204013 -1.8417188 -1.2041203
000150 0f 57 69 3f 3e 9c 06 c0 b9 9f 00 40 d8 56 e1 bf
       0.91148466 -2.1032863 2.0097487 -1.7604628
000160 8b d0 10 3d d7 e6 ba be 53 96 b7 3f 6d b1 c4 bd
       0.035355132 -0.36504242 1.434275 -0.09604154
000170 f1 f2 1b bf f9 56 a1 3f d6 ed 14 bf 13 9a 76 3f
       -0.60917574 1.2604667 -0.5817541 0.9632885
000180 27 7e 83 3f de e1 78 bf 13 31 d6 be e8 09 fc 3e
       1.0272874 -0.97219646 -0.41834316 0.49226308
000190 f6 82 46 bf a8 9f 5e c0 60 8d 9e bf d1 46 05 c0
       -0.7754358 -3.4784946 -1.2386894 -2.0824473
0001a0 77 ef 13 bf c4 01 5a 3f 2e 0b 3e 40 9f 79 73 bf
       -0.5778727 0.85158944 2.9694324 -0.95107454
0001b0 66 19 22 bf 46 14 35 bf c7 5a 0a 40 5b c8 20 c0
       -0.63320005 -0.7073406 2.1617906 -2.5122287
0001c0 58 fd 9c bf fb 46 be 3f 4b a3 0d 3f 3c 17 58 3f
       -1.2264814 1.4865412 0.5532729 0.8441045
0001d0 32 64 86 3e 5b 34 88 bf b8 99 bb 3f 68 1a a5 be
       0.26248318 -1.0640978 1.4656286 -0.3224671
0001e0 fd eb e2 3e 89 f0 2d c0 c1 1d 9b bf 83 df 82 3f
       0.4432067 -2.717806 -1.2118455 1.022446
0001f0 d8 e3 a9 bf 59 9e 06 bf 43 2a 97 bf 28 c8 58 c0
       -1.3272657 -0.5258537 -1.1809772 -3.3872166
000200 49 84 2f 40 59 e9 b0 bf be 6f 2c 3f 1e 2f cf 3f
       2.742449 -1.3821212 0.67358005 1.6186254
000210 52 1e 60 bf 29 cd 28 3f 0f 1d 01 c0 0f dc 2e 3f
       -0.87546265 0.6593805 -2.0173986 0.6830453
000220 3d 6c aa bf 32 50 67 3f 61 ad 7b 3d 45 53 3f 40
       -1.3314282 0.90356743 0.061444644 2.9894574
000230 f0 e7 25 3f 95 bd c1 3f 63 fb a0 3f a9 6a 13 40
       0.64807034 1.5135981 1.2576717 2.303385
000240 5e 55 16 40 e6 61 81 c0 cf 9e 3d 40 6e 54 e5 bf
       2.3489604 -4.0432005 2.962818 -1.7916391
000250 ce 27 51 40 44 92 02 3f d5 36 35 3f 8e 77 c6 bf
       3.2680545 0.51004434 0.7078679 -1.5505235
000260 53 79 2b 3f 28 0c 24 40 52 72 0f 3e 7e e8 f8 bf
       0.66982 2.563242 0.14008453 -1.9445951
000270 74 75 5d 3f c6 25 ba bf b3 0f 2f 40 7d 15 6b bf
       0.86507344 -1.4542778 2.7353332 -0.91829664
000280 bf 83 92 be ed 11 ee bf 52 29 89 bf 9f 00 62 40
       -0.2861614 -1.859922 -1.0715735 3.531288
000290 b1 d9 db bf e0 58 05 c0 53 13 9b 3f 3e 98 1b 40
       -1.7175809 -2.0835495 1.2115272 2.4311671
0002a0 2f 4d b6 3f d3 ad fd bf b3 e6 56 3f 77 14 40 40
       1.4242305 -1.9818672 0.8394577 3.001249
0002b0 ae 8d e4 3f ae 32 3b c0 6f c8 3b c0 f1 8e 74 bf
       1.7855737 -2.9249682 -2.9341085 -0.9553061
0002c0 c9 d8 77 40 9d b4 d5 bf 4b cd 8a bf ae fe c2 bf
       3.8726065 -1.6695744 -1.08439 -1.5233972
0002d0 c6 28 64 bf ea da e8 be 13 7f 82 bf f8 98 f7 be
       -0.89124715 -0.45479518 -1.019503 -0.48358893
0002e0 7a ac 50 c0 04 c4 73 bf fb 60 59 c0 20 26 48 40
       -3.2605271 -0.9522097 -3.3965442 3.127327
0002f0 32 da 56 3f b1 5b 3a 40 72 81 1d c0 5a 18 ce 3f
       0.8392669 2.9118464 -2.4610257 1.6101182
000300 50 09 7a 40 2a 3f 34 bd 5f e8 45 3f 6d 65 ea bf
       3.9068184 -0.04400555 0.77307695 -1.8312203
000310 7f 25 3b bf d3 93 10 3d 47 ad 33 3e 80 cf 64 bf
       -0.7310409 0.035297226 0.17546569 -0.8937912
000320 79 ac 81 bf 36 a8 13 40 e1 3c 70 40 2a e9 e2 bf
       -1.013076 2.3071418 3.7537158 -1.7727406
000330 9b 2e 27 3f 65 41 da 3e 6e af 33 c0 ce 8a de bd
       0.6530549 0.42628017 -2.8075824 -0.10866319
000340 d6 ee 02 3f 3a 9a 9e 3f 04 71 48 3e d5 35 19 c0
       0.51145685 1.2390816 0.19574362 -2.3939106
000350 d0 db 59 c0 95 46 46 bf 34 24 0a bd 1c 2b bc 3f
       -3.4040413 -0.7745145 -0.033725932 1.4700656
000360 82 78 81 3f 7a 10 81 40 e7 e2 a3 3f 66 a0 02 c0
       1.0114901 4.0332613 1.280362 -2.04104
000370 e0 c6 e1 bd 20 73 b7 3e ce 30 72 3f 7b 1f 81 40
       -0.110242605 0.3583002 0.9460572 4.035093
000380 7f c7 e6 bf da d3 d3 3f 67 8c 89 bf b3 23 5b 40
       -1.8029631 1.6549027 -1.0745972 3.424054
000390 13 a4 95 bf 7a bb 3d be e4 31 fc bf b2 ac 9e bf
       -1.1690696 -0.18528548 -1.9702725 -1.2396452
0003a0 b6 15 a9 bf 1c 44 9d 3f 63 18 82 bf 6e 4e c9 bf
       -1.3209751 1.228641 -1.0163692 -1.572706
0003b0 35 7c 4b bd d2 17 e5 be a0 19 08 40 ec 1f 84 bf
       -0.049679 -0.44744736 2.126564 -1.0322242
0003c0 ed 22 86 bf 18 b5 4d 3f 1d 37 d8 bf 82 fa b8 bf
       -1.0479409 0.8035445 -1.6891819 -1.4451449
0003d0 14 3b 22 c0 46 12 22 bf d9 c5 ac bf c8 20 e2 3f
       -2.5348558 -0.63309133 -1.3497878 1.7666254
0003e0 3b d6 0e c0 aa 83 33 c0 2a f4 b9 bf d7 be 47 3f
       -2.2318256 -2.8049111 -1.4527638 0.78025573
0003f0 22 e6 05 c0 5f 7c 8d 40 2d 05 be 3e d4 f3 69 3f
       -2.0921712 4.421432 0.37113324 0.9138768

bias f4 [64]
000000 a1 ac 44 c0 07 51 86 bd 62 36 a8 bf ee eb 83 bf
       -3.0730364 -0.065584235 -1.3141596 -1.0306375
000010 45 15 d4 bf 89 05 8f bf 42 b9 ea 3e bf 16 8d bd
       -1.6568991 -1.1173564 0.45844465 -0.06889104
000020 ac 13 74 bf 5f 19 80 bf 96 e0 82 bf 48 31 51 be
       -0.95342517 -1.0007743 -1.0224788 -0.20428956
000030 50 22 59 be 41 dc 12 40 ca 53 19 be ce 5e 04 bf
       -0.21204495 2.2946932 -0.14973369 -0.5170716
000040 4a 26 1d be 19 31 bc bf 10 31 d2 bd 91 de 94 3f
       -0.15346637 -1.4702483 -0.10263264 1.1630422
000050 13 c3 4e be 7b 0d 68 3e 82 f7 0c c0 a8 7e 87 bf
       -0.20191602 0.22661392 -2.2026067 -1.0585527
000060 0c 66 12 bf 3c ff 57 3f 54 59 7f 3e a4 75 82 be
       -0.5718696 0.8437383 0.2493642 -0.25480378
000070 21 ed 80 bf 97 47 91 3d dd aa c3 3f 85 92 1c 3f
       -1.0072366 0.07093733 1.5286518 0.6116107
000080 2d c5 9d 3f fb a6 6c 3f 85 1f 24 bf 9e f1 ad be
       1.2325798 0.9244229 -0.64110595 -0.33973402
000090 82 2a 52 be 33 4e 09 bf 83 ab 55 bf 71 81 71 be
       -0.20524028 -0.5363495 -0.8346483 -0.23584534
0000a0 1e 2f 51 3f d6 0f a2 3f 24 e2 f8 3e 8b f9 a6 3e
       0.8171252 1.2661083 0.48610032 0.3261226
0000b0 fa a3 c0 be 2f e7 b3 3f 24 51 5a 3f de b9 1e 3e
       -0.37625104 1.4054927 0.8528006 0.1550059
0000c0 a9 05 02 40 6e 4d 11 3f 42 2e 0f c0 c4 0f 14 bc
       2.0315955 0.56758773 -2.2371984 -0.009036962
0000d0 a2 36 09 3c ac 11 2a bf bc 83 06 bf 15 e8 17 bd
       0.008374842 -0.66433215 -0.5254476 -0.037086565
0000e0 58 8b c8 3f 8b b7 a2 bf 6c 8d b4 bf cc c4 d8 3c
       1.5667524 -1.2712263 -1.4105659 0.026461028
0000f0 2e 2a d8 bf c8 45 96 bf aa 4a b3 bf 15 35 7f bf
       -1.6887872 -1.1740046 -1.4007161 -0.9969037

weight f4 [28, 64]
000000 d8 66 1d 3f 06 c0 3c c0 73 50 e3 bf b8 24 36 c0
       0.6148505 -2.9492202 -1.7758926 -2.8459911
000010 65 43 bf 3e 1e 05 95 3b 04 7e b6 be ca 6a c6 bb
       0.37356105 0.004547729 -0.35643017 -0.0060552107
000020 3c 78 f2 3e 8c 8d e1 3e b8 89 c4 bf a2 66 69 3f
       0.47357357 0.44053304 -1.5354528 0.9117223
000030 01 50 49 40 1f e4 57 bf 57 de 74 bf 97 d2 5c bf
       3.145508 -0.8433246 -0.95651764 -0.86258835
000040 8c f8 8c 3e 08 74 7e be 6a 67 2d 3f 46 90 b7 3e
       0.27533376 -0.2484895 0.6773592 0.3585226
000050 1d 4c f5 bf 55 77 25 3e d8 0a 4a 3e 29 49 5d 3f
       -1.9163853 0.16158803 0.19730699 0.8643976
000060 39 d4 16 c0 a5 28 e3 bf f8 f2 18 3f 06 5c 9b bd
       -2.356703 -1.7746779 0.5974574 -0.075859115
000070 d1 cd 10 bf 47 30 9c 3e 2c 51 69 bf f2 a7 35 40
       -0.5656405 0.30505583 -0.91139483 2.8383756
000080 3e 2c 23 40 c2 41 04 c0 8e 5c 96 bf fe af 10 3e
       2.5495753 -2.0665135 -1.1746995 0.14129636
000090 d7 ae 99 3e 2e ba 9b bf 9a 76 37 3f 54 aa 39 3e
       0.30016205 -1.2166193 0.71665347 0.18131381
0000a0 3c 98 e3 3d 25 63 75 bf fe 00 a9 bf dc 65 88 bf
       0.11113021 -0.9585441 -1.3203428 -1.0656085
0000b0 eb 06 65 bf af 9f b4 bf 88 0a 45 40 8c 81 a9 bd
       -0.8946368 -1.4111232 3.0787678 -0.08276662
0000c0 ae 91 5e 40 c7 9b bd 3f 15 9f e7 be 02 0f 42 3d
       3.4776416 1.4813164 -0.45238557 0.047377594
0000d0 c2 1e 36 40 c4 e0 48 40 f6 f2 46 3f 4e 05 c0 3d
       2.8456273 3.1387186 0.7771448 0.09376012
0000e0 87 2a 3c 40 2a a1 1d 3f 05 d5 ec bf 74 1d 49 be
       2.9400957 0.6157404 -1.8502508 -0.19640142
0000f0 94 96 04 3f 15 22 8d 3f 98 d3 54 bf 69 b2 08 bf
       0.51792264 1.1026026 -0.83135366 -0.5339723
000100 16 15 7c bc 62 14 ce 3c 01 66 91 3d e8 3b 67 3d
       -0.015385887 0.025156204 0.07099534 0.056453615
000110 57 00 2c be 04 2b 92 3d b6 5c 36 bc 86 38 bc bd
       -0.16797005 0.07137111 -0.011130502 -0.091904685
000120 a7 1f 1d 3e 10 86 f5 bd 3a 0d 00 be 1e a5 11 3d
       0.15344106 -0.11988461 -0.12505046 0.03555786
000130 9d a3 a6 3d b6 6a 11 be eb 9d 1d be 37 4b 0e bd
       0.081366755 -0.14200863 -0.15392272 -0.0347397
000140 d1 c3 bf 3d f7 b2 07 be 59 57 d9 bd 75 66 19 be
       0.09363521 -0.13251863 -0.10612363 -0.1498049
000150 e9 9e 7d bd 9d 4a d3 bd b4 07 bb 3d e5 04 3f bd
       -0.061919127 -0.10316966 0.09132329 -0.046635527
000160 2d 3f 92 bd 8b 9a 26 be da bc a2 bd d0 c7 2d be
       -0.07140956 -0.16269891 -0.07946177 -0.16970754
000170 a3 53 14 3b df 80 41 be 6b 1b 0d bd 4f 2f ff 3d
       0.002263286 -0.18896817 -0.034449976 0.12460195
000180 9d fb ae bd 67 a9 05 be 14 5d 33 be d5 79 24 be
       -0.08544085 -0.13052903 -0.17515975 -0.160621
000190 03 fc 6f be 44 18 10 bd 2e 93 60 be 45 8b f4 bd
       -0.23435979 -0.03517939 -0.21931145 -0.11940626
0001a0 17 c5 01 be 3f 92 ba bd 71 06 79 bd 89 19 49 be
       -0.1267284 -0.091099255 -0.06079716 -0.19638647
0001b0 0c 39 3a be f8 ef f8 bd f0 7b 2a bc 26 36 3d bb
       -0.18185824 -0.121551454 -0.010405526 -0.0028871386
0001c0 f8 4c dc 3d 80 45 43 be df 01 74 bd af ca 59 bd
       0.10756868 -0.19069481 -0.059572097 -0.05317181
0001d0 67 aa 10 be f8 09 ba bd 3c 29 2b be 33 16 89 bd
       -0.14127503 -0.09083933 -0.16714948 -0.06693687
0001e0 32 56 d8 3d bb 94 51 be 86 61 f7 ba 5b 6b 7c 3d
       0.105633155 -0.20466892 -0.0018873669 0.06162582
0001f0 19 4c ea bb df 1b 08 be bd a1 db 3c 0b 4a 4c 3b
       -0.007150185 -0.13291882 0.026810521 0.0031172063
000200 92 5f 40 c0 79 b2 bb 3d f0 9c b4 bf 05 c3 db bf
       -3.0058331 0.091649 -1.4110394 -1.716889
000210 ba b2 3e 40 e8 c9 33 3f fa ad c1 bf ee 4f 3c be
       2.9796586 0.7022996 -1.5131218 -0.18389866
000220 ad ba 3e 3f 49 a2 0b c0 b4 f6 02 40 d8 38 df 3d
       0.74503595 -2.18178 2.0463076 0.10899514
000230 3e d8 a1 3d 30 42 bc be 25 e0 81 bf f4 40 7e 3f
       0.07902573 -0.36769247 -1.0146528 0.9931786
000240 19 3b 90 bf ed 87 c3 bc 8f 02 18 bf e7 bf 57 bf
       -1.1268035 -0.023868525 -0.59378904 -0.84277195
000250 d1 ef 5a 40 e4 da e5 3d e2 68 ca bd 49 38 56 40
       3.4208872 0.11223391 -0.09883286 3.3471854
000260 a9 72 c5 3e 26 46 3e c0 75 d3 d8 3d 22 4e c7 3f
       0.3856404 -2.9730315 0.10587207 1.5570719
000270 f8 d5 d7 3f be aa 5b 3f 1a 1c 2c bf a6 c0 70 be
       1.6862173 0.85807407 -0.6723038 -0.2351099
000280 7a 1d 54 3f 0a d8 eb 3e 6f f6 e4 3e 27 a6 92 3f
       0.8285748 0.46063262 0.44719264 1.1456956
000290 aa 8a 2b 3f 3a e0 29 3f 04 14 0f bf a5 67 0c c0
       0.6700846 0.6635777 -0.55889916 -2.193826
0002a0 d5 b0 95 3b 4a ae 81 bf d4 bf 0b bf 4e 51 1c 40
       0.004568199 -1.0131314 -0.5458958 2.4424624
0002b0 cc 33 1e bf ac e0 ca 3b 7e 26 e9 3f b6 02 05 c0
       -0.61797786 0.0061913338 1.8214872 -2.0782905
0002c0 2e da 11 3e e1 c5 f1 bf c1 17 92 bf c1 e1 52 3d
       0.14243385 -1.8888513 -1.1413499 0.051484827
0002d0 a2 a9 b2 3e 54 1f 2e 40 68 11 ed 3e 8e 34 c0 3d
       0.34895045 2.720662 0.46302342 0.09385024
0002e0 c6 a8 94 bf 12 cb 26 bf 1d 2a 8a 3f b5 69 e0 bf
       -1.1614006 -0.6515361 1.0794102 -1.7532259
0002f0 f4 32 9d 3e 61 7c 34 40 82 c9 33 3e 55 70 a7 be
       0.30702937 2.8200915 0.17557338 -0.3270289
000300 1f 31 ba bf c9 44 84 bf 70 70 01 bf 1d bc 22 c0
       -1.454624 -1.0333492 -0.5056219 -2.5427315
000310 dd b0 a4 be d5 1a 9e bd 12 24 2b 40 d6 da 29 be
       -0.32166186 -0.077199616 2.6740766 -0.16587386
000320 0f 65 4e bf 03 03 bc bf 83 8e df bf 20 51 14 40
       -0.80622953 -1.4688419 -1.7465366 2.3174515
000330 c0 18 2f bf 24 02 dc 3f b6 0a 00 c0 4c 04 e7 bf
       -0.6839714 1.7188153 -2.0006537 -1.8048186
000340 3b 5d fe 3e 8d 3e 0b 3f f4 91 1b 40 65 3c 2b bf
       0.49680504 0.5439232 2.4307833 -0.6688903
000350 bf bd 50 bf 35 82 ec bf 57 1c 65 3e bc b4 0c 3f
       -0.8153953 -1.8477236 0.22374092 0.5496328
000360 3a 0e 19 3f f3 ac a8 bf 2f a3 4f 3f 0d 7d d8 bf
       0.59787333 -1.317778 0.81108373 -1.6913162
000370 d7 f9 a7 bf 62 9c a4 3e ea ab ba be c7 bd e7 bf
       -1.312312 0.3215056 -0.36459285 -1.810479
000380 1a 78 29 c0 86 8e 4a 40 8e 2f a4 bf 6e 89 ab bf
       -2.6479554 3.164949 -1.2827013 -1.3401315
000390 d6 5f 2f 40 cb 5c 30 bd a6 05 16 40 1d 9a d4 3f
       2.7402244 -0.043057244 2.3440948 1.6609532
0003a0 db 7d 34 3e e1 e8 d0 3f c0 7b c8 3f 7c d9 86 bf
       0.17626135 1.6321069 1.5662766 -1.0535121
0003b0 1a 4d ae bf 8b 51 cc 3f ce 02 30 40 c7 3a d0 bf
       -1.361728 1.5962385 2.7501712 -1.6267937
0003c0 ff 3a f1 3e 25 b8 0b 3f 1e ce 30 c0 c4 42 ca 3c
       0.47115323 0.5457786 -2.7625804 0.02469004
0003d0 7c 60 27 c0 4c 20 4d bf 3e 8f d7 bf c3 04 1c 3d
       -2.615264 -0.80127406 -1.6840589 0.03809048
0003e0 72 fd 85 be 46 fe d6 bf 06 0a 22 3f 87 af 0a c0
       -0.26169926 -1.6796348 0.63296545 -2.1669633
0003f0 09 3e 3b bf 36 d6 dd 3e ff c9 26 bf a7 2d 28 3f
       -0.73141533 0.43327492 -0.6515197 0.6569466

bias f4 [28]
000000 dd 86 b9 3f a6 36 40 be 60 d7 18 bd fc be 08 3f
       1.4494282 -0.18770847 -0.037314773 0.5341642
000010 54 4a a5 3f 6c ab d7 bc 65 13 e4 bd 63 b1 fa 3c
       1.2913308 -0.026326858 -0.11136512 0.030602163
000020 a6 0a 0f bf a4 13 8c bd 5f 32 16 40 fc c6 d1 bc
       -0.55875623 -0.06839684 2.3468244 -0.025607578
000030 a5 61 31 3f f9 c5 f8 3f 06 6f 1b 3e 22 01 46 bd
       0.6928962 1.9435416 0.15179071 -0.048340924
000040 e2 36 1b be a6 db b7 bd a2 38 ac 3f 5e cd 46 bd
       -0.15157655 -0.089774415 1.3454783 -0.048535697
000050 9b 3f df 3f 1a 06 10 bf e1 e1 82 bd b6 b7 11 be
       1.7441286 -0.5625931 -0.06390739 -0.14230236
000060 b7 5b dc 3f df 32 d5 3e 73 a7 10 40 0a 3e a5 3e
       1.7215489 0.41640374 2.2602203 0.32273895
