mlruns/0/3eec581c973748feaf0219b50e128c62/artifacts/model/data/model.pth (torch, 340328 bytes, 8 tensors)

weight f4 [200, 284]
00000000: d080 553f c428 97be 1777 913e 3d51 46bf
00000010: 045a 273d 4ac7 553f c48f a1be 5984 d9be
00000020: e9a9 483f 3380 3d3e e1bf 163e f008 1c3d
00000030: 6722 95be 5686 e5be eda8 14bf 0cf6 ac3e
00000040: 63b2 1d3f 6929 4ebf a9fe 2ebf 704c 253f
00000050: e7f6 4ebf 5fcc 5abe c567 513f 329a 59bf
00000060: 65f9 40be fa34 393f a76d 49bf c2f8 56bf
00000070: 9d71 33bf d306 4d3f bf33 163f f562 27bf
00000080: 7b19 df3e 1982 1ebf de8a 4b3f 2342 5cbf
00000090: 303d 283f 872e 44bf c3c7 1f3f 1a04 3ebe
000000a0: 730a 39bf 83f8 a1bd 80d0 c13e c398 f73d
000000b0: ebde b5be 9ea1 81be 6076 3dbf bc56 943d
000000c0: deba f13e 16a5 443f ffbc d43e df99 40bf
000000d0: f9d3 5e3f a7a5 9d3e 0886 393f 19c2 913e
000000e0: 32e3 893e 1888 bdbe 83e4 da3e 8f38 32bf
000000f0: ecc3 4cbf 5e4a afbd a416 49bf a6fc 243e
00000100: 4172 3ebe 356e a73b 5734 463f 0b87 37bf
00000110: 8738 65bf aa0c 57be 4559 85be 49e4 4bbf
00000120: 88c9 313f 9abb 0f3f 4052 de3d cc49 6dbe
00000130: 32cd 3d3f 39b9 9abe b627 3abf 5bde d23e
00000140: 6298 40bf 7d8c 4dbf e611 2fbf 1599 0e3d
00000150: ee0e 573f d84e 563e 9675 3b3f a565 63bf
00000160: ac74 b3be 0ed5 3e3f 58c7 053f c03c a1be
00000170: 9a51 55bf 7189 703e fc46 483f eed6 f7bd
00000180: 821b 47be 28a0 0ebf 999e 48be 22b1 8fbe
00000190: 370b 92be 4a46 223f 6151 26bf 868d 313f
000001a0: 1490 503f 62cd d43e e5d0 273f 61b6 9bbe
000001b0: f14e a1be 29fa 37bf a8ce 313e 0df4 4ebf
000001c0: f035 573f 93a3 183f fe9b df3e 40d9 44bf
000001d0: 6774 6e3e 0b02 553f 4e71 87be 8f5f d1be
000001e0: 3cf7 5dbf 06a7 02bf caee 65bf b0d5 323f
000001f0: a589 4e3f 8aec 5f3e 4d11 53bf 3609 6cbe
00000200: 7d01 5a3f 094b 8ebe 27be 4abe cad1 093f
00000210: b39b 47bf bea6 ad3d ef2b 31bf 018b 4fbf
00000220: cc35 083c e3b9 44bf c121 cb3d 83f2 5e3f
00000230: 9818 c73e a788 813e cde6 073d ed13 4bbd
00000240: 080f 1dbf b64e 043f 5e40 e5be c1e4 38bf
00000250: 5ead 2e3f 97f8 273f d32b a7be ccfd 41bf
00000260: fd53 03be 119f b3bd 4295 60bd 86d9 c93d
00000270: ead3 9abe 1368 363f dbd2 563f f103 543f
00000280: c39a 14bd b6a1 33bf 40e0 37bf f5a4 3bbf
00000290: 14a3 523f 332a 06bd 7932 3cbf 7502 5d3f
000002a0: 1675 02be 569d 0f3f 259d 7dbe f67a a6bd
000002b0: 017c 34bf 36ea 3abf 40cb 49bf 03b4 8e3d
000002c0: 7e9f 9fbd d6fb 26bf 2c94 2e3f 8876 0b3e
000002d0: 0e09 34be 2770 403d 3c2e a6bd 9c55 0bbf
000002e0: 2c6e 2b3f f2b1 19bf adfb 41bf 2911 373f
000002f0: f7df cabd 4085 2c3f 86f7 573c ad73 5dbf
00000300: 3aa3 833e 2564 28bf 1e2d 983c 9967 593f
00000310: 3c3d 5fbf e8dc 49bf 0e96 5dbe ce3b 2dbf
00000320: ca90 8ebe 976b f93e 5cb9 253f f154 1d3f
00000330: 173d 223e 07ea 3b3f 98a3 333f 46ea ce3e
00000340: 77f2 313f 4485 4abf 1b94 223f 8556 4d3f
00000350: 356a 2f3f 6732 ed3e 01f8 523d 34ab 013f
00000360: a1fa 51bf e7df 4ebf 460b 1cbf 0b0d 5f3f
00000370: da94 28bf d997 00bf 33e1 9dbe 59b2 32bf
00000380: 831f 42bf 7810 5a3f 4a34 2ebf 9dce 2abf
00000390: 36dd 933e 0778 043e ef90 433f d765 4b3f
000003a0: 69ce 30bf 4e7a 553f 6825 393f ef57 9bbe
000003b0: 8a13 5abf 99e2 403f 152b b7be 7ab0 ffbe
000003c0: 47d8 253f ec66 be3e f706 4f3f 1a57 e4bc
000003d0: 88e3 83be 6c11 3bbb 38ed 4fbf de31 04be
000003e0: f24c c7be d76c 70bd 3fee 573f ecee 0f3f
000003f0: ed92 453f 9524 4b3e f164 36bf fba6 a33e
0.8339968 -0.2952329 0.2841117 -0.7746771 0.04085733 0.83507216 -0.31554997 -0.42483786
0.7838426 0.18505935 0.14721633 0.03809446 -0.2912781 -0.44829053 -0.5807026 0.3378147
0.6160032 -0.80531937 -0.6835733 0.6456976 -0.80845493 -0.21367024 0.81798965 -0.8500091
-0.18845136 0.7234646 -0.7868294 -0.83973324 -0.70095235 0.8008854 0.5867271 -0.6538537
0.43574128 -0.61917263 0.7950877 -0.86038417 0.65718365 -0.76633495 0.6241419 -0.18556252
-0.7228157 -0.07908728 0.37854385 0.12089684 -0.35521635 -0.25318617 -0.7400875 0.07243106
0.4721288 0.768144 0.41550443 -0.7523479 0.87042195 0.30790445 0.7247014 0.28468397
0.2693115 -0.37017894 0.42752466 -0.6961755 -0.79986453 -0.08559106 -0.7855017 0.16112003
-0.18598272 0.0051095732 0.77423614 -0.71690434 -0.8953938 -0.21000925 -0.2604467 -0.7964521
0.6944814 0.5614563 0.10855532 -0.23172683 0.7414123 -0.3021944 -0.72716844 0.4118527
-0.7523252 -0.80292493 -0.68386686 0.03481396 0.84007156 0.20928514 0.73226297 -0.8882697
-0.3504995 0.74543846 0.522573 -0.3149166 -0.8332764 0.2348993 0.78233314 -0.121015415
-0.19444087 -0.5571313 -0.1959175 -0.2806483 -0.2852418 0.633885 -0.64967924 0.6935657
0.81469846 0.41562945 0.6555312 -0.30412582 -0.3150554 -0.7186609 0.1736399 -0.8084114
0.8406668 0.59624594 0.436737 -0.76894 0.23286591 0.8320624 -0.26453632 -0.40893218
-0.86705375 -0.5103611 -0.8981749 0.6985731 0.8067878 0.21867576 -0.82448274 -0.23050389
0.8515852 -0.27791622 -0.197991 0.5383574 -0.77971953 0.08479069 -0.6920766 -0.8107148
0.008313607 -0.7684614 0.099185474 0.87088794 0.3888595 0.2529957 0.033179093 -0.04957955
-0.6135106 0.51682603 -0.4477567 -0.7222405 0.6823329 0.65613693 -0.32650623 -0.7577789
-0.12825008 -0.08770574 -0.054829843 0.098559424 -0.30239803 0.71252555 0.8391549 0.82818514
-0.036280405 -0.70168626 -0.71826553 -0.7329858 0.8228009 -0.032755088 -0.73514515 0.86331874
-0.12739977 0.5609945 -0.24766977 -0.08128922 -0.70501715 -0.7301363 -0.7882576 0.06967928
-0.077940926 -0.6522802 0.6819484 0.13619435 -0.17581579 0.046981957 -0.08114287 -0.54427505
0.66964984 -0.6003715 -0.7577465 0.7151056 -0.09905999 0.67390823 0.013181573 -0.8650463
0.2571047 -0.6577781 0.018576201 0.849237 -0.8720281 -0.788527 -0.21639273 -0.6766938
-0.2784484 0.48714897 0.6473596 0.61457735 0.15843616 0.7340397 0.701715 0.4041311
0.69510597 -0.791096 0.6350724 0.80210143 0.68521434 0.46327516 0.051506046 0.5065186
-0.82023054 -0.808104 -0.609547 0.87129277 -0.6585213 -0.502317 -0.30835876 -0.69803387
-0.75829333 0.8518138 -0.68048537 -0.66721517 0.28879708 0.12936412 0.76393026 0.7945227
-0.69064957 0.8338975 0.723227 -0.30340526 -0.85186064 0.7534576 -0.35775056 -0.49939328
0.6478314 0.37187898 0.8087 -0.027873565 -0.2575953 -0.002854432 -0.8122134 -0.12909648
-0.38925892 -0.058697548 0.8434791 0.5622394 0.77177316 0.19838174 -0.71247774 0.31963333

bias f4 [200]
00000000: 0d2a 593f a9a6 5fbf 6a19 fdbe 6a7d 90be
00000010: 50ba f9bd a3e8 3bbe e4ba 14bf fa82 373f
00000020: 0eef 03be ed19 7fbe efb0 543f 0dfa 163e
00000030: e536 2fbf a10f 513f b04c 43bf 4a4e 56bf
00000040: e5c9 49bf 3adf e03c 29f6 1ebf c9a2 bd3e
00000050: ede1 6b3e 17ef 033f 3376 313f b97a 5c3f
00000060: 0aa9 38bf a038 91bd fa3a 843e 6bcf 4e3f
00000070: d4c3 35bf 8ad3 d3be ac91 d53e aa7d 0e3d
00000080: a045 3ebd 1225 d9be df9f 8bbd 1ed0 33bf
00000090: ead0 12bd 97a4 44bf ccaa 4d3f 8a75 9abe
000000a0: 4858 ddbe 9c64 c23e 176d 493e 1ba0 31be
000000b0: 1017 e53e bed5 603f 94b8 533c b7d6 593f
000000c0: c80b 813e 0cc9 49bf 63f9 4ebf ca81 47bf
000000d0: 1b24 433f 428a f2be 880e b9be 4c6d e6be
000000e0: dfa2 4a3e 506e 3cbf d46b 24bf 69d8 66bf
000000f0: 095a 453f d746 e7be 9576 5dbf dacc cdbe
00000100: 0aa7 46bf 6f69 93bc 8644 57bf 19e3 a93e
00000110: f9f8 c53e abb6 1cbe 2b0f a03e 5b22 913e
00000120: 2049 553f d4c7 88be d465 2fbf ed80 443f
00000130: a151 973e f484 e13e 51c2 453e a5b1 563f
00000140: c298 933e ccfd 0fbe 11d3 9e3d 0607 303f
00000150: b884 04bf 2254 a9be 5554 53bf bdf6 3bbf
00000160: 3760 90be 43bd 87be 18df 473f e7b6 37bf
00000170: ac09 243f 46eb 4c3d f9d0 e2bd eb81 47bf
00000180: 6bde 86be cb38 56bf 149d 54bf 81c8 ddbe
00000190: 274f e93e ee64 503f 17cf 62bf ae16 383f
000001a0: b7f9 46bf 57ce 563f 812d d8bd d63c 25bf
000001b0: edae ffbe a766 6fbe 92d2 c0be 4331 41be
000001c0: 8541 4abf 9b7d 5c3f 29cd 44bf 0f42 1cbf
000001d0: 96be 643d 800c 65bf 0388 b2bd acd6 863e
000001e0: dff5 40bf 9a84 093f d6fd 96be 4694 2cbf
000001f0: aaec 61bf 877b 573f 0577 3d3e 7094 65bf
00000200: 2901 663f 3d61 57bf 480a 46bf b9bc 4fbf
00000210: ef13 33bf c2cb 03bf 8aa5 4abf fbc9 b3be
00000220: 5f3e 503e 0eed 393f 5f69 07bf 3674 543f
00000230: bd81 51bf 17ea b3bd 6ccc 35be a2b1 57bf
00000240: 11f5 c13d 9e21 3ebf df04 3c3f a078 2abf
00000250: 8805 54bf 8a4c 2a3f 8051 3ebf a50b 9ebe
00000260: ba3f c93e 812b 473f ed55 90be 4cf4 4b3f
00000270: 662c 223f 55d9 52bf e4db 59bf fbe7 67be
00000280: 108b 353f 666d 6f3e 7cdd 563f b464 7b3e
00000290: 4b62 b23d bfb7 ec3e d10a 423f afd4 2f3d
000002a0: 5e46 6fbe 24f2 55bf 04e4 bbbe db89 333f
000002b0: 11b5 c7be de5c 5c3f f2f2 63bf 54cc 19be
000002c0: 8c7d 103f 7959 c3be 4d1d f4be 4265 b23e
000002d0: 5ac8 b0be c918 433f 3cc8 403f 3979 2ebf
000002e0: d33f 4a3f 0f24 58bf 98d7 0fbf 4a85 123d
000002f0: abd5 403f f009 b73e eaed e73e c922 83bb
00000300: 7854 81be 071e b3be 2ff1 f7bb 5ef6 2bbf
00000310: 2649 e6bd 41b5 2abf 0462 513f 5c98 333c
0.8482979 -0.8736368 -0.49433452 -0.28220683 -0.121937394 -0.18350463 -0.5809767 0.7168423
-0.12884161 -0.24912234 0.8308248 0.14743824 -0.6844314 0.8166447 -0.7628889 -0.8371321
-0.7882369 0.027450193 -0.6209436 0.37038258 0.23035403 0.515367 0.6932098 0.8612476
-0.72132933 -0.070908785 0.25826246 0.80785245 -0.71001935 -0.4137233 0.417127 0.03478781
-0.04645312 -0.42411095 -0.06817602 -0.70239437 -0.035843767 -0.76813644 0.8033874 -0.301678
-0.43231416 0.37967384 0.1967052 -0.17346232 0.44744158 0.87826145 0.012922425 0.85093254
0.252043 -0.788224 -0.80849284 -0.7793242 0.7622697 -0.47371107 -0.361439 -0.45005262
0.19788693 -0.73605824 -0.6422703 -0.90173966 0.7709051 -0.45171234 -0.86509067 -0.40195352
-0.7759863 -0.01799461 -0.84088933 0.33181074 0.38666514 -0.15304057 0.31261572 0.28346524
0.83314705 -0.26714957 -0.6851475 0.76759225 0.29554465 0.44046748 0.19312407 0.83864814
0.28827482 -0.1406166 0.077551015 0.68760717 -0.5176501 -0.33072 -0.82550555 -0.7342337
-0.28198406 -0.26511583 0.7807479 -0.7176346 0.6407726 0.05002906 -0.110750146 -0.77932614
-0.26341566 -0.8368041 -0.8305218 -0.43317035 0.455682 0.81404006 -0.88597244 0.71909606
-0.77724785 0.839086 -0.10555554 -0.64545953 -0.49938145 -0.23379003 -0.37660652 -0.18866448
-0.79006225 0.8612916 -0.7687555 -0.610383 0.05584582 -0.894722 -0.087173484 0.26335657
-0.7537517 0.5371796 -0.29490536 -0.6741375 -0.88251746 0.8417286 0.18502434 -0.8967962
0.8984552 -0.8413275 -0.7735944 -0.8114734 -0.6995229 -0.51482785 -0.7915884 -0.35115036
0.20336293 0.7262734 -0.5289516 0.82989824 -0.8183859 -0.087848835 -0.17753762 -0.8425542
0.09470571 -0.74270046 0.7344493 -0.6659031 -0.8282094 0.6652304 -0.7434311 -0.3086826
0.39306432 0.77800757 -0.28190556 0.7966964 0.63348997 -0.8236287 -0.8510115 -0.22647087
0.7091532 0.23381576 0.8393171 0.24550134 0.08710154 0.46233937 0.75797755 0.04292744
-0.23366687 -0.835726 -0.366974 0.70132226 -0.3900533 0.86079204 -0.8904258 -0.15019351
0.5644157 -0.381542 -0.47678605 0.3484288 -0.34527856 0.76209694 0.75305533 -0.6815372
0.7900364 -0.8443002 -0.56188345 0.035771646 0.7532603 0.3574977 0.45298702 -0.0040019494
-0.25259757 -0.34983847 -0.007566593 -0.671728 -0.11244421 -0.6668282 0.81790185 0.010961618

weight f4 [100, 200]
00000000: 9d69 36bf ea92 d53e fba9 143f 3294 143f
00000010: 8697 223f aace f53e 2562 383f 1752 473f
00000020: d5a3 47bf 96d4 27bf 154d cc3e 0fe6 39bf
00000030: 71e3 713e 5ef7 38bf 8eaf c83e 4ea0 93be
00000040: 57cb 64bf 92a6 1fbe 1660 cdbd 2618 a8be
00000050: ecbd 283f b273 e0be 46f3 5e3e 1a43 47bf
00000060: a7fb 013f 8392 1f3f 4b67 063f dc27 5fbf
00000070: 35b2 b63e c372 af3e 3fea 0fbf 2021 3dbf
00000080: 9656 eabe cc1f 0ebf 908f 4c3f a3a0 3f3f
00000090: 24af 543f 27b7 253f f4f3 503f 009b 9f3e
000000a0: cd88 60bf 348c 573f 00b8 523f b0c6 97be
000000b0: a647 223e 4b26 1ebf 0752 20bf 785c 0bbf
000000c0: 9787 15bf 5120 2bbf 648c 94be f4a8 84be
000000d0: 8059 66bf 6fc5 1f3f 3e0a 21bf c969 53bf
000000e0: df59 0fbf 0f6e 91be 002a ee3e 6c94 09bd
000000f0: 04a4 46bf ac9d cdbe 1d8a 683f 58fa 40bf
00000100: 4059 153f 8ff7 52bf e69b 10be bcad b7be
00000110: e236 5b3f b367 abbe 26d4 d13e bb7e 3c3f
00000120: 6965 32bf 6037 153f c1ca ca3e 1b61 eebe
00000130: 7ed1 ee3e 7942 0cbf 0fe2 963e 7352 68bf
00000140: 48ff 20bf 94ea 5c3f 2b02 87be f6b1 4abf
00000150: ccdd 34bf f8da 503f 6903 e73e fc59 2b3f
00000160: 5105 143f eec8 533f 8ac2 4d3f 3c68 15bf
00000170: 5a02 3cbf 3ec5 2a3f 0602 20bf a614 633f
00000180: b927 2dbf bf43 11bf 2e76 44bf ef7c 73be
00000190: f88b 2bbf 183c 16bf 0888 13bf e33d 2abf
000001a0: 9a49 43bf 12d9 083f 6a56 543f 400d 4d3f
000001b0: e9cf c2be fb1b 30bf 5294 7c3e f8b5 dd3e
000001c0: 9646 363f 5425 2f3f 171c 22bf 2cc1 28bf
000001d0: 836b 0cbf c5e1 b43e 2320 883e b065 e3be
000001e0: 9c73 d63e 9ebf e2be 0e6c 243f 290f 13bd
000001f0: 4886 803e 4701 bfbe fff3 35bf f2a4 44bf
00000200: f00f 32bf d590 2cbf d317 07bf 4ef1 043f
00000210: 3957 293f f54c 4b3f 6fc3 eabe 53c1 3cbf
00000220: 9673 a7be d1d7 17bf 33e3 503f b0b0 2b3f
00000230: b36c 593f f36c 25bf 0e12 163f 3cda 603f
00000240: 2b80 533f 9ceb 2d3f eefc 01bf 3d74 3d3f
00000250: cf1d d6bd 3998 73be 54e9 10bf 9721 ccbe
00000260: bdb2 5b3d 18c6 513f 279d 61bf 5b22 43bf
00000270: 7162 503f 8acc c53e dfa6 22bf fa07 4d3f
00000280: 3094 17be 1d6a 4fbf 95ae 273f d765 3fbf
00000290: 20d4 3b3f 7950 42bf bca0 853d 3e1f 58bf
000002a0: 066d efbe ea86 45bf b505 3dbf ca7d 4b3e
000002b0: 8bab 58bf 8482 97be 864d 0c3f 97f8 34be
000002c0: a72f 05bf 8a34 2f3f 8109 62bf 04d3 3fbf
000002d0: cbdd 2cbf 35d5 5a3f f188 3bbf e6a0 303f
000002e0: 64d9 37bf 4fd7 f1be 49e0 1c3f 08ca db3e
000002f0: 7c82 4c3f 4ba3 53bf 567e 07bf 7445 bc3e
00000300: 8eb3 f93d c054 2d3d 2a24 29bf 66f4 3cbf
00000310: 260c 143f 6402 85be 38b4 5ebf 9e28 f5be
00000320: 8b80 36bf 9340 1e3f c754 2fbf 229d 27bf
00000330: ba4c 66bf 25d2 15bf 8b70 0ebf af6c 61bf
00000340: 2920 a83e 1768 3b3f 9a1a 51bf 6243 62bf
00000350: 81eb 1dbf 2d92 41bf 4430 973e 7a1c 49bf
00000360: ba64 e6be fd69 5abf 2b6a 09bf 093b 96be
00000370: ef97 dc3d 523e 41bf feae 19bf 462e 8b3d
00000380: 5c56 5fbf 14f3 a63e ae55 e13e a0cd bdbe
00000390: 8408 5fbf 5f75 c8be 156e 0dbf 02d4 2bbc
000003a0: b466 30bf d2f4 4abf ce0f 97bd 2858 19bf
000003b0: 6760 06bf 4dba ff3c 1104 dc3e ed46 a53e
000003c0: 1aaa b2bc 7533 14bf 2c08 15bf 8644 553e
000003d0: 36a8 20be 3daa 13bf 0e2c 09bf 34d7 09bf
000003e0: 0161 2ebf 907e fc3d 6ab1 1cbf 27b3 023f
000003f0: 9c71 32bf 3c3f 9ebd 1af8 c43d 9ceb 7dbc
-0.71254903 0.4171365 0.5807187 0.5803863 0.63512456 0.48009235 0.72024757 0.77859634
-0.7798436 -0.65558755 0.3990256 -0.72616667 0.23621918 -0.7225245 0.39196438 -0.2883324
-0.8937277 -0.15590885 -0.100280926 -0.32830924 0.659148 -0.4383827 0.21772489 -0.77836764
0.50774616 0.62332934 0.5250136 -0.87170196 0.35682836 0.34267244 -0.56216806 -0.7387867
-0.45769185 -0.5551727 0.7990656 0.7485449 0.83079743 0.64732593 0.8162224 0.31172943
-0.8770874 0.8419831 0.8231201 -0.29643774 0.15847644 -0.6177718 -0.62625164 -0.5443797
-0.5841002 -0.66846186 -0.2901336 -0.2591015 -0.89980316 0.62410635 -0.62906253 -0.8258329
-0.5599651 -0.2840428 0.46516418 -0.03358881 -0.7759402 -0.40159357 0.90835744 -0.75381994
0.5833931 -0.82408994 -0.1412197 -0.35874736 0.8563062 -0.33477554 0.4098217 0.73630875
-0.6968599 0.5828762 0.39607814 -0.4655846 0.46644205 -0.5478893 0.29469344 -0.9075081
-0.6288953 0.8629544 -0.26368842 -0.79177797 -0.70650935 0.8158412 0.4511979 0.6693418
0.5782061 0.8272847 0.8037497 -0.58362174 -0.7344109 0.6670722 -0.6250309 0.8870338
-0.67638737 -0.56744 -0.7674283 -0.23778127 -0.6701045 -0.58685446 -0.5762944 -0.6650068
-0.7628418 0.53456223 0.8294436 0.8009834 -0.38049248 -0.68792695 0.24665955 0.43302894
0.71201456 0.68416333 -0.6332411 -0.65919757 -0.5485155 0.35328498 0.26587018 -0.4441352
0.41885078 -0.44286817 0.6422738 -0.03590313 0.25102448 -0.37305662 -0.71075433 -0.76814187
-0.6955557 -0.67408496 -0.5277073 0.519307 0.66148716 0.794143 -0.4585223 -0.7373249
-0.32705373 -0.59313685 0.8159668 0.6706648 0.84931487 -0.6461937 0.586213 0.87833
0.82617444 0.67937636 -0.50776565 0.7400549 -0.10454904 -0.23788537 -0.5660603 -0.39869377
0.053637255 0.8194289 -0.8813042 -0.762243 0.8140021 0.38632613 -0.63535875 0.80090296
-0.14802623 -0.8102129 0.65500766 -0.7476477 0.7337055 -0.7590404 0.06524798 -0.8442267
-0.46762866 -0.7715899 -0.73836833 0.19872203 -0.84636754 -0.29591763 0.5480579 -0.17672954
-0.52025837 0.68439543 -0.8829575 -0.7493136 -0.6752593 0.8548158 -0.7325583 0.6899551
-0.71816087 -0.4723458 0.6127973 0.42927575 0.79886603 -0.8267104 -0.5292715 0.3677174
0.121924505 0.042317152 -0.66070807 -0.7381042 0.5783104 -0.25978386 -0.8699374 -0.4788255
-0.7128989 0.6181728 -0.68488735 -0.6547414 -0.89960825 -0.5852378 -0.55640477 -0.88056463
0.32837036 0.73205703 -0.81681216 -0.8838407 -0.61687475 -0.7561367 0.2952901 -0.78559077
-0.44998723 -0.85317975 -0.53677624 -0.29341915 0.107711665 -0.7548572 -0.6003264 0.06795935
-0.8724115 0.3260733 0.4401068 -0.37070942 -0.8712237 -0.39152047 -0.55246097 -0.010487558
-0.6890671 -0.79279816 -0.073760614 -0.5990014 -0.5249085 0.031216765 0.42971852 0.32280675
-0.021809626 -0.5789102 -0.58215594 0.20826921 -0.15689167 -0.5768164 -0.5358285 -0.53844
-0.68116766 0.123288274 -0.6120821 0.51054615 -0.69704604 -0.07726905 0.09617634 -0.015498068

bias f4 [100]
00000000: cedb 25bf 5de7 b33e e81b ec3e 0b32 0e3f
00000010: dddb b33e 920c e13e d4c8 20bf fffb bf3e
00000020: d18c 393f 2e9c 1d3f d822 21bf f13c 2e3f
00000030: 9528 393f 67f1 0abf 7aaa 0abf 8ae2 803e
00000040: b4b3 083f c59c 2abf ffd5 0bbf cd5d 3a3f
00000050: 5382 b43e 766a 71bd b816 4b3f 5cb6 02bf
00000060: dac7 2abf b7e3 0c3e 4259 3b3f a576 0cbf
00000070: 2786 ba3e d972 153f 56a3 373f a508 383f
00000080: 2356 e53e 0c99 d8be f812 21bf 16ff 063f
00000090: fe83 1dbf adb5 0fbf 75d1 19bf b81a 16bf
000000a0: a6d5 093f db32 cebe 6c3a 17bf f1d9 19bf
000000b0: 805f 0dbf bf54 973d cd45 f63e feb0 1cbf
000000c0: a6ad 263f c362 0ebf 1da4 133f d7b6 113d
000000d0: 0921 22bf 5686 0ebf ba8b 023f 4c4a 463f
000000e0: 019b da3e 0f64 383f d1c2 0cbf e305 b2be
000000f0: bcea 29bf a821 2bbf d222 313f 2e62 483f
00000100: 19ea c73e d0f8 793e d4ec b23e b0e2 10bf
00000110: 4df0 21bf 5e47 2abf 1e86 473f 2d8d d4be
00000120: a1b3 29bf 4962 583f 5e4a 0b3f 45cb 2cbf
00000130: 3375 50bf 0c7a 513f 80f4 123f 4d3a 1b3e
00000140: f22e 1fbf d41d 37bf b76e 32bf 9d5e f9be
00000150: a1c5 24bf c537 4c3f 12c0 5e3e e887 34be
00000160: fa17 173f 53ea 08bf 0cfd 0ebf 25f8 0dbf
00000170: e9d0 b23e c936 4b3f 1e55 3e3f efff 1cbf
00000180: 9f80 2abf 3516 a43e b4e8 413f 345f 2a3f
-0.6478852 0.35137454 0.4611504 0.5554511 0.3512868 0.43954903 -0.6280644 0.37496945
0.72480494 0.61566436 -0.6294379 0.6806174 0.7232755 -0.542746 -0.54166377 0.25172836
0.53399205 -0.6664546 -0.5462341 0.7279938 0.3525568 -0.05893942 0.7933154 -0.5105951
-0.667112 0.13758741 0.7318307 -0.5486854 0.36430475 0.5837837 0.71733606 0.7188819
0.4479228 -0.42304265 -0.6291957 0.5273298 -0.6152953 -0.5613659 -0.6008523 -0.5863452
0.53841627 -0.40273175 -0.5907352 -0.6009818 -0.55223846 0.07389211 0.4810013 -0.6120757
0.65108716 -0.5561945 0.5767229 0.03557476 -0.6333166 -0.5567373 0.50994456 0.7745712
0.42696384 0.7202768 -0.54984766 -0.34770116 -0.663738 -0.6684823 0.69193757 0.7827481
0.3904579 0.2441132 0.3494631 -0.565959 -0.63257295 -0.6651515 0.7793902 -0.4151396
-0.66289717 0.8452497 0.5441035 -0.67497665 -0.8142883 0.81826854 0.5740433 0.15158959
-0.6218101 -0.7152989 -0.6970019 -0.48704997 -0.6436406 0.797726 0.21752957 -0.17629969
0.5902096 -0.5348255 -0.5585487 -0.55456764 0.3492501 0.7938047 0.7434863 -0.61328024
-0.6660251 0.32048193 0.757457 0.6655152

weight f4 [50, 100]
00000000: 13c2 dfbe f22d 1f3f a954 fcbe 826e ecbe
00000010: 8589 fcbe 9732 323f 4741 1f3f d3f0 4f3f
00000020: 7bdf 09bf 918e b3be 62cd 22bf 55a4 ccbe
00000030: 4ef8 20bf 7398 0ebf 23fc 2f3f 58b4 1dbf
00000040: 2640 abbe 11bb b6be f116 263f f7fa fdbe
00000050: 396c 543f 60f4 2bbd 149c d6be 3822 07bf
00000060: e02f b5be 8cf0 e5be 9903 16bf 4bf7 183f
00000070: 23d6 b7be fd46 37bf 8505 cbbe f038 c2be
00000080: 8dca f2be a281 313f 10c3 0f3f 4f97 10bf
00000090: 1d9e 003d 6442 313f 9dc7 45bd 80ef 3dbe
000000a0: ccb3 433f 4526 1b3f e9a0 303f 2c72 31bf
000000b0: 4168 063f 8120 fdbe 5056 d1be dc52 22bf
000000c0: 46c7 07bf db47 0b3f 8853 cebe 3b12 c7be
000000d0: 3a8d fabc 2a67 a03d 64ca 0abf 4358 f4be
000000e0: 923d 20bf da0b eabe 3f88 17bf 84ff c1be
000000f0: 35a6 6fbe 4405 19bf 4c1c 0fbf ef18 07bf
00000100: a5ed b73e 40ab c9be f0fb bcbe 1211 153f
00000110: a608 1a3f f0a0 153f d1ee f2be 5b91 ec3e
00000120: f520 273f 9f32 31bf e11e 2f3f ccd6 c23e
00000130: 8959 c03e b4ce ebbe 70f1 02bf 03f9 3c3f
00000140: 515f 063f 9d4f c9be 73e6 8b3e 4ca0 f33e
00000150: 4c5f 143f e66a 5ebf ed90 c0be dbb2 39bf
00000160: 23a0 c1be 30f8 ff3e 3bc7 2f3f 8250 cbbd
00000170: 5d60 b7be 58bb 24bf aff8 0cbf d762 0c3f
00000180: 1c94 223f d7ba 20bf ebca d6be 5e09 cdbe
00000190: b082 febe d2f1 1c3f 0dab c53e e6fa 4b3f
000001a0: e79c 2f3f 0f97 433f 7e53 073f eb32 e43e
000001b0: f35d 0abe a997 3a3f a6b5 153f d223 1d3f
000001c0: fd9c 393f 4025 a5bc d361 a8bc 3e08 013f
000001d0: 2695 3b3f 51f2 dabe 595a 133f 62b7 243f
000001e0: 3319 413f cd02 42bd 075b 3d3f d516 eabe
000001f0: ab26 0ebf e163 b2be 5542 433f 1e14 12bf
00000200: 713f 403f 63c8 3c3f f80f 183f fe33 453f
00000210: 2fb8 143f 4d4c eb3e b453 273f 187e 3c3f
00000220: 2ecf 2bbf 5c32 053f a03d febc b103 403f
00000230: d63b 213f ad59 443f 6167 213f d027 093f
00000240: 4607 2b3f e22e 183f 0d2f dc3e 1c8a 313f
00000250: 5c4c 4e3f 796a 0d3f e733 433f 39c4 bebe
00000260: aaa4 58bd 20fe 2abf 2fc3 083f 4729 3abf
00000270: ac89 443f cf61 e2be 6295 0a3f 4c44 2fbf
00000280: 650a 21bf c138 1dbf 7296 0f3f d177 243f
00000290: 1849 1f3f fcb4 d83e 2a77 383f fb1d 0e3f
000002a0: f5c1 203f 620e febe df30 223f de3e 0d3f
000002b0: 1c51 123f 0fed 2ebf 4692 2d3f df4d 1b3f
000002c0: 86e4 003f d09d 013f 48fc bf3e 981f 203f
000002d0: 79ee 2c3f 8e9b 1fbf 963c edbe c0e5 fe3e
000002e0: f9fc 223f 9423 213f 6a8b e8be 1c49 48be
000002f0: 79ec 403f aa19 173f 8da1 12bf 4c62 2b3f
00000300: 7e68 053f 016f 0e3f c38a 0c3f fad6 203f
00000310: 7ac2 3f3f d188 373f d81b 06bf 80b6 233f
00000320: fb63 103e 6ef8 343f 46ae 3fbf 28b7 a8be
00000330: 57c7 c6be ab7d 99be cb7f 0e3f 0f98 d2be
00000340: 077d 21bf 4c85 efbe 8c99 053f e41f 46bf
00000350: b5bd 38bf 4d82 833b 648d 26bf 13d9 1abf
00000360: b3e2 21bf d9c3 cbbe 2784 0d3f f7d2 0abf
00000370: 37c0 80be 9f72 92bd 00ba 01bf 5403 09bf
00000380: 8943 d1be 213b d1be 08e7 39bf 774c 0a3f
00000390: 7cb3 dcbe aef1 21bf 4222 3bbf 1392 39bf
000003a0: 1dd3 e2be 544e 443f 02a3 1a3f 3fd5 2ebf
000003b0: d09b 03bd a7cb 243f 0757 a9bc 9347 33bd
000003c0: 6c16 b4be f87d cdbe c5b5 053f 2af1 053f
000003d0: 26f1 183f ef90 b1be 0714 a8be 3fa9 1bbf
000003e0: 4d85 39bf 5f2b 2a3f 1d68 c3be 2c9d 23bf
000003f0: 3b71 313f 289d 053f e34c f4be cf4a 30bf
-0.43702754 0.6217948 -0.4928334 -0.4617806 -0.4932367 0.69608444 0.6220898 0.81226844
-0.5385663 -0.35069707 -0.6359464 -0.39969125 -0.6287888 -0.5570137 0.68744105 -0.6160331
-0.3344738 -0.35689595 0.64878756 -0.49605533 0.82977635 -0.0419811 -0.41915953 -0.5278659
-0.35388088 -0.44910085 -0.5859924 0.5975234 -0.3590556 -0.71592695 -0.3965265 -0.37934065
-0.4742016 0.6933843 0.56157017 -0.5648088 0.03140079 0.6924193 -0.04828607 -0.18548393
0.76446223 0.6060527 0.6899553 -0.6931484 0.5250283 -0.4943886 -0.40886164 -0.63407683
-0.5303844 0.5440652 -0.40298104 -0.38881096 -0.03058492 0.07832177 -0.54215074 -0.47723588
-0.6259395 -0.45712167 -0.5919227 -0.37890255 -0.23403247 -0.5977366 -0.5590255 -0.5277242
0.35923496 -0.39388466 -0.36910963 0.5822917 0.60169446 0.58448696 -0.47447827 0.46204647
0.65284663 -0.69217867 0.6840649 0.38054502 0.3756831 -0.4605614 -0.51149654 0.7381746
0.5248919 -0.39318553 0.27324256 0.47583234 0.5795791 -0.86881864 -0.3761057 -0.72538537
-0.37817487 0.4999404 0.68663377 -0.09927465 -0.35815707 -0.64348364 -0.5506696 0.5483832
0.63507247 -0.62785095 -0.4195169 -0.4004621 -0.49709082 0.6130649 0.38607064 0.79679716
0.6859879 0.7640237 0.52861774 0.44570097 -0.13512401 0.72887665 0.584803 0.6138278
0.7250517 -0.020159364 -0.020554459 0.504032 0.7327446 -0.42762998 0.57559735 0.6434232
0.75429076 -0.047365952 0.7396702 -0.45720544 -0.5552775 -0.34841827 0.7627309 -0.57061946
0.75096804 0.73743266 0.59399366 0.7703246 0.5809354 0.4595665 0.65362096 0.73629904
-0.67113006 0.5202997 -0.031035244 0.7500563 0.6298193 0.76699334 0.6304837 0.53576374
0.66807973 0.5944654 0.43004647 0.69351363 0.80585265 0.5524059 0.7625107 -0.3725908
-0.05289141 -0.66794014 0.53422827 -0.72719234 0.7677257 -0.44215247 0.5413419 -0.6846359
-0.62906486 -0.61414725 0.56088936 0.64245325 0.6222091 0.4232558 0.7205683 0.55514497
0.62795955 -0.49620348 0.6335582 0.5517405 0.57155013 -0.6833047 0.6780132 0.60665697
0.503487 0.5063143 0.37497163 0.6254821 0.6755138 -0.6234673 -0.46335286 0.4978466
0.63667256 0.6294491 -0.45418864 -0.19559139 0.7536083 0.59023535 -0.57277757 0.66946864
0.5211257 0.5563813 0.54899234 0.6282803 0.7490612 0.7169314 -0.52386236 0.6395035
0.1410064 0.70691574 -0.74875295 -0.32952237 -0.3882396 -0.2997869 0.55663747 -0.41131637
-0.630814 -0.46781385 0.5218742 -0.7739241 -0.7216447 0.004013336 -0.65059495 -0.6048748
-0.6323654 -0.39797857 0.55279773 -0.54228157 -0.25146648 -0.071507685 -0.5067444 -0.53520703
-0.40871838 -0.40865424 -0.7261815 0.54022926 -0.43105686 -0.632594 -0.7309915 -0.72488517
-0.44301692 0.7668202 0.6040498 -0.6829414 -0.032131016 0.6437325 -0.02067138 -0.04376943
-0.35173357 -0.4013517 0.52230483 0.5232111 0.59742963 -0.34680888 -0.3282778 -0.60805124
-0.72469026 0.6647243 -0.3816537 -0.639117 0.693134 0.52192926 -0.4771491 -0.6886415

bias f4 [50]
00000000: 9543 8e3e c5d9 443f ade4 f33e 1bc8 343f
00000010: 305f 123f d13a 12bf 1e6f 273f c1b5 11bf
00000020: f12f c03e 7115 11bf 5b7b 1a3f 31c0 2e3f
00000030: 63ae 0dbf 4891 30bf 02fd 2e3f 6b75 1bbf
00000040: 2c97 0fbf 5c8b 1e3f 7d8a 19bf 9e0c 3e3f
00000050: f14e 083f 3fe4 1fbf ba9c 2dbf f266 0fbf
00000060: fb4d 123f a618 30bf 3270 f53e 50b7 10bf
00000070: cd2f 7e3d 4ed2 2d3f b06e 11bf 3600 c63e
00000080: e583 25bf 4f94 05bf fb35 08bf 0168 3a3f
00000090: 7e30 bfbe ddde 1fbf 1ae3 f23e 7095 0d3f
000000a0: 6f37 11bf b0c2 f93e 4fec 2c3f 6e6a 00bf
000000b0: 8b97 b1bd b4bf 0dbf 1a0d 4bbd 7ede 593f
000000c0: a323 13bf f6bc 09bf
0.27785936 0.7689479 0.47635403 0.70617837 0.57176495 -0.57120997 0.65403926 -0.5691796
0.37536576 -0.5667334 0.60344476 0.6826201 -0.5534422 -0.6897168 0.6835481 -0.6072604
-0.56090045 0.61931396 -0.5997694 0.74238 0.53245455 -0.6245765 -0.6781727 -0.5601646
0.5715024 -0.6878761 0.4793716 -0.5652971 0.062057305 0.67899024 -0.5680952 0.38672036
-0.6465438 -0.52179426 -0.5320737 0.7281495 -0.37341684 -0.6244944 0.4743889 0.5530615
-0.5672521 0.48781347 0.6754808 -0.501624 -0.08671483 -0.5537064 -0.04957304 0.8510512
-0.5747625 -0.53803957

weight f4 [28, 50]
00000000: ad7a 27bf 4b18 1cbf 8e01 31bf 5ea9 f1be
00000010: f0c0 11bf 2323 30bf 7063 07bf 6bc4 f1be
00000020: fb3d 32bf 41b8 1dbf bee1 27bf 69d3 34bf
00000030: 63d2 0abf 8753 23bf 3474 edbe e5d4 20bf
00000040: b5f1 0bbf 43ed 18bf 8852 e9be b8f6 25bf
00000050: 0cc8 09bf e24d e0bd 2bb3 34bf c1a8 37bf
00000060: 1a0f 29bf d08a 16bf 1974 3dbf 9458 13bf
00000070: 3646 febe 817c 19bf 2e65 33bf ea10 35bf
00000080: e25e 12bf 43fe 16bf 1a14 f4be 23d7 14bf
00000090: 4b8d 0ebf a435 11bf 9f5b f13d 9cc5 07bf
000000a0: 3f1a 0bbf a75b 4cbd b9bc 3cbf a89d 14bf
000000b0: 8c0d c5bd 19d9 f1be a64d f93d 04a3 04bf
000000c0: c004 00bf 368d 08bf b282 16bf 90d9 25bf
000000d0: fdbc 2ebf b3d4 1fbf 62e1 28bf f3c5 19bf
000000e0: bc91 33bf d5b1 33bf 96a2 2ebf 536d fabe
000000f0: ba6b 38bf 3187 e3be 8665 16bf 6c8c 0abf
00000100: 8fcb 29bf e47d 0ebf b130 0abf 8c5d 22bf
00000110: 4f3a 16bf dd0c f7be 6b8e 26bf a2e9 e73d
00000120: 9a2b 03bf b7de 1bbf 98f0 30bf 3381 29bf
00000130: ccdf f2be cf1d 0fbf 5120 32bf 85cc 1abf
00000140: 815e 38bf e7d5 31bf b736 2abf 62d0 31bf
00000150: ed40 3bbf 6fb5 f6be 24fa 2bbf da89 1cbf
00000160: 665c 67bd 78cd 30bf c1b4 0cbf ab99 46bd
00000170: 1d0d 3cbf d641 0cbf 89b0 f23d c86c 11bf
00000180: 5553 f03d a2d2 39bf e997 33bf b2d1 29bf
00000190: d01b 953c 1594 a33e b604 273f 9120 0ebf
000001a0: 1445 303f e129 173f ff2f 673f 4610 27bf
000001b0: 568b 75be 3e31 1c3f c990 313f dcda 003f
000001c0: 19ff 123f f8f8 f6be d098 383f 91b7 2f3f
000001d0: 2d5a 083f dc24 083f 9d44 2dbf 1a23 0e3e
000001e0: 5416 10be 4087 c63e 03ed 333f e02b 0a3f
000001f0: 4e64 37bf f50d 14bf 16b5 4e3f f23e 093f
00000200: eb01 ff3b 5943 3a3f a647 33bf d737 3c3f
00000210: 46c1 153f ab0b 003f d41e 33bf dee4 013f
00000220: 63ca 0b3f 2a06 2dbf 0c2a 623e 2de8 f0bd
00000230: 3a19 0d3f 3b83 a93c d689 fb3e d618 273f
00000240: 11ef 763c d9de 1d3f 837c 99ba 36c4 303f
00000250: fed8 253f bdb9 223f 31c2 29bf 89b1 f1be
00000260: 4156 11bf a461 09bf 6015 38bf 80df 07bf
00000270: a033 36bf 2b1c 39bf 5224 0cbf 4cc0 19bf
00000280: 79dd 2cbf ab44 2bbf 90c8 1cbf cef9 2dbf
00000290: f48b 2fbf 9d4f 16bf 7a0e 1bbf 2a4f 06bf
000002a0: a0de f6be 1dd6 33bf fb10 24bf 64c7 90bc
000002b0: 5b2a 07bf 7042 22bf e4bc 32bf f378 22bf
000002c0: 6673 39bf 20ed 1cbf 4e32 2cbf febe 17bf
000002d0: 0b9b 23bf f0ce 2bbf d6db fabe 8c20 2cbf
000002e0: 4dad 04bf 5113 34bf a859 0bbf 32de 31bf
000002f0: df6d 073c 9ec3 ffbe 8c05 34bf de81 103e
00000300: 6698 3bbf 711a edbe 413b 0fbe 7d2e 25bf
00000310: ecff 28bd 76bb 3abf 7f1a f8be 4907 1cbf
00000320: 4906 23bf 4080 1ebf 474e 2cbf ef53 2dbf
00000330: 5070 1dbf d31a f4be b3d5 23bf 7494 fcbe
00000340: 4c0f 28bf 5eb5 1bbf 67bd 05bf 9fc7 1ebf
00000350: 4fb7 1fbf 4c0a 12bf 9e56 2ebf ad12 f8be
00000360: 62ec 2ebf 3cc5 02bf e620 0ebf 3709 07bf
00000370: 47aa 32bf f621 16bd d045 1abf 7f79 febe
00000380: 34fc 0bbf a867 30bf f2b1 2ebf 2902 0fbf
00000390: 74d5 20bf 5cc9 24bf 4e8e 34bf 4827 37bf
000003a0: dbcc 3cbf a590 0ebf 7c0d 05bf 6916 33bf
000003b0: f7d3 28bf 8dda 00bf b5ef 46bd 9b2e 32bf
000003c0: 965d fdbe 9bbc 35bd be85 2abf 088c 04bf
000003d0: 68b7 003d 437b 2ebf 482c 67bd 3d7c 2fbf
000003e0: 0786 1cbf 30d0 0fbf ff57 2abe 3cea 593f
000003f0: 5bc4 383f 8203 31bf 410e 0ebf 6d67 1a3f
-0.65421563 -0.6097457 -0.69143 -0.4719953 -0.56935024 -0.68803614 -0.52886105 -0.47220168
-0.69625825 -0.61609274 -0.6557883 -0.70635086 -0.54227275 -0.6379933 -0.46377718 -0.6282485
-0.5466569 -0.5973703 -0.4557078 -0.6482959 -0.5382087 -0.10952355 -0.7058589 -0.71741873
-0.6603867 -0.5880556 -0.74005276 -0.57557034 -0.49662942 -0.599556 -0.7007626 -0.70728934
-0.5717603 -0.5898172 -0.47671586 -0.5814077 -0.55684346 -0.56722474 0.117850535 -0.530359
-0.54336923 -0.049892094 -0.7372547 -0.58053064 -0.096217245 -0.47235945 0.121730134 -0.5181124
-0.5000725 -0.5334047 -0.58793175 -0.647851 -0.68257123 -0.6243393 -0.65968907 -0.6006767
-0.7014425 -0.70193225 -0.68216836 -0.48911533 -0.7203938 -0.4443908 -0.5874866 -0.54120517
-0.6632623 -0.55660844 -0.5398055 -0.6342399 -0.5868272 -0.48252 -0.6506106 0.11323859
-0.51238406 -0.6088671 -0.69117117 -0.6621277 -0.47436368 -0.5590486 -0.6958056 -0.6046832
-0.720192 -0.69467014 -0.6648974 -0.6945859 -0.73145944 -0.48185298 -0.6717856 -0.61147845
-0.056484602 -0.6906352 -0.5496331 -0.048486393 -0.7345751 -0.5478796 0.11850078 -0.5680661
0.11734644 -0.72587025 -0.7015367 -0.66335595 0.018201739 0.31948915 0.65241563 -0.5551844
0.68855405 0.5904828 0.9030761 -0.65259206 -0.23978934 0.6101264 0.6936155 0.5033395
0.574205 -0.48236823 0.72108173 0.68639475 0.532626 0.5318124 -0.6768282 0.13880578
-0.14071018 0.38775063 0.70283526 0.539732 -0.7163743 -0.57833797 0.80745065 0.5361167
0.007782211 0.72759014 -0.700312 0.73522705 0.58498037 0.50017804 -0.69968915 0.5073985
0.5460569 -0.6758753 0.22086352 -0.11763034 0.5511662 0.020692458 0.49128598 0.6527227
0.015071646 0.61668164 -0.0011710081 0.69049394 0.6478423 0.63564664 -0.6631194 -0.4720576
-0.5677224 -0.5366461 -0.71907616 -0.5307541 -0.71172523 -0.72308606 -0.5474292 -0.60059047
-0.6752544 -0.66901654 -0.61243534 -0.67959297 -0.68572927 -0.5871523 -0.60568964 -0.52464545
-0.48216724 -0.70248586 -0.6408841 -0.017673202 -0.52799004 -0.63382626 -0.69819474 -0.63465804
-0.7244171 -0.61299324 -0.6726426 -0.59275806 -0.6390845 -0.67112637 -0.48995847 -0.6723716
-0.51826936 -0.70341974 -0.5443368 -0.6947967 0.008265941 -0.49953932 -0.70320964 0.1411204
-0.73279417 -0.46309236 -0.13987447 -0.6452406 -0.04125969 -0.7294229 -0.48457715 -0.60948616
-0.63681465 -0.61914444 -0.6730694 -0.677062 -0.614995 -0.47676715 -0.63997954 -0.4933201
-0.6564834 -0.6082362 -0.5224213 -0.6202335 -0.6238908 -0.5704696 -0.6810092 -0.48451748
-0.6832944 -0.51082206 -0.5551895 -0.52748436 -0.6979107 -0.03665348 -0.60262775 -0.4970207
-0.54681706 -0.68908167 -0.68240273 -0.5586267 -0.62825704 -0.6436975 -0.7052964 -0.71544313
-0.73750085 -0.5568946 -0.519737 -0.6995607 -0.6594843 -0.5033348 -0.048568446 -0.69602364
-0.49485463 -0.04436932 -0.66610324 -0.5177617 0.03142491 -0.6815683 -0.056438714 -0.6854895
-0.6114201 -0.56177044 -0.1663513 0.8512304 0.72174615 -0.6914598 -0.554905 0.60314065

bias f4 [28]
00000000: 290e 24bf 8657 1cbf b6d0 373f dbf4 23bf
00000010: cad3 18bf 4881 153f 69cf 2dbf b03b fcbe
00000020: 30e2 193f 871e f9be 3bbb 2e3f efc5 f6be
00000030: 8c8c 00bf 4e1e 1d3f f454 f73e c1f3 30bf
00000040: 5695 38bf 6841 353f 692e 1bbf 4854 1dbf
00000050: 3a5d ee3e 608f 2e3f e453 183f 596d 10bf
00000060: 57e3 d33e 0f87 1a3f 5567 2f3f c04b f2be
-0.64084107 -0.6107105 0.7180284 -0.64045495 -0.59698164 0.5840039 -0.6789461 -0.49264288
0.6011076 -0.48656103 0.6825444 -0.48197886 -0.5021446 0.61374366 0.48307002 -0.6912194
-0.7210287 0.70802927 -0.6061769 -0.6145673 0.465555 0.6818752 0.59503007 -0.5641685
0.41384384 0.60362333 0.6851705 -0.47323418
