mlruns/0/196c0f8261294782a24e0fc0e5ebe10a/artifacts/model/data/model.pth (torch, 191220 bytes, 6 tensors)

weight f4 [128, 284]
000000 fb 34 8a 3e d4 82 88 3d 70 4d 8a bd 5d 82 26 bd
       0.26993546 0.066655785 -0.06753051 -0.040651668
000010 d8 90 81 be 3d 1b 6b be 86 2e fd 3d f7 bb a7 3e
       -0.2530582 -0.2295961 0.12362389 0.32760593
000020 0f 6a f1 be 99 99 04 be 7c 6b 3e 3f db f8 5e bd
       -0.4715123 -0.12949218 0.7438276 -0.054436546
000030 8b 2e a7 bd f7 bd eb 3d 7a 98 d0 be eb b7 91 3e
       -0.08163174 0.11510842 -0.4074133 0.2846063
000040 67 6e 3d 3e 33 0c 0a 3f 59 06 07 3e b0 0a e0 be
       0.18499146 0.53924865 0.13186015 -0.43758154
000050 c7 80 43 bf fd 25 c4 be 83 3c 2d 3e df 99 a9 3e
       -0.76368374 -0.38310233 0.16917615 0.33125207
000060 d7 20 6a 3e ab 98 92 be 2b fd e0 be 43 48 03 bf
       0.2286409 -0.286321 -0.43943152 -0.5128214
000070 af 54 83 3d eb 2d 7a 3e b2 3f 16 3f 96 0c ef 3e
       0.064126365 0.24431579 0.5869094 0.4668929
000080 b0 56 e1 3d 22 1d 38 be 9a 84 99 3e 0e f0 42 be
       0.110028625 -0.17979863 0.2998398 -0.19036886
000090 bd 6b 05 be b7 1d 98 3e 45 f7 55 bf 8e 42 bb 3e
       -0.1302938 0.2971017 -0.8358043 0.36574215
0000a0 18 db a1 3d fe f8 8f 3d 4f 5b 18 3f 87 5c 74 bf
       0.07903117 0.07029913 0.59514326 -0.95453686
0000b0 68 8e b9 be c8 7a 01 bf 89 0a e7 be c3 bd 09 3e
       -0.3624146 -0.50577974 -0.45125225 0.13451295
0000c0 63 2e df be c7 9a ae 3e c3 d3 11 3f 49 84 ed 3e
       -0.43590078 0.3410246 0.5696375 0.46389988
0000d0 c5 03 46 be eb 88 90 bd 9d 39 06 bf 15 2a 62 be
       -0.19337375 -0.07057365 -0.5243166 -0.22086366
0000e0 b9 47 c7 3e bd cb 0a 3f 5e b4 27 3f fe 54 f7 bd
       0.38921908 0.5421713 0.65509593 -0.12076758
0000f0 95 14 50 3d b6 18 11 bf 00 d5 90 3e c6 c1 01 3f
       0.05080088 -0.5667833 0.28287506 0.506863
000100 61 9b 88 3e 64 cf 92 bd 19 dd 63 3e f4 b0 28 3f
       0.26681045 -0.07168463 0.22252311 0.6589501
000110 7e ed b0 bd 9b 49 01 3d a0 2b 20 bf 77 ed 4d 3e
       -0.08639048 0.031564336 -0.62566566 0.20110117
000120 19 9c 56 3d c3 e5 03 bf 50 bc b7 3c 63 94 95 be
       0.05239496 -0.51522464 0.022428662 -0.29214773
000130 82 80 11 be b2 01 02 3e 57 92 40 3f 7f 92 4a bf
       -0.14209178 0.12695959 0.75223297 -0.79129785
000140 79 24 cb bc e7 59 42 3f 09 bb a3 3d 49 97 71 3f
       -0.024797665 0.7591843 0.079946585 0.9437147
000150 54 9b 17 3e c6 d0 45 3f ac c4 82 be c5 9c 7b be
       0.14805347 0.7727169 -0.25540674 -0.24571522
000160 de 69 95 be ef 52 08 3f f9 6b 2e 3f 96 0d 98 be
       -0.29182333 0.53251547 0.68133503 -0.29697865
000170 a6 9e 21 3f f9 99 ab 3e 6f 3e 25 3e 23 8a 45 3e
       0.63132703 0.3351591 0.16137098 0.19290976
000180 36 77 f4 be 3c 4c 3d 3e c2 fd 3a bf 07 04 3b bf
       -0.477472 0.18486112 -0.73043454 -0.7305302
000190 6a 4f c3 bd 9d 0e 33 be e2 43 11 3e 43 bb d0 bd
       -0.095366314 -0.17486043 0.14186051 -0.10191967
0001a0 c5 8e 86 3e 3a 88 a2 be 74 9c 77 be 37 12 de bc
       0.262808 -0.31744558 -0.24180776 -0.027108295
0001b0 7b f9 1c 3f 07 bd 51 be 2d 7a 15 bf ff b1 90 3e
       0.61318177 -0.20482264 -0.5838955 0.282608
0001c0 5f 8a fc 3d 5c 41 82 3e 59 6d 1c 3f ee c5 61 be
       0.1233108 0.2544049 0.6110435 -0.2204816
0001d0 b9 06 68 bf 9a 50 06 3f 73 e3 d1 be 86 b1 c1 3e
       -0.9063526 0.5246674 -0.40993842 0.37830752
0001e0 57 93 38 bf 81 94 3e 3f 88 fd 6a bd b6 0a 71 3e
       -0.7209982 0.7444535 -0.057370692 0.23539242
0001f0 c4 ec 82 be 78 37 28 bf 57 df e0 3e 21 f5 ce bd
       -0.25571263 -0.6570964 0.43920395 -0.101053484
000200 36 4b 76 3e c3 fa 6a 3e 85 72 8e 3e 04 69 01 3f
       0.24052128 0.2294722 0.27821746 0.50550866
000210 91 a5 ad be a4 f5 ff be 21 7b 78 3f e1 04 e9 bd
       -0.3391538 -0.49992096 0.9706288 -0.11377884
000220 29 16 a9 bd 04 12 53 3c 67 9e a7 be 5d 73 26 bf
       -0.0825618 0.012882713 -0.3273804 -0.6501978
000230 07 98 ca 3d 12 bd ff be d1 08 fb bd 35 89 bb be
       0.09892278 -0.49948937 -0.12257541 -0.36628118
000240 96 bd db 3c 47 6a e3 3e 42 0d b9 3e 9a f8 55 bf
       0.0268238 0.4441702 0.36142927 -0.8358246
000250 24 42 38 3f e6 fd 33 3e 26 03 c6 3e a9 81 28 bf
       0.7197592 0.17577323 0.38674277 -0.65822846
000260 70 cb 84 3e be 6b ff 3e 98 c4 04 3f b2 16 d8 be
       0.2593646 0.49886888 0.5186248 -0.42204815
000270 aa 53 31 bf d1 f1 36 bf 84 0d 25 3e 6c 70 ad be
       -0.69268286 -0.7146273 0.16118437 -0.33874834
000280 a6 f7 c8 be 15 c0 c6 3e 3f e8 35 3e 20 03 2c be
       -0.3925144 0.38818422 0.17764376 -0.16798067
000290 22 e9 44 bf bb 34 41 3e 31 76 d1 bd 7b 96 0b 3e
       -0.7691823 0.18867771 -0.10227621 0.13631622
0002a0 91 cc 78 be 66 7c 84 bf 8f d2 40 3e 6f d4 e6 be
       -0.24296786 -1.0350463 0.18830322 -0.4508395
0002b0 30 03 9e 3e b4 64 07 bf cd 85 81 be ff 95 1f 3f
       0.30861807 -0.52888036 -0.25297394 0.6233825
0002c0 84 fb 02 3f 2a 24 d4 bd d1 06 8c be ed 93 a9 3d
       0.5116503 -0.1035846 -0.2734895 0.08280168
0002d0 08 24 81 be b0 90 59 3e e7 e9 e6 3d ca 50 b0 be
       -0.25222802 0.212466 0.11275082 -0.34436637
0002e0 4b 19 f1 be 88 50 2d bf 07 c4 8b bb dc e9 d0 bd
       -0.4708961 -0.67701006 -0.0042653116 -0.10200855
0002f0 8f 49 91 bc e6 e9 1d 3d b9 82 bf be f0 bd 18 bf
       -0.01773527 0.03855314 -0.3740442 -0.5966482
000300 6d d4 0a bd ee 95 13 bf ce da 9b 3d aa 63 ba 3d
       -0.03389399 -0.5765065 0.07610093 0.09101041
000310 54 98 a5 be f6 db b8 3e 57 36 de 3e 71 8d 2c 3f
       -0.3234278 0.36105317 0.43400833 0.6740332
000320 32 39 9d 3e 9b fa ad 3f 7a d3 39 bf 46 b6 47 3f
       0.307077 1.3592104 -0.7258831 0.780125
000330 4b 50 a4 3e eb 6f 20 bd ac d3 3e 3d 1b 78 2a 3e
       0.3209251 -0.039169233 0.046588585 0.16647379
000340 c5 bb 35 3c 32 b5 40 be ce e8 b0 3e f3 43 ba be
       0.011092131 -0.1881912 0.34552616 -0.36379966
000350 3b 98 8b be e8 8a 8c 3f f0 7c dd be 8e b3 d3 3e
       -0.2726458 1.0979891 -0.43259382 0.41347927
000360 c2 15 0d bf 9b 83 10 3f 51 f5 2a bf c5 d0 96 bd
       -0.55111325 0.56450814 -0.66780573 -0.073640384
000370 f2 fc 81 3d ff c3 39 3e 9a 47 af be 44 1f ac bf
       0.063470736 0.18141173 -0.34234315 -1.3447042
000380 eb f2 13 3f e1 3f fd be 7f de 15 bf ee ee 87 3e
       0.5779254 -0.49462798 -0.5854263 0.26549476
000390 f9 de 76 3e c3 08 4f be c7 92 b4 be ca d7 08 bf
       0.24108495 -0.20218186 -0.35268232 -0.5345427
0003a0 f7 51 24 3f c5 a6 9c 3e d4 82 74 bd dc c6 89 be
       0.6418757 0.30595985 -0.05969508 -0.2690953
0003b0 27 ab 5b 3e de c1 d9 3e f3 90 e5 be e6 d0 6a be
       0.21452008 0.4253072 -0.4483715 -0.22931251
0003c0 e8 eb a5 bc 47 3f 25 3f b6 fe 83 bd 37 85 50 be
       -0.02025409 0.6454968 -0.06445067 -0.20363317
0003d0 9c 90 40 3f 34 2b 58 3e dd d4 8b bf ec 58 56 3d
       0.75220656 0.2111023 -1.0924336 0.052330896
0003e0 d8 b4 97 3e 2c b3 0f 3f 96 47 50 bf bb 65 08 bf
       0.2963016 0.5613277 -0.8135923 -0.5328023
0003f0 0f 48 85 3e 90 d3 8a bd a7 df 5a 3f 53 b3 3a be
       0.2603154 -0.067786336 0.85497516 -0.1823247

bias f4 [128]
000000 a0 a6 58 bf 3e f6 59 bf b8 c4 1f bf aa 0b 64 bf
       -0.8462925 -0.8514136 -0.62409544 -0.890803
000010 e7 f8 32 bf c5 b9 1c bf c9 a3 5e bf 91 4c 49 bf
       -0.69911045 -0.6122096 -0.86968666 -0.78632456
000020 ff c0 77 bf 3f fb 1f bf 78 1e 26 bf 0a 4c 6a bf
       -0.96778864 -0.62492746 -0.6489024 -0.91522276
000030 fa eb 95 be ef 25 0a bf 3e 74 8e be fa 66 3a bf
       -0.29281598 -0.5396413 -0.2782306 -0.7281338
000040 27 9f fd be 04 c4 7c bf de f2 1e bf 53 8b 53 be
       -0.49535486 -0.98736596 -0.62089336 -0.20658617
000050 6a fa 38 be bf 21 0f bf 0b a0 e2 be ed eb 1a bf
       -0.18064275 -0.5591087 -0.44262728 -0.60516244
000060 8d 90 81 bf ea 04 76 bf 9c de 83 bf 12 6b d1 be
       -1.0122238 -0.9610125 -1.030231 -0.40902
000070 4c dc 1a bf f3 eb 31 bf 17 ec 4b bf d5 b2 00 bf
       -0.60492396 -0.69500655 -0.7965712 -0.50272876
000080 70 d7 05 bf 40 d8 03 bf af 75 de be 47 5c 3f bf
       -0.52281857 -0.51501846 -0.4344916 -0.7475018
000090 ed 44 42 bf b3 11 20 bf 08 75 25 bf 73 dd 0f bf
       -0.7588642 -0.62527007 -0.646317 -0.5619728
0000a0 f5 2c fe be ae 18 2b bf 54 50 0f bf d4 7a 9e bf
       -0.49643674 -0.66834533 -0.55981946 -1.2381234
0000b0 a2 25 98 bf dd e1 05 bf 09 79 91 bf 33 49 ce be
       -1.1886485 -0.52297765 -1.1365062 -0.40290222
0000c0 51 2d 00 bf 4a 28 83 bf 33 bd 45 bf 02 59 ff be
       -0.5006915 -1.024667 -0.7724182 -0.49872595
0000d0 c9 c9 05 bf af 1b 1f bf 36 26 86 bf 2b b7 46 bf
       -0.52261025 -0.62151617 -1.0480411 -0.7762324
0000e0 6f 2e d6 bd b2 f6 0f bf 29 72 c7 bf d2 97 06 bf
       -0.10458075 -0.562358 -1.5581714 -0.5257541
0000f0 5a 4c 62 bf 4a 13 94 bf e3 27 73 bf ad 9a 9e bd
       -0.88397753 -1.1568387 -0.9498274 -0.07744346
000100 51 b9 7a bf 9c ef 4b bf aa 74 89 bf e1 03 5c bf
       -0.9793902 -0.7966249 -1.0738728 -0.8594342
000110 12 2c d9 be 65 c1 f4 be af 77 7a bf 65 e0 1b bf
       -0.42416435 -0.47803798 -0.9783887 -0.60889274
000120 ea 50 42 bf 48 6a 3b bf a3 cc 1f bf f9 50 5e bf
       -0.75904715 -0.7320905 -0.62421626 -0.86842304
000130 de 22 6c bf e6 fb 63 bf bd 36 e8 be a0 9e 9e be
       -0.92240703 -0.8905624 -0.45354262 -0.30980396
000140 ad 9b 62 bf ae ca 07 bf 98 11 1c bf c9 eb 6a bf
       -0.8851879 -0.5304364 -0.60964346 -0.9176603
000150 fe 78 6d bf 3b 20 ae be b9 3e 97 bf 41 e6 9b be
       -0.92762744 -0.34008965 -1.1816016 -0.30449107
000160 6c 7e 2b bf 58 df a8 bf 3f 05 1d bf 57 19 9d bf
       -0.6698978 -1.3193159 -0.6133613 -1.2273358
000170 9f c4 56 bf ce 41 a9 bf 61 41 2f bf 3f 31 38 bf
       -0.8389377 -1.3223207 -0.68459135 -0.71950144
000180 1c 00 e7 be d4 86 1f bf f3 82 79 bf 90 ee 95 be
       -0.4511727 -0.62315106 -0.9746544 -0.2928357
000190 f6 7b 0a bf a8 94 0c bf 52 9b 5c be 82 cd 35 bf
       -0.540954 -0.5491433 -0.21543625 -0.71016705
0001a0 e2 d7 8b bf d4 7f 24 bf 96 bb 02 bf 8a 28 20 bf
       -1.0925257 -0.6425755 -0.51067483 -0.6256186
0001b0 6b 5e 3e bf 4f bc 1a bf 3c e5 4d bf cd ef 06 bf
       -0.7436282 -0.60443586 -0.8042791 -0.52709657
0001c0 e4 55 b4 bf 09 d0 69 bf 30 f9 88 bf 48 32 a2 bf
       -1.4088712 -0.9133306 -1.0701046 -1.2671595
0001d0 a6 a8 86 bf 1f 0d 35 bf 35 94 db be f0 db d3 be
       -1.0520217 -0.70723146 -0.4288651 -0.41378736
0001e0 49 9b 9c bf 0a 5e 3f bf 26 81 21 bf 40 d5 1f bf
       -1.2234889 -0.7475287 -0.6308769 -0.6243477
0001f0 4c ab 0c bf 7a 10 21 bf 49 42 75 bf 75 ac b2 be
       -0.5494888 -0.62915766 -0.9580427 -0.348972

weight f4 [64, 128]
000000 1f 0f a9 3e 39 e2 4f 3f a6 9a 53 bf 51 54 80 bd
       0.3301935 0.81204563 -0.8265785 -0.06266082
000010 45 0c 7b be db f5 ba be a9 74 90 bd 54 e0 50 3f
       -0.24516399 -0.36515698 -0.07053501 0.815923
000020 0f ea ee 3e 37 f9 f9 3e 72 30 00 be 07 dd 69 3e
       0.46662948 0.48822948 -0.1251848 0.22838221
000030 d4 76 bc be f8 d3 72 bf 8d d0 ed 3e a5 83 a9 bd
       -0.3680941 -0.9485469 0.46448174 -0.08277062
000040 4a 28 85 3e 4e 2a 15 3f c8 58 54 be 2e 00 5b 3f
       0.260073 0.58267677 -0.20736992 0.8554715
000050 e2 72 6a be e4 d8 fe be b4 4f fe 3a b0 b9 24 bf
       -0.22895387 -0.4977485 0.0019402415 -0.64345837
000060 3c 5d fa be cd ef 01 be aa 0c ee bd 59 29 db be
       -0.48899257 -0.12689133 -0.11623509 -0.42804983
000070 5c 6b 0a 3f 41 df 6d 3c e1 14 19 3d 25 2f 0d 3f
       0.5407007 0.01451856 0.037373427 0.5515006
000080 d4 82 3a 3f a2 50 b9 3e 0b f0 47 3e 3c 6b 62 3f
       0.7285588 0.3619433 0.19525163 0.88444877
000090 87 57 19 bd 26 70 c5 3e 1d 87 1d 3f ae 6b 05 bf
       -0.03743699 0.38562125 0.6153429 -0.5211743
0000a0 ea 19 65 be b5 cb d3 3e eb 33 66 be 45 d6 e6 3d
       -0.22373167 0.41366354 -0.22480743 0.112713374
0000b0 db 84 91 3e ee a3 38 3d 60 1b 73 3e 81 c9 ee bc
       0.28421673 0.04507821 0.23740911 -0.029148819
0000c0 01 45 ec bd 61 8a d6 be dd 33 0d bf 80 2c e4 3e
       -0.11536599 -0.4190245 -0.5515726 0.445652
0000d0 19 a7 c2 be e5 3a 08 be 45 f2 4a 3f bb 9d 1c 3e
       -0.3801811 -0.13303716 0.79275924 0.15294544
0000e0 dd 99 6f 3e 18 fc 91 3f cd 22 84 be 24 16 c1 3e
       0.23398538 1.1405058 -0.258078 0.37712204
0000f0 35 4e 73 3e e0 6d 1a 3e 6a 0b 3a 3f ca 8e e0 be
       0.23760302 0.15080976 0.72673666 -0.4385894
000100 1a b6 15 3d 46 93 94 be b7 67 03 3f 14 c9 c2 bd
       0.03655062 -0.2901861 0.5133013 -0.09511009
000110 20 9a 72 bf 1c 6c 85 be b3 89 d6 be b0 dc e0 bd
       -0.94766426 -0.26059043 -0.4190193 -0.10979593
000120 3d b3 0f be 5d 43 27 3e 60 7d 22 3e 0b 06 ee be
       -0.14033218 0.16334291 0.1586814 -0.46488985
000130 8b e7 38 be 1c 8d ca be 24 7c 99 3e eb 73 39 3d
       -0.18057077 -0.39560783 0.29977524 0.045276564
000140 95 f7 34 3f 68 c9 ef 3e e6 cd a6 be e0 0c 00 bf
       0.7069028 0.46833348 -0.32578963 -0.50019646
000150 81 be 84 3e 49 1c b9 3c 3b 39 fe be ab f3 81 3e
       0.25926593 0.022596495 -0.49653038 0.25381216
000160 cc be 42 be f9 0d 08 bf 06 97 e4 3e 20 e6 12 3f
       -0.19018096 -0.5314632 0.44646472 0.5738239
000170 00 63 fa be 2e 17 15 3f 6c b6 a0 be 8e 33 ec 3e
       -0.48903656 0.58238494 -0.31389177 0.46133083
000180 3d bd c4 3d 4d 22 aa 3d 19 d3 ae be 3a cd 98 bd
       0.09606407 0.083073236 -0.3414543 -0.07461019
000190 34 e2 42 be 79 0a 93 be c2 cb 9f bd d8 f7 97 3e
       -0.19031602 -0.28718928 -0.078025356 0.29681277
0001a0 00 51 b4 3d 32 f3 4b 3e e3 0c 08 3f ce 48 43 3e
       0.08804512 0.1991699 0.53144664 0.19070742
0001b0 83 10 ec 3e c7 c5 c0 3d 8c 83 24 3d 4e 4c 28 3f
       0.46106347 0.09412723 0.040164515 0.6574143
0001c0 a9 f1 29 3e 34 0e 1e 3e 48 be 89 be f3 43 7b be
       0.16596092 0.15435106 -0.26902986 -0.2453764
0001d0 47 35 a7 3e 0c ee bf be 63 09 d5 3e 92 39 32 be
       0.32657835 -0.37486303 0.41608724 -0.17404774
0001e0 f3 9a 93 3e 61 29 83 3e e3 28 d8 3e 34 a5 bb 3e
       0.28829154 0.25617507 0.42218694 0.36649477
0001f0 8a 13 41 be 40 9a 2c 3d f0 2a be be 76 18 ab 3e
       -0.1885511 0.04213929 -0.37142134 0.334171
000200 52 e0 38 bf 8d bf 6d bd 76 79 97 3e 4d 09 1a 3e
       -0.72217286 -0.058044005 0.29584855 0.1504261
000210 69 ab 63 bf 13 68 be 3e bd 34 89 3e cf fd a6 bd
       -0.88933426 0.37188777 0.2679805 -0.08153879
000220 68 27 34 3f 68 9e e4 3e 25 46 19 be a7 83 b4 3e
       0.7037263 0.44652104 -0.14968164 0.35256693
000230 23 e2 8e be 06 09 09 3f ba 2e 34 3f 8a ae 0a 3f
       -0.27906904 0.53529394 0.703838 0.54172575
000240 93 6b 1c 3f 37 49 83 3e 78 89 3d 3e 07 e9 de 3e
       0.61101645 0.25641796 0.18509471 0.4353716
000250 9b 28 26 be 50 f6 01 3e 0e 9c e0 3e ca a9 ca 3e
       -0.16226427 0.12691617 0.4386906 0.39582664
000260 25 3c 51 3e 51 f6 98 bd f7 fa b3 bd cf e1 99 3e
       0.204331 -0.07468856 -0.08788102 0.3005509
000270 e7 21 97 be 5e 0a 4d be dc 61 23 3e 17 bb 8d 3d
       -0.29518053 -0.20023486 0.15955299 0.0692045
000280 8b 7e 5f 3f bd 7f 17 3f e3 b0 23 bf c7 8b 12 be
       0.87302464 0.5917929 -0.6394178 -0.14311133
000290 2a 01 24 bd f1 5d 8f bd f9 df 71 bf 3b 51 03 bf
       -0.040040173 -0.0700034 -0.9448238 -0.5129582
0002a0 18 9f 51 3f 4c 45 9c bc 15 43 b7 3e f9 0b ae 3e
       0.8188338 -0.019076012 0.35793367 0.3399351
0002b0 3e 2c 00 bf 15 0f 12 3f 16 ca 32 3e f6 b1 0a 3e
       -0.5006751 0.57054263 0.17459902 0.13544449
0002c0 3d 78 0a 3e 29 3a ca 3e 51 65 ab 3e b1 12 e3 3e
       0.1352243 0.39497498 0.33475736 0.44350198
0002d0 f2 ca 11 3c 18 32 85 3e 79 41 22 3e 66 20 66 be
       0.008898484 0.2601478 0.15845288 -0.22473297
0002e0 06 1d 97 3e 3b 48 57 3c d4 79 84 bf 88 92 a0 3e
       0.2951433 0.01313978 -1.0349679 0.31361794
0002f0 cd 59 27 bf 3f 56 2b be 64 b6 c5 3b 49 b8 92 bb
       -0.653714 -0.16732119 0.0060337055 -0.004477535
000300 37 5f 12 bf 16 b6 97 be fe d7 5e 3f 9f 3c 03 bf
       -0.57176536 -0.29631108 0.8704833 -0.51264375
000310 9b 2b d9 3d ce ea d0 be fb 3f 22 be f1 7f 9d 3d
       0.1060402 -0.40804142 -0.15844719 0.076904185
000320 b0 f3 0c 3e 04 cf 50 3e 88 ee 8a 3e f0 8e 03 3e
       0.13764834 0.2039147 0.2713511 0.12847495
000330 35 21 b3 3d 67 65 f8 be 92 5a 4c 3f f6 6f 2a 3f
       0.08746568 -0.48514864 0.798257 0.6657709
000340 f5 9e d5 be e1 70 2a 3d 87 e2 0f 3f 9c c5 39 bd
       -0.41722837 0.041611556 0.5620503 -0.04535447
000350 d5 e7 af 3e e1 02 6a be 28 f7 92 be 5d 86 36 3e
       0.3435656 -0.2285266 -0.2870419 0.17824693
000360 8c 15 ca be 63 0f ca be b4 c2 cf bd 9c 9f 1a bf
       -0.39469564 -0.39464864 -0.101445585 -0.60399795
000370 4a 8b e7 bc c0 54 33 bb 44 31 5b 3e 60 f2 0d bf
       -0.02826466 -0.0027363747 0.21405512 -0.5544796
000380 c8 a0 2c be a1 ac ea bd 28 63 13 bf 8d 57 8f 3e
       -0.16858208 -0.114587076 -0.57573175 0.27996483
000390 c7 d1 00 3f 9e 3a bc 3e ca 74 74 3d f6 d2 22 3f
       0.50320095 0.3676347 0.05968169 0.6360315
0003a0 d7 da 0e be b6 eb 7b 3e 26 df 17 3f ce 85 b3 be
       -0.13950668 0.24601635 0.5932487 -0.35063022
0003b0 f5 ba 39 bf 37 29 60 be 41 1d f1 be 50 51 46 3f
       -0.725509 -0.21890722 -0.4709263 0.77467823
0003c0 24 b7 5d 3e d1 36 9c be e4 67 26 be a2 06 d4 be
       0.21651894 -0.30510572 -0.16250569 -0.4141131
0003d0 02 aa 33 bf da a1 b9 be f7 64 03 3e f9 10 99 3e
       -0.70181286 -0.36256295 0.12831484 0.29895762
0003e0 56 d7 a1 be d0 f3 28 3f 0d f2 48 be 52 5b 7c 3f
       -0.316096 0.6599703 -0.19623585 0.98576844
0003f0 70 2e f4 3e f3 6c 04 bf be cd b5 bc e6 e0 2f 3f
       0.4769168 -0.51728743 -0.022192832 0.6870254

bias f4 [64]
000000 67 18 66 3d 67 bf 92 3e c1 81 eb 3e 45 41 0a bf
       0.056175616 0.28661653 0.45997432 -0.54005843
000010 ab 92 93 3e cf c5 0f be 1f 19 98 bd c5 c4 1d bf
       0.28822836 -0.14040302 -0.074266665 -0.6162837
000020 5a af a3 bd e0 ce fb 3e 27 e9 55 bf 8d bd 3f bf
       -0.0799243 0.4918127 -0.8355889 -0.74898607
000030 8a 40 ca be 7a a7 f0 bd 69 26 3c bd 5a 4d d6 bd
       -0.39502364 -0.117506936 -0.04593507 -0.104639724
000040 4a ae 3d 3d 60 02 72 3e d5 5a 39 3f 91 8d 5a 3d
       0.046308793 0.23633718 0.72404224 0.053357664
000050 af 1d a7 be 1c 30 0c bf 48 cd eb 3c 8c 3e 42 3e
       -0.32639834 -0.5476091 0.02878441 0.18969172
000060 67 6e 10 bd 06 cf 81 3d c0 ae fc bd 1a 0f 65 3e
       -0.035261538 0.06338315 -0.123380184 0.22369042
000070 a9 27 4e bf 15 19 a3 3e e3 be 5a 3e b8 0c 18 be
       -0.80529267 0.31855074 0.2136188 -0.14848602
000080 e7 30 e5 3e 44 67 39 bd 46 c3 1c 3e b6 34 1c 3d
       0.44763872 -0.045264497 0.15308866 0.038136207
000090 a0 b6 02 3f 54 ab 84 bd 00 19 78 3e 8f bd 94 bd
       0.51059914 -0.06477991 0.24228287 -0.07262718
0000a0 ca 3c 90 be 56 be ad be 54 4a ad 3e 43 dd d8 3e
       -0.28171378 -0.33934277 0.3384577 0.4235631
0000b0 4c 7f ea be 7e 6a b2 3e 1c 68 3d 3f 77 c5 49 bf
       -0.45800245 0.34846872 0.73986983 -0.7881693
0000c0 7b 82 ba bd 98 8b eb 3d b7 b3 ae bd 0c c5 63 3e
       -0.091069184 0.11501235 -0.08530372 0.22243136
0000d0 b4 7e ba 3d 63 50 be 3e 14 48 e1 3d de 6a 90 bd
       0.09106198 0.37170705 0.11000076 -0.07051633
0000e0 96 aa 39 3f f0 fa 01 3e 30 dd ea 3e 0e 44 b7 3e
       0.7252592 0.12693381 0.45871878 0.3579411
0000f0 32 6f dc bd e7 de d9 3d db a2 fa be 72 3e 4c 3f
       -0.10763396 0.106382184 -0.48952374 0.79782784

weight f4 [28, 64]
000000 59 4a 99 bf 01 1e c3 3e 10 00 e5 bd b8 51 f7 bd
       -1.1975814 0.3810883 -0.111816525 -0.120761335
000010 e3 74 8b be 9c 2f 27 bf bc 43 12 3d c2 3f 9f be
       -0.27237615 -0.6530702 0.035709128 -0.3110333
000020 50 f0 99 3e bc 9b 1e 3f a0 8b 99 be 31 61 87 be
       0.30066156 0.6195638 -0.29989338 -0.2644134
000030 52 80 0c 3e 9f a8 41 3d e2 8a f7 3d 62 3a 44 3e
       0.13720825 0.04727995 0.12087037 0.19162896
000040 bb 19 81 bc c5 71 80 bc 45 cb 73 3e e1 19 c0 3e
       -0.01575934 -0.01567925 0.2380801 0.37519744
000050 ce 52 be 3e 08 21 82 be ea f2 ae be 94 d5 2d be
       0.3717255 -0.25415826 -0.34169704 -0.16976005
000060 2b ca a7 bf 18 dd 9d bf 92 ac 1d bf ce 26 5a 3e
       -1.3108572 -1.2333097 -0.61591446 0.21303865
000070 10 73 01 bf a6 6a f0 3e 7d 99 e9 be 3b 15 f0 be
       -0.50566196 0.46956366 -0.45624915 -0.46891198
000080 d0 1f 5d bf 66 39 e0 3e 3a 98 83 bf 9a d5 29 bf
       -0.8637667 0.43793792 -1.0280831 -0.66341555
000090 77 dd 81 be a5 c6 23 bf be 33 29 3d 4f 99 d6 be
       -0.25364277 -0.6397498 0.04130911 -0.4191384
0000a0 72 b0 d6 3e 8f 0f 65 3d 98 01 61 3f 54 b6 1f 3f
       0.41931492 0.05592304 0.87893057 0.62387586
0000b0 67 3e ae 3e 85 2e fd 3e e6 4d 68 bf 96 03 d2 be
       0.34031984 0.49449554 -0.90743864 -0.4101836
0000c0 5c 09 65 bf 06 93 08 be eb a1 6a be cc 4f 98 bf
       -0.89467406 -0.13337335 -0.2291333 -1.1899352
0000d0 30 f7 01 3f 4e 71 ef be 2f 75 50 3e 2a bd 9e 3d
       0.50767803 -0.46766132 0.20357202 0.07750924
0000e0 c2 db 06 3f 3d ab ef be 4a 39 9e bd 68 d1 0d 3e
       0.52679074 -0.46810332 -0.07725771 0.13849413
0000f0 ca 33 c7 be 07 35 19 3f b1 d7 8b be 14 75 b4 3e
       -0.389067 0.5984654 -0.27312997 0.35245574
000100 35 63 64 3e 18 9e 72 3e 16 2b 89 be 72 1b 29 bf
       0.2230347 0.2369312 -0.26790684 -0.66057503
000110 d5 da aa 3c 63 09 be be fd ad 9b 3e eb 97 5a be
       0.0208563 -0.37116536 0.3040618 -0.21347015
000120 d4 1a 4f bf de c5 f9 3e a1 1d ba 3e 5c 2f d6 bc
       -0.8090031 0.48783773 0.3635073 -0.02614563
000130 7b 74 4b 3e 9a 32 6c bf a4 7c ab 3c 35 f4 fd bd
       0.19868653 -0.9226471 0.020933457 -0.124000944
000140 a4 70 85 bd b8 fc c7 3e b3 01 8c 3e a8 68 b9 3d
       -0.06515625 0.39059997 0.27345046 0.09053165
000150 33 de 5d bf 89 12 c7 3e 9e de 0a bf 1a 89 28 3f
       -0.86667174 0.3888133 -0.54245937 0.658342
000160 e4 1c b9 bd 9d f0 a9 be cd 6e 55 bf 46 38 1e bf
       -0.090387136 -0.33191386 -0.83372194 -0.61804616
000170 ac 7d ab be 5f 00 5f bf 91 e3 10 bf a6 9a 9d bf
       -0.33494318 -0.8710994 -0.5659724 -1.231282
000180 94 97 73 bf 0b 3f db 3e 4d 43 be 3e 05 66 57 bf
       -0.95153165 0.42821535 0.3716072 -0.84140044
000190 08 d9 2b bf 1c dc ea 3e 6a 18 a3 bf c6 2c 65 be
       -0.6712804 0.45871055 -1.2741826 -0.22380361
0001a0 55 95 f3 be 6f 39 a9 3d 39 42 35 3e 54 8e 38 bf
       -0.4757487 0.08262908 0.17701043 -0.72092175
0001b0 cb d0 85 3e aa ae 63 bf dd e5 c8 3d c0 e3 27 bf
       0.2613586 -0.8893839 0.09809468 -0.65581894
0001c0 1e 09 2a 3e 69 5a 3b bf 38 6e 49 3e 26 d5 c6 3e
       0.1660504 -0.7318483 0.19670951 0.38834494
0001d0 e3 9a dd 3e 84 af ca 3e e0 b5 73 bd 6d dd c2 3c
       0.43282232 0.39587033 -0.05949962 0.023787225
0001e0 da 48 a5 bd ea d4 dd 3d ac f3 ee 3e 5d b0 e1 bd
       -0.08070536 0.10831626 0.46670282 -0.11019967
0001f0 99 3d 05 3e d4 44 58 bd 0e 5e f4 bd 3d e7 bf 3e
       0.13011779 -0.052800015 -0.11932002 0.37481108
000200 0a 45 8d bc a8 b1 8e 3e e4 72 93 3e fe 14 67 be
       -0.017244834 0.27869916 0.28798592 -0.22566602
000210 de 42 9d bd 59 e3 e9 be ea a3 e0 bd 11 75 57 bf
       -0.076787695 -0.45681265 -0.10968764 -0.84163004
000220 cd 2a b8 3e 64 00 37 bf 59 1c 58 bf ff 26 6c 3d
       0.35970154 -0.7148497 -0.84418255 0.057654377
000230 86 a2 dd 3e 02 09 43 be 58 43 28 3e b7 b1 e3 3e
       0.43288058 -0.19046405 0.1643194 0.44471523
000240 d7 38 08 be d7 3d f4 3e ed 3e a7 3e 13 e5 c3 3e
       -0.13302933 0.4770343 0.32665196 0.38260707
000250 08 b7 01 bd e6 cc c0 be 1b 79 40 be a2 6b 35 bf
       -0.031668693 -0.37656325 -0.18796198 -0.7086736
000260 46 ea 8d be 06 cc 99 be 0a 94 4c 3e 3e 32 a3 bd
       -0.277178 -0.3003847 0.19978347 -0.07968567
000270 b1 01 67 3e b2 3c 6c 3e ac 5f 87 3d 53 32 84 bf
       0.22559239 0.23070028 0.06610045 -1.0327858
000280 ad 4e a4 be 2d 28 4c 3d c0 19 c7 be 38 8b bc 3b
       -0.32091275 0.049843002 -0.38886833 0.005753901
000290 13 60 0e 3e a3 9e 5b 3e 08 2f 55 bf c2 c6 49 bf
       0.13903837 0.21447234 -0.8327489 -0.78818905
0002a0 e0 75 e7 3e 25 38 8e 3e 46 e5 9b bf ed fd 21 bf
       0.4520712 0.2777721 -1.2179344 -0.63278085
0002b0 45 32 80 3e 64 72 fb 3d 54 51 13 3e 47 31 60 be
       0.25038353 0.12277678 0.14386493 -0.21893798
0002c0 96 1e 5d 3e 9b f0 9e be 70 b5 62 be 92 6f b4 be
       0.21593699 -0.31042942 -0.22139525 -0.3524137
0002d0 ef 54 bd bd 0d 2e 81 3e 67 0b 86 bf e5 91 04 3e
       -0.092447154 0.25230446 -1.047223 0.1294628
0002e0 cd d5 01 be b7 51 6a bf b3 ab 5d 3d 47 bd 22 3e
       -0.12679215 -0.91530937 0.054118823 0.15892516
0002f0 7a 38 37 3e 5c b5 4b 3e e6 fa ca be a8 4e a6 be
       0.17892638 0.19893402 -0.39644545 -0.32481885
000300 4b 7f 47 bf 60 2a 82 3e a7 d9 a7 3d b1 72 9b bf
       -0.7792861 0.25422955 0.08195811 -1.2144376
000310 b2 e6 c4 3e 7d 9a 88 bf b4 76 82 bf 8a 72 2a 3d
       0.38457257 -1.0672146 -1.0192475 0.04161314
000320 1d 7f 12 3e e0 63 e7 be 5f 2f 8e bd 00 07 46 bf
       0.14306302 -0.45193386 -0.06942629 -0.7735443
000330 54 36 3a bf 68 ae 2b bf 3c dd 94 bc 4f 92 d0 3e
       -0.7273915 -0.67063 -0.018171899 0.40736625
000340 69 39 80 3e 28 7f 04 3e bd cd 7c 3d b6 d0 c1 be
       0.250438 0.12939131 0.061719645 -0.37854546
000350 e7 8f 46 3e 46 4f 88 bf 66 12 47 bf 38 ef ba bf
       0.19390832 -1.0649192 -0.7776245 -1.4604254
000360 5c 88 4d 3f 96 0a 01 3f 28 21 ab be e8 1c fb bd
       0.8028619 0.5040678 -0.33423734 -0.12261373
000370 90 8a a8 bf 51 b3 47 3e 2b f0 6c 3e 15 7e d1 3e
       -1.3167286 0.19501998 0.23138492 0.40916505
000380 ba 22 17 3d e3 33 e8 be a5 2b 4a bf f5 76 43 3e
       0.036898352 -0.45352086 -0.78972846 0.19088347
000390 67 98 61 3e c3 62 ac be b1 2d 18 3f 59 40 41 bf
       0.22030793 -0.336691 0.5944472 -0.7548881
0003a0 ec f9 b1 bf 59 79 59 bf 41 7f 46 3e 46 75 24 3f
       -1.3904395 -0.84950787 0.19384481 0.64241445
0003b0 15 aa 50 bf 95 66 38 bf 40 3c cd be 8b 65 1b bf
       -0.81509525 -0.7203153 -0.4008503 -0.6070182
0003c0 30 66 6d be 1f 47 04 3e c6 c8 ec 3e 20 a0 6d 3e
       -0.23183513 0.12917756 0.46246928 0.23205614
0003d0 91 55 b9 be 87 7a d6 3d 6b eb 2f bf 5d 97 ef bd
       -0.36198094 0.10472589 -0.68718594 -0.11698792
0003e0 70 0a c0 3d 19 a3 99 bd 6c 61 23 bf d0 c5 be 3e
       0.09376991 -0.075018115 -0.6382053 0.37260294
0003f0 54 71 40 3f 96 b9 bd 3d e1 79 ed 3d 98 80 8b bf
       0.75172925 0.09263913 0.11595512 -1.0898619

bias f4 [28]
000000 62 59 ab 3d 59 17 01 3f d5 17 11 3c b4 a7 4b 3e
       0.08366658 0.5042625 0.00885578 0.19888192
000010 73 b5 57 be 13 5a 02 bd 90 31 99 bd 39 fd 41 3d
       -0.21065311 -0.031824183 -0.074801564 0.047360633
000020 ce 22 65 bd cf 75 0e 3e 63 c0 c4 be 32 9c d3 3d
       -0.055941395 0.13912128 -0.3842803 0.10332526
000030 83 ba d6 3e ac d3 98 3e da b0 c3 be d6 bb 98 bc
       0.41939172 0.29848993 -0.38220865 -0.018644255
000040 04 9b 79 be 0d 3d e1 be eb eb 05 be 33 52 15 3e
       -0.2437554 -0.4399189 -0.13078277 0.14582138
000050 58 50 1a be 42 6f bf bf 17 52 7b 3f 56 40 d9 be
       -0.15069711 -1.4955828 0.98172134 -0.42431897
000060 82 82 0e 3e 3b 10 17 3f 40 9a 9e 3e 18 a8 1a be
       0.13916972 0.5900914 0.30977058 -0.15103185
