mlruns/0/114dc70075ba411abd4a3f4479a129a2/artifacts/model/data/model.pth (torch, 84416 bytes, 4 tensors)

weight f4 [64, 284]
000000 66 95 76 3e 02 55 06 be f4 f2 bb 3d 2e 51 c2 3b
       0.24080428 -0.13118365 0.09177199 0.0059300875
000010 24 7a 82 3d 6e 90 4c bd 07 bc 55 be be 32 9c bc
       0.06370953 -0.049942426 -0.20872508 -0.019067165
000020 5b bb a6 3e 67 63 6d 3e 99 de ce be 61 00 6d be
       0.32564816 0.2318245 -0.40404204 -0.23144676
000030 14 c0 d8 bb 8f a9 c7 3c e3 53 13 3d 5d 59 95 bd
       -0.0066146944 0.024372844 0.035968672 -0.07292435
000040 64 ec 89 3e a4 49 bd 3d 72 66 15 3e b7 3c 10 3e
       0.26938164 0.092425615 0.14589861 0.14085661
000050 9a 6e ab 3e 6b 25 17 be 5b 8e 4c 3e 81 97 a4 3e
       0.3348282 -0.14760368 0.1997618 0.32146838
000060 bb d3 c9 3e 12 f7 0c be 25 6f 4e bd f9 59 bb 3e
       0.3941935 -0.13766125 -0.050398964 0.3659208
000070 72 09 1a 3e 84 cf 88 bc c3 bd 6e be 74 07 00 3f
       0.15042666 -0.016700514 -0.23314576 0.5001137
000080 97 ab fb be 4b 02 1a 3e 13 fa d4 3c b1 5f 66 be
       -0.4915435 0.15039937 0.02599815 -0.22497441
000090 41 bb eb be 06 3c 0e bc 4f e6 49 be 95 75 a4 bd
       -0.460413 -0.008681303 -0.19716762 -0.080302395
0000a0 91 3d 4a bd 6c 18 6a be 5e 3d ec 3e ea 37 c5 3d
       -0.04937512 -0.22860879 0.4614057 0.096298054
0000b0 44 26 21 3e 01 a6 7a 3d 63 4f a9 3e 01 40 02 3e
       0.15737253 0.06119347 0.3306838 0.12719728
0000c0 b0 57 59 be 42 b5 b6 3c ab 14 c0 bd 88 bc a1 3e
       -0.21224856 0.022303227 -0.09378942 0.3158915
0000d0 22 4f a3 3d a1 0b 76 be dc 21 cc 3e 81 5f 62 be
       0.07974078 -0.24027874 0.39869583 -0.22106744
0000e0 bd 69 f4 3e b4 d2 75 bc af 5f db 3e 3e ed 8a bd
       0.47736922 -0.015003849 0.42846438 -0.067835316
0000f0 0f 19 9b 3e ae 5b 3a 3e ec e8 6d be 5d 91 31 be
       0.30292556 0.18199036 -0.23233384 -0.17340608
000100 6a 05 46 3f 5c 6c 3a be 27 b7 70 3a e6 a0 2b be
       0.7735201 -0.18205398 0.0009182565 -0.16760597
000110 d1 00 15 bf 81 aa 87 3d 0b 59 cd 3e f7 98 bd 3e
       -0.5820437 0.06624318 0.40106997 0.37030765
000120 35 9c ab be e4 e6 a5 3e bf 94 9c bd 7a 41 c3 3c
       -0.33517614 0.32402718 -0.076455586 0.023834933
000130 b8 a2 4c be 72 ce 01 bc 28 a7 02 be fa 7f 1f be
       -0.19983947 -0.007922756 -0.12759078 -0.15576163
000140 ac 86 7a be ca 7d 1f bf cb aa 0c 3f 5f f2 53 3e
       -0.24465436 -0.62301314 0.5494811 0.20697926
000150 7f 49 e3 be fa 0f 14 3e 60 d0 c3 be 43 64 ad bd
       -0.4439201 0.1445922 -0.38244915 -0.08466389
000160 e3 c3 c7 bd 76 34 fc bd c7 6b c5 bd d2 d6 1d bf
       -0.09754159 -0.12314694 -0.096396975 -0.61655915
000170 f2 3a 29 bd f1 cd 2f bf 58 19 ee 3d f6 08 9a 3d
       -0.04131598 -0.68673617 0.11625928 0.075212404
000180 8a e6 7a 3e 02 d5 05 3f a6 c4 11 bf 83 4e 3e 3d
       0.24502006 0.5227815 -0.56940687 0.046461593
000190 7a f6 00 be f6 61 24 be 04 a4 df be a6 3c 96 bd
       -0.12594023 -0.16052994 -0.43679821 -0.073357865
0001a0 aa 28 78 3c 51 c8 b8 3e ab 93 c3 be dd 6a d3 be
       0.015146414 0.3609033 -0.381986 -0.41292468
0001b0 ff 76 9d bd 32 40 7c 3d 13 b6 87 3e b9 6d 85 3f
       -0.07688712 0.06158466 0.265061 1.042411
0001c0 aa f8 69 3f 6b 52 0b 3f d4 66 cc be 18 0e 11 3f
       0.91395056 0.54422635 -0.39922202 0.5666213
0001d0 cf ad 8c 3e 40 3f 49 3e 51 92 ea bd ab 61 cd 3d
       0.27476355 0.19653034 -0.11453689 0.10028394
0001e0 d6 47 bf be 57 35 ac be 59 3d 12 3f 28 47 01 bf
       -0.37359494 -0.33634445 0.5712486 -0.504992
0001f0 ab 93 8d be c3 f7 01 bd b0 31 10 bf 37 80 a7 bd
       -0.27651724 -0.031730425 -0.5632582 -0.08178752
000200 b8 49 d7 3d 92 2c 23 bf 5b 0d ef 3e b8 94 c0 bd
       0.105121076 -0.63739884 0.46689877 -0.09403366
000210 85 f8 95 3e 36 11 9d 3d 2d 6b 50 bc 76 50 c7 3e
       0.29291168 0.07669298 -0.012720865 0.38928574
000220 a4 5b 2a bf 88 b6 7b be 3f fd d4 be 9e 12 f9 bc
       -0.6654608 -0.24581349 -0.4159946 -0.030404385
000230 cf 81 a8 3d 4f 29 9e 3e 41 7d 2e 3f 13 7c c6 3e
       0.08227884 0.3089089 0.6815987 0.38766536
000240 5d 20 ac be 92 ad 54 be 81 fe 0e 3d c2 35 de 3e
       -0.3361844 -0.20769337 0.034910683 0.4340039
000250 5c fc a6 bd 6f 4f 2f 3e 8f 46 b4 bd d8 1d e1 be
       -0.081536025 0.17120145 -0.088025205 -0.4396808
000260 9d 24 da bd a1 fe aa 3e 36 4e 67 3e 11 1e 55 3d
       -0.10651515 0.3339739 0.22588429 0.052030627
000270 48 3d 25 3e a7 9d 94 be d1 eb cf be 18 5f 4c 3e
       0.16136658 -0.2902653 -0.406096 0.1995815
000280 4a fd e9 bd f5 0f 80 3e d9 9a 38 3e dd 26 d2 be
       -0.11425264 0.25012174 0.1802782 -0.41045275
000290 6b 92 8d 3e d7 87 9a 3e 2a 75 34 bf 48 e9 2a be
       0.2765077 0.30181763 -0.7049128 -0.16690552
0002a0 72 0e e4 be 7c 94 d5 3e cd 93 c7 3e 73 fe 2b 3e
       -0.4454227 0.41714847 0.3897995 0.16796283
0002b0 06 cd fd bd a6 5f 26 3f c5 bf 90 3e ac f6 e8 be
       -0.12392621 0.649897 0.2827131 -0.45500696
0002c0 6f b5 86 bb 42 9e 28 be cf 1c d9 be ef 99 70 be
       -0.004110984 -0.1646662 -0.42404792 -0.23496221
0002d0 91 97 0c 3e 1f 10 b0 3e c6 6d f5 3e 22 86 a1 3e
       0.13729693 0.343873 0.47935313 0.31547648
0002e0 77 b5 1a be a0 b3 93 3e f1 a4 39 be 2a e0 18 3e
       -0.15108286 0.2884798 -0.18129326 0.14929262
0002f0 0c 9a 37 be 13 a7 8d bd 02 33 c7 be 09 49 1b 3e
       -0.17929858 -0.069166325 -0.38906103 0.1516458
000300 38 dc eb be df b6 cf be a1 ad 49 3f fa 53 de 3d
       -0.4606645 -0.40569207 0.7878056 0.10855861
000310 b0 b5 b5 3d 72 12 98 3d 66 b1 3f be 89 47 b0 be
       0.08872545 0.07425393 -0.18720016 -0.34429577
000320 94 7e 5d 3e f0 5c 37 bd 1c 50 41 bf 79 ed 9c be
       0.21630317 -0.044766366 -0.7551286 -0.30649927
000330 69 d1 38 bf 4f 0d 59 be 13 c7 1a be 2f e7 36 be
       -0.72194535 -0.21196483 -0.15115003 -0.17861627
000340 8c a8 fd 3e e4 36 d5 3e cf b3 15 bf 5d b3 f8 bd
       0.49542654 0.4164344 -0.5847749 -0.12143586
000350 11 fb 93 be 9d f7 0d bf 44 56 86 3e c5 0c 87 bb
       -0.28902486 -0.5545595 0.2623769 -0.0041213953
000360 17 bc f0 3e 19 68 d0 3e 82 06 34 3d d5 8d 97 3e
       0.470185 0.4070442 0.04395152 0.29600397
000370 ff e7 d4 3d b3 39 65 bf 54 c4 56 3e 18 d9 b5 3e
       0.10395812 -0.8954117 0.2097333 0.35517192
000380 63 f8 f7 be cd 95 72 3e 81 28 28 3f f9 42 60 be
       -0.48431692 0.23689957 0.65686804 -0.21900548
000390 69 e2 ee 3e 28 a9 56 bf 21 25 60 3f 14 7d c2 be
       0.46657112 -0.8385186 0.87556654 -0.37986052
0003a0 cb 4e 0d bf e4 92 07 bf 56 26 2d be 83 0b 94 3e
       -0.55198354 -0.5295851 -0.16909155 0.28915033
0003b0 46 57 45 be f4 34 fa be a0 fa 60 be 64 4e e6 be
       -0.19271573 -0.48868525 -0.21970606 -0.44981682
0003c0 62 d2 21 3f 3e 14 22 3e 74 94 2b bf 43 c6 80 3d
       0.63211644 0.15828034 -0.67023396 0.062878154
0003d0 11 25 b4 3e 34 0a fd be fb 4e 80 be 84 b2 20 be
       0.3518453 -0.49421847 -0.25060257 -0.15693098
0003e0 d6 19 42 3e b9 3d 0d 3f 0f 17 d9 3e cf 43 08 3e
       0.18955168 0.55172306 0.42400405 0.13307117
0003f0 10 ba 73 3e cd b8 49 3e 66 c2 bd 3e 8c b6 7d be
       0.23801446 0.19699402 0.37062377 -0.24776667

bias f4 [64]
000000 35 28 e5 3d 4d 5a 03 3f e0 1c f7 3e 82 a2 1e 3e
       0.111893095 0.51309663 0.48264217 0.1549168
000010 f0 49 33 3f 8f 9a cc 3e 16 ce ba 3e 49 91 17 3f
       0.70034695 0.3996167 0.36485356 0.5920606
000020 14 71 45 3f bf 3a 87 3e 85 d3 47 3e 9d 0c 89 3e
       0.7712567 0.26412007 0.19514282 0.26767436
000030 32 66 6c 3f ea b6 38 3f 16 f3 28 3e 61 04 3a 3f
       0.9234344 0.72154105 0.1649898 0.7266293
000040 c6 00 cf 3e f0 4c e2 3e 21 d2 02 3f 95 6b 45 3e
       0.40430278 0.44199324 0.5110188 0.1927932
000050 c3 60 53 3f 7b 38 3c 3f 7f 3a 81 3e a0 ad 8b 3f
       0.8256952 0.7352368 0.2523994 1.0912361
000060 8a f1 b8 3e eb ea 7a 3d c2 90 01 3f b6 84 13 3f
       0.3612178 0.06125919 0.5061151 0.57624376
000070 8f 2d 07 3f 39 b2 11 3f 0e a8 bf 3e bf 32 ac 3e
       0.5280389 0.5691257 0.37432903 0.33632466
000080 18 c4 06 3f 52 f6 92 3e 1d c7 9f 3e f5 96 1a 3f
       0.52642965 0.28703552 0.312066 0.6038659
000090 81 cf 62 3e e2 5c 0f 3f 32 a0 b1 3e f6 10 3b 3e
       0.22149469 0.560011 0.34692532 0.18268189
0000a0 dc c7 2e 3f a4 bf c6 3d df 1f 9a 3e 18 a4 c2 3e
       0.6827371 0.09704521 0.3010244 0.3801582
0000b0 a3 80 20 3f 88 19 5d 3f b8 39 e1 3e 17 78 32 3f
       0.62696284 0.8636708 0.43989348 0.6971449
0000c0 5d c8 1a 3f fc 09 13 3f 9d b2 ef 3e a0 fb 1d 3f
       0.6046198 0.5743711 0.4681596 0.61712074
0000d0 46 80 ed bb 82 ef 5f 3e 31 70 09 3f ea 55 e5 3e
       -0.0072479574 0.21868709 0.53686816 0.4479211
0000e0 b9 49 0b 3f b0 35 7c 3f 0d f3 22 3f 87 a9 4b 3e
       0.54409367 0.9851942 0.63652116 0.19888888
0000f0 76 30 4a 3f 02 58 9a 3e 36 bc 26 3f 43 06 87 3e
       0.78980196 0.3014527 0.6513094 0.26371965

weight f4 [28, 64]
000000 00 5e 3a 3f b4 27 8d bf fe 68 a7 be ad 25 3a 3c
       0.7279968 -1.1027741 -0.3269729 0.011361522
000010 5c a8 3c bf ce eb 90 bf de 5e 26 3f a4 78 6f 3f
       -0.73694396 -1.1321962 0.64988506 0.9354346
000020 32 84 25 3f e4 09 1f bf 58 11 1c 3e bd 66 cb 3d
       0.6465484 -0.62124467 0.15240991 0.09931705
000030 8a 0d 13 bf b3 32 3c 3f 85 80 1d 3e d5 e6 dc be
       -0.57442534 0.7351486 0.15381058 -0.4314486
000040 e1 86 95 bf a5 3c a0 bd 26 34 ce be 96 7e 80 bf
       -1.1681787 -0.07824067 -0.4027416 -1.0038631
000050 49 d3 9d be 61 29 c7 bf da 99 9c bf b4 44 4f 3f
       -0.3082526 -1.5559503 -1.2234452 0.8096421
000060 bf ba c9 be 36 94 cf 3e 03 17 fb be 36 3e 19 bf
       -0.39400288 0.40542763 -0.49040994 -0.5986055
000070 35 1f 1e bf ea 41 09 bf a2 41 cf 3e 63 1a 0f be
       -0.6176637 -0.536162 0.4047976 -0.1397491
000080 a5 af 97 bf 36 43 06 be 0a f4 19 3e 50 5c 81 3e
       -1.1850477 -0.13111576 0.150345 0.2526574
000090 41 66 25 bf 9c 54 fb 3d 1b b9 02 bd 37 2e 7b bf
       -0.6460915 0.12271997 -0.03191481 -0.98117393
0000a0 60 4b 4d 3e 04 84 55 be 9e a4 2a bf 4b cb 0f c0
       0.20048285 -0.20851141 -0.66657436 -2.246783
0000b0 bd 36 2a 3f d4 4d f1 3e 7e fd 84 3f 3b 4c ea be
       0.66489774 0.4712969 1.038986 -0.45761284
0000c0 52 d7 17 bf 85 17 42 3e 55 7c 39 be 74 a5 e5 be
       -0.5931293 0.18954284 -0.18113835 -0.44852793
0000d0 0e a1 2b bf 35 c1 82 3e 36 66 84 3e 7d 2c 7b bf
       -0.67042625 0.2553803 0.2585923 -0.9811476
0000e0 d1 75 fc 3e a1 66 0c 3f 9d c0 48 3f 96 08 e1 be
       0.49308637 0.548441 0.78418905 -0.43951863
0000f0 bb db fb be 15 fd c4 3d 39 e9 22 bf 6f 17 5d 3f
       -0.4919108 0.09618584 -0.6363712 0.8636388
000100 f4 86 9f be b4 47 86 3f c4 63 26 bf d8 55 36 be
       -0.3115765 1.0490632 -0.6499598 -0.17806184
000110 52 a2 2b 3e db d4 a0 bf ed 42 1d 3f 76 c0 1b be
       0.16761139 -1.2564958 0.61430246 -0.15210137
000120 82 fb 2d 3e e7 41 e8 be 47 a5 9d bf 7b 0f d1 bf
       0.16990474 -0.4536278 -1.2316064 -1.6332849
000130 07 dd 05 3e 39 88 4b bf 27 94 b2 bf 78 19 c1 3e
       0.13072596 -0.79504734 -1.3951463 0.37714744
000140 75 81 c0 bf 8b e0 87 bf 6e 56 22 3f 11 cd 30 3f
       -1.5039507 -1.06154 0.6341313 0.69062907
000150 6e d3 17 be 26 59 4d 3e ec 8f 1f 3f 22 a9 08 be
       -0.14826748 0.20053539 0.6232898 -0.13345769
000160 3a ad 3e be d7 cb 4f bf c1 22 78 be 06 f0 40 3f
       -0.18620768 -0.8117041 -0.24232008 0.75366247
000170 20 e7 85 bf c5 83 3f 3f 99 0a 41 be 98 d2 7e bf
       -1.0461159 0.7481044 -0.18851699 -0.9954009
000180 3f 80 ed be 93 b5 7f be ae 56 8e be a1 c5 ad 3e
       -0.46386907 -0.24971609 -0.27800506 0.3393984
000190 b1 c2 66 3e 1b 5a 46 3f 15 98 f6 3e 12 b5 ad bf
       0.22535206 0.7748124 0.48162904 -1.3570883
0001a0 a7 54 43 3e e1 80 17 3f 4a 0d a0 bf 4d ff e5 3e
       0.19075261 0.5918103 -1.2504056 0.44921342
0001b0 94 25 18 3f e5 d8 9a 3e 6e 03 89 3e d6 fe c3 bd
       0.5943234 0.30243602 0.2676043 -0.095700905
0001c0 36 56 e8 bf d8 fa 18 bf 60 16 cf bf a5 49 e2 bf
       -1.815131 -0.5975776 -1.6178703 -1.7678725
0001d0 0f 1a 1f 3f 69 d9 4f 3f da d6 1d be 3e 2e 5d 3e
       0.6214914 0.81191117 -0.1541399 0.21599671
0001e0 77 d8 89 bf 68 c7 80 3e 2c e2 8a be fa b3 93 bf
       -1.0769185 0.25152135 -0.2712568 -1.15393
0001f0 33 64 59 bf a1 a3 d4 3e 77 3c bb 3e 49 da be be
       -0.84918517 0.4153109 0.3656957 -0.37275913
000200 10 a2 1d bf 19 d4 80 be bf 75 50 bf cf 31 e7 be
       -0.6157541 -0.25161818 -0.81429666 -0.45155188
000210 33 32 ea be 94 82 13 3e 52 43 69 be 6b c6 1f be
       -0.45741424 0.1440528 -0.22779587 -0.15603034
000220 a6 4c 00 3e 83 7f cc 3e ec da a6 bf 91 91 51 3e
       0.12529239 0.39941034 -1.303556 0.20465685
000230 3b cf d4 3e f3 d8 04 3e a5 bd f7 be 16 bf 53 bf
       0.41564354 0.12973385 -0.48386875 -0.8271345
000240 c0 e0 d5 3e 0a c6 d5 3e 0f 3c 49 bf 6b 7d a0 3d
       0.41773033 0.41752654 -0.7860727 0.078364216
000250 05 b4 8c 3e f7 52 6d be 40 0a 62 be 4f b4 d4 bc
       0.27481094 -0.2317618 -0.22074223 -0.025964884
000260 1e 65 4c bf a2 28 d5 bd 72 87 8c bf 05 79 cd 3e
       -0.7984179 -0.10408141 -1.0978835 0.40131393
000270 0e ec a7 bf 04 a3 a5 be 21 d2 b2 3e 68 55 92 3d
       -1.3118913 -0.32350934 0.3492594 0.07145196
000280 18 79 09 bf 29 6c fc 3e 64 68 3d bf 84 50 ea 3e
       -0.537004 0.4930127 -0.7398741 0.45764554
000290 c8 42 52 3f 27 cd e7 bd 54 25 84 3e a5 e7 4c 3f
       0.8213315 -0.113184266 0.2580973 0.8004096
0002a0 64 01 08 3e e3 44 dc bc 41 d1 ee 3e eb a3 05 bf
       0.1328178 -0.026888316 0.46644023 -0.52203244
0002b0 ab 3b 6d bf a9 66 61 3e c4 0a fc be a0 55 14 bf
       -0.9266917 0.22011818 -0.49226964 -0.57943153
0002c0 22 c8 e5 be 12 0a 25 3f 49 87 9c 3e e7 d8 1e 3f
       -0.44879252 0.6446849 0.30571964 0.62049717
0002d0 1e 8f b1 3e f3 08 3c 3e 65 17 23 bf 12 83 a9 bf
       0.34679502 0.18362789 -0.6370757 -1.3243124
0002e0 85 e4 66 bf d0 b9 00 3f 3e ed 84 be 5d ac 0d bf
       -0.90192443 0.5028353 -0.2596225 -0.5534113
0002f0 42 b6 71 bf 3a 1c 16 3f fd f6 84 be a7 58 bc be
       -0.9441873 0.5863682 -0.25969687 -0.36786386
000300 0f e7 95 bf 08 88 14 be 34 b5 86 3f 59 b0 63 3f
       -1.1711138 -0.14505017 1.0524049 0.8894096
000310 b3 9f 79 3f 0a 86 2e bf c8 43 6a 3c b2 c5 4d 3f
       0.97509307 -0.6817328 0.014298387 0.80379784
000320 da e0 bc bf c3 e7 d5 bf 6d f9 8d be 3b cb 9b be
       -1.4756119 -1.6711353 -0.2772936 -0.3042849
000330 ad 32 13 3f 1e 08 5b 3f e9 f0 a8 3e 4c 4a 65 be
       0.574992 0.8555926 0.329963 -0.22391623
000340 52 19 b0 bd d2 0d 87 bf 31 18 21 c0 0a 9d 0c bf
       -0.085985795 -1.0551093 -2.5171015 -0.5492712
000350 be a4 91 3e 4a 59 02 bf b0 ca fc be f7 78 53 bf
       0.28446 -0.50917494 -0.49373388 -0.8260645
000360 55 13 46 bf 6e ca 34 bf 41 fb 87 bf 26 77 ef be
       -0.7737325 -0.70621383 -1.0623552 -0.4677059
000370 e7 16 fe 3e 03 ea 89 bf e1 80 35 bf 0c 09 71 bf
       0.49626848 -1.077454 -0.7089978 -0.9415443
000380 eb c3 f8 bf 97 4d 9a bf 32 79 e6 be 55 79 0b c0
       -1.943479 -1.2054929 -0.4501434 -2.1792805
000390 2a e9 94 3d 65 19 2a bf 13 a5 54 bf 03 58 12 3f
       0.07271035 -0.66445 -0.83064383 0.57165545
0003a0 8d 6f 84 be 49 78 43 3f 36 ea c0 bf b9 05 94 bf
       -0.25866356 0.76355416 -1.5071476 -1.1564246
0003b0 cd 03 2c bd c2 16 a5 3d 87 99 9b bf a8 a1 02 3f
       -0.041995812 0.08060981 -1.2156228 0.5102792
0003c0 cb cf 9d bd 04 9f 0c 3e 03 03 03 3f d6 37 af 3e
       -0.07705649 0.13732535 0.5117647 0.34222287
0003d0 4b 2f ff bf a0 2c fc be 64 d4 33 bf 13 88 5d 3f
       -1.9936308 -0.49252796 -0.7024596 0.8653576
0003e0 ca fd 41 3f 59 3d 40 3e 77 6a 84 3f f7 26 e6 bc
       0.75777876 0.18773402 1.034499 -0.028094752
0003f0 fa 9b 07 c0 3a de 77 be dc c5 63 bf 7e 45 b6 bf
       -2.118895 -0.24205866 -0.88973784 -1.4239957

bias f4 [28]
000000 06 16 d4 3e d2 46 e7 3d ca 28 b7 bd 0f 7a 1c 3e
       0.41423053 0.11292805 -0.08943327 0.15280937
000010 3b fc 30 be 0a 7a 0c be fd 3b 96 bc a2 0a 7a be
       -0.17283718 -0.13718429 -0.018339152 -0.24418119
000020 c2 d1 93 be 77 97 16 3e a2 86 ba 3d 36 94 0e bd
       -0.2887097 0.14706217 0.091077104 -0.034809314
000030 c8 59 b1 be 48 6a c2 3e 63 52 3b 3e 6d 02 31 bb
       -0.3463881 0.3797171 0.18293147 -0.0027009503
000040 67 de 0b be 6a 27 0e bf a2 4f 73 bd a3 6e b9 bc
       -0.13659059 -0.5552889 -0.059402116 -0.022635764
000050 3a 2b 8d bd 5c 30 44 bf 69 bc a8 3e 33 6a 0d bf
       -0.068930104 -0.7663629 0.32956246 -0.5524017
000060 cb cf 41 3d 8c 6e 88 3e 8c 07 9a 3e d4 15 91 bd
       0.047317307 0.2664684 0.30083883 -0.070842415
